results/run2/MazeBrain/MazeBrain-924098.pt (torch, 999756 bytes, 39 tensors)

network_body._body_endoder.seq_layers.0.weight f4 [128, 186]
-0.025411563 -0.009960428 -0.10879301 -0.05375483 -0.009453469 -0.034126356 -0.05965205 -0.022362791
0.12788703 -0.08169058 0.14999853 -0.005137946 0.021246757 -0.022913497 0.033313088 0.048538268
0.076920904 -0.122487575 -0.00096148386 0.010374193 -0.11164731 -0.088639155 -0.12906583 -0.003117873
0.029956628 -0.028180217 0.0025783277 0.02423161 0.014637862 -0.0145673 0.093794644 0.13763872
0.06336342 0.062182676 -0.1183629 0.08149334 -0.088023834 0.1116317 -0.10583235 -0.0046223034
0.088511534 0.003998592 -0.0703302 -0.051235475 0.10283217 0.0426294 -0.015945755 0.12138014
0.12913631 0.009660936 -0.0089471005 0.058754705 -0.021390233 -0.033071585 -0.0755166 -0.034180176
0.015478627 0.19922043 -0.038843814 -0.105193436 -0.11442644 0.008630098 -0.013040153 0.020669745
0.047346603 0.041506585 -0.087403715 0.0656214 0.05398281 0.031647224 -0.051800698 -0.005207285
-0.05542813 0.03569609 0.06191769 -0.044851482 -0.007557711 0.05724457 0.033372454 -0.01645677
-0.03103288 -0.13769405 0.053872548 0.15093414 0.067733094 -0.078551 -0.04047405 -0.043039035
0.038772807 0.028078368 0.02558898 -0.010809266 0.0040060882 0.13317472 -0.041679014 -0.033021934
-0.047196098 0.08734806 0.10725054 0.0010196039 0.084075764 -0.012245144 -0.00818183 -0.05163242
-0.026131118 0.0024768915 -0.053513028 0.0653503 -0.036441267 0.047135726 0.03438102 0.03209481
0.024447948 -0.051748246 0.10046115 -0.022549085 0.10572658 0.089716814 0.07564118 0.04075024
0.08698489 -0.06827726 -0.06443474 0.09742014 -0.015226975 -0.10235286 -0.083049685 -0.09476715
-0.004930093 -0.11098001 -0.015000508 0.10161382 0.006128643 -0.028575592 0.05150927 -0.046870243
-0.12703943 -0.010410834 0.031873897 0.027074622 0.075444385 0.0028287962 -0.08599237 -0.06018611
0.11268928 0.043033674 0.009943865 0.06129054 0.023110522 -0.06642679 0.06487937 0.028717434
0.009295731 0.013236729 -0.025357975 -0.09050372 0.06406835 -0.056435026 0.008526843 -0.0005927879
-0.0057606893 -0.00066736236 -0.17088814 -0.042323623 0.00058948854 0.06400519 -0.0010033214 -0.00981393
0.17457809 -0.18347451 -0.0025709227 -0.10595403 -0.04157409 -0.09992758 -0.015915336 0.06425529
-0.02223267 -0.061148692 -0.018363845 -0.08841909 -0.08483161 0.002863835 -0.03625986 0.062420174
-0.042389613 -0.18716441 -0.050303396 -0.04771448 -0.037203863 -0.0025441619 0.1097378 0.059516624
0.039289452 0.03605795 0.020346425 0.014168141 0.061717074 -0.03066718 -0.15045454 -0.045051433
0.013161827 0.0011446162 -0.05572633 -0.059925802 -0.06328661 0.069108985 0.08317979 0.11692751
-0.08804256 -0.04003258 -0.01723092 0.10258707 0.060316943 0.033637155 0.07603594 -0.0060719578
0.0023690697 -0.09259591 -0.051322468 -0.004193298 0.057113737 -0.0065462575 0.039445683 0.04498353
-0.0005003658 0.003143554 0.16850027 -0.025240302 -0.09781435 -0.012423359 -0.0362052 0.032158177
0.08655975 0.018938277 0.11174275 -0.039331622 0.0029731602 0.05820205 0.071200766 0.015241344
-0.10429409 0.015737062 0.027560757 -0.0039923117 -0.0028528497 0.055405002 -0.007727552 -0.010830078
0.084322274 0.056417778 0.03815152 0.04257068 -0.017924469 -0.003948058 -0.089139 0.06673458
00000000: e92b d0bc 1031 23bc dfce debd 062e 5cbd
00000010: b9e2 1abc 14c8 0bbd b555 74bd 2c32 b7bc
00000020: d1f4 023e 644d a7bd 3799 193e 375c a8bb
00000030: ae0d ae3c 16b5 bbbc 4e73 083d 10d0 463d
00000040: b588 9d3d c4da fabd 170c 7cba 85f8 293c
00000050: 58a7 e4bd 7288 b5bd d529 04be 3b55 4cbb
00000060: 9a67 f53c 33da e6bc 29f9 283b 5f81 c63c
00000070: a5d3 6f3c afab 6ebc 6817 c03d 2af1 0c3e
00000080: aec4 813d 43b3 7e3d 4068 f2bd fbe5 a63d
00000090: d745 b4bd 299f e43d a2be d8bd b176 97bb
000000a0: 8945 b53d 9f06 833b 4809 90bd 4adc 51bd
000000b0: ac99 d23d 2a9c 2e3d aca0 82bc 2796 f83d
000000c0: 4f3c 043e e748 1e3c dc96 12bc c6a8 703d
000000d0: 923a afbc 1276 07bd 72a8 9abd 8300 0cbd
000000e0: 119a 7d3c 7100 4c3e b11a 1fbd a86f d7bd
000000f0: 6958 eabd 4165 0d3c 5ea6 55bc 9953 a93c
00000100: 83ee 413d cf02 2a3d b800 b3bd 8364 863d
00000110: 141d 5d3d 85a0 013d f82c 54bd dfa1 aabb
00000120: 9b08 63bd 1036 123d 679d 7d3d 30b6 37bd
00000130: ada6 f7bb 4879 6a3d 8eb1 083d 59d0 86bc
00000140: ab38 febc abff 0cbe 76a9 5c3d 7b8e 1a3e
00000150: a6b7 8a3d 59df a0bd 1ec8 25bd b349 30bd
00000160: 3cd0 1e3d 9b04 e63c fb9f d13c 5919 31bc
00000170: 8145 833b f45e 083e 9db7 2abd 0242 07bd
00000180: b250 41bd 8ae3 b23d 2ca6 db3d 3ba4 853a
00000190: ea2f ac3d db9f 48bc 150d 06bc 847c 53bd
000001a0: ed10 d6bc 5853 223b 7a30 5bbd 61d6 853d
000001b0: 7043 15bd 6411 413d 1dd3 0c3d d975 033d
000001c0: 1047 c83c f8f5 53bd 93be cd3d dcb8 b8bc
000001d0: 2d87 d83d 73bd b73d c3e9 9a3d b9e9 263d
000001e0: 2225 b23d f3d4 8bbd 5cf6 83bd 3684 c73d
000001f0: 907a 79bc 609e d1bd f415 aabd 4815 c2bd
00000200: 9e8c a1bb 7d49 e3bd b1c4 75bc e81a d03d
00000210: c9d2 c83b 5c17 eabc 62fb 523d 03fb 3fbd
00000220: a016 02be 3492 2abc 348e 023d 99cb dd3c
00000230: 9682 9a3d 5363 393b c51c b0bd b685 76bd
00000240: a3c9 e63d 1444 303d 98eb 223c ca0b 7b3d
00000250: 4752 bd3c c50a 88bd 7adf 843d d340 eb3c
00000260: 1f4d 183c dede 583c 87bb cfbc 045a b9bd
00000270: 4436 833d 6a28 67bd 2cb4 0b3c 5365 1bba
00000280: 2ac4 bcbb eef1 2eba 4dfd 2ebe 895b 2dbd
00000290: e887 1a3a 2715 833d e181 83ba 9bca 20bc
000002a0: 99c4 323e bee0 3bbe ed7c 28bb 6dfe d8bd
000002b0: 9849 2abd d5a6 ccbd e160 82bc 4798 833d
000002c0: 4a21 b6bc 0d77 7abd c66f 96bc 1115 b5bd
000002d0: 32bc adbd 2eaf 3b3b 3885 14bd 4cac 7f3d
000002e0: bba0 2dbd 07a8 3fbe ef0a 4ebd 4270 43bd
000002f0: 1463 18bd f4bb 26bb 36be e03d b4c7 733d
00000300: faed 203d 80b1 133d 8cad a63c 7e21 683c
00000310: 0bcb 7c3d bd39 fbbc c110 1abe da87 38bd
00000320: b4a4 573c f206 963a 4b41 64bd c274 75bd
00000330: 699c 81bd 0389 8d3d 2a5a aa3d b177 ef3d
00000340: a84f b4bd 34f9 23bd dc27 8dbc 2b19 d23d
00000350: e60e 773d 1dc7 093d bbb8 9b3d 46f7 c6bb
00000360: 6542 1b3b eda2 bdbd 8237 52bd ef67 89bb
00000370: 18f0 693d fd81 d6bb cc91 213d a640 383d
00000380: fb2a 03ba 1604 4e3b 568b 2c3e c0c4 cebc
00000390: e452 c8bd 588b 4bbc e74b 14bd 4bb8 033d
000003a0: 3d46 b13d 7224 9b3c 62d9 e43d 321a 21bd
000003b0: 5ad9 423b 4665 6e3d b5d1 913d d5b6 793c
000003c0: 2498 d5bd 03eb 803c 19c7 e13c f0d1 82bb
000003d0: e0f6 3abb 5bf0 623d 6837 fdbb a470 31bc
000003e0: 28b1 ac3d 5416 673d c544 1c3d 985e 2e3d
000003f0: 56d6 92bc b65e 81bb 828e b6bd 24ac 883d

network_body._body_endoder.seq_layers.0.bias f4 [128]
-0.028682783 -0.0065259296 -0.010879012 0.0071617556 -0.020366153 -0.00014876602 0.026623933 -0.014725178
0.0010758769 -0.026236396 -0.011627794 -0.0011536995 -0.006012088 -0.011997151 0.010577585 0.0018568937
0.004623956 -0.002910105 -0.006217337 0.007895911 -0.006439024 0.002090077 0.019513678 -0.0012217015
-0.0011859383 0.0007028758 -0.008652006 0.0008249718 0.009679481 0.0033044335 -0.010018028 -0.025052581
0.005047539 0.0074746977 0.014314827 0.015742429 -0.009226551 0.0013358993 0.012395112 -0.011123544
-0.020966973 0.008581184 0.00016850195 0.0053755958 -0.01454538 -0.00946861 -0.0023389556 0.010046985
0.0015543904 0.010845102 -0.016867345 0.010250757 -0.029984914 -0.011542223 -0.0026658531 0.0054453094
0.022995327 -0.0046227984 0.0043617785 0.008607572 0.0066526625 -0.005015461 -0.019944755 -0.0034729277
0.0084565235 -0.009588331 -0.0015500298 0.011290003 -0.006462815 0.00485046 -0.0013076414 0.008480538
0.008154357 0.0016013006 -0.0034258887 -0.014168206 -0.014715703 0.0038543027 0.006539087 0.011623631
-0.0004413095 0.009021241 0.008767077 -0.0072940583 0.014160148 -0.01637238 0.006287147 -0.003285585
0.0047712955 -0.019733293 -0.009913611 0.00066374004 -0.014981781 0.0025001976 0.014342478 -0.0004896685
-0.011726798 -0.0036006118 0.00072867854 -0.008278738 0.006925358 8.742072e-05 -0.005126417 0.014955659
0.014454967 -0.028000552 -0.011037574 -0.01833227 0.011192131 -0.004771477 0.01029412 0.0095206145
0.009827322 0.011016961 0.00025658478 -0.0119196465 0.0042720265 0.009439029 -0.0036053746 0.011672713
-0.008469351 -0.008397403 -0.004590859 0.010978768 -0.0054973084 0.01439028 -0.0017327023 0.008987917
00000000: 28f8 eabc 77d7 d5bb e23d 32bc 29ad ea3b
00000010: ebd6 a6bc 13fe 1bb9 6f1a da3c df41 71bc
00000020: 7004 8d3a b6ed d6bc 8182 3ebc bb37 97ba
00000030: 0d01 c5bb b38f 44bc 9b4d 2d3c 0363 f33a
00000040: 8e84 973b 76b7 3ebb ceba cbbb da5d 013c
00000050: 73fe d2bb acf9 083b 26db 9f3c 8021 a0ba
00000060: 7c71 9bba 3241 383a 25c1 0dbc ec42 583a
00000070: b096 1e3c 328f 583b a822 24bc 123b cdbc
00000080: d365 a53b 4fee f43b bc88 6a3c 44f6 803c
00000090: f62a 17bc 5819 af3a de14 4b3c 863f 36bc
000000a0: eec2 abbc 1898 0c3c e6af 3039 c425 b03b
000000b0: bf4f 6ebc 3b22 1bbc 2a49 19bb 1c9c 243c
000000c0: b0bc cb3a a8af 313c 632d 8abc cbf2 273c
000000d0: eca2 f5bc 981b 3dbc 98b5 2ebb 916e b23b
000000e0: b260 bc3c d87a 97bb 40ed 8e3b c606 0d3c
000000f0: 94fe d93b bc58 a4bb 2f63 a3bc 0f9a 63bb
00000100: 3b8d 0a3c 6018 1dbc 5f2a cbba b4f9 383c
00000110: 06c6 d3bb 9cf0 9e3b 2a65 abba f4f1 0a3c
00000120: da99 053c bbe2 d13a e084 60bb c321 68bc
00000130: 221a 71bc 7898 7c3b d645 d63b 0b71 3e3c
00000140: 8f5f e7b9 d4cd 133c c9a3 0f3c ff02 efbb
00000150: f7ff 673c 5f1f 86bc 6904 ce3b f852 57bb
00000160: 8758 9c3b b7a7 a1bc b36c 22bc d7fe 2d3a
00000170: 2576 75bc 5bda 233b b6fc 6a3c 195d 00ba
00000180: c121 40bc 3ef8 6bbb ca04 3f3a 8ba3 07bc
00000190: 1dee e23b a455 b738 81fb a7bb 9508 753c
000001a0: 87d4 6c3c 6a61 e5bc f1d6 34bc 8f2d 96bc
000001b0: 335f 373c 0d5a 9cbb aba8 283c 5afc 1b3c
000001c0: c702 213c 7c80 343c 3a86 8639 9f4a 43bc
000001d0: 5bfc 8b3b 28a6 1a3c 2648 6cbb e83e 3f3c
000001e0: 08c3 0abc 4395 09bc eb6e 96bb 4ae0 333c
000001f0: c422 b4bb 35c5 6b3c d71b e3ba 0e42 133c

network_body._body_endoder.seq_layers.2.weight f4 [128, 128]
-0.046483234 0.017140724 -0.0050782347 0.06926962 0.049047682 -0.041934587 -0.034077067 -0.074152134
0.116616346 0.02617184 0.088113055 -0.059922043 -0.14810517 0.023194095 -0.0713986 0.05417452
0.04016678 0.10850964 0.13153146 0.020282282 0.0028499581 0.114546515 -0.01041246 0.0909263
-0.027729904 0.05464545 -0.023956208 -0.06213926 0.06601531 0.07018422 0.013374744 0.0538244
-0.04748802 0.12901814 0.045177948 -0.059328485 -0.016272731 0.025842348 -0.13091671 -0.007866663
0.10848869 0.07864662 0.20873353 0.10218771 -0.038021073 -0.10647197 0.14398667 -0.016576447
-0.22696935 0.13266227 -0.091763064 0.07837519 -0.06840892 -0.05087088 0.094346344 0.017253542
0.0074938647 -0.014686929 -0.03081837 0.0045450544 -0.13623162 -0.09537861 0.041974626 -0.12512444
-0.124987155 -0.019211229 0.18316622 -0.16442613 -0.039707366 -0.015961703 0.04762278 0.005224093
0.024882138 -0.047541525 -0.09800749 0.0025830686 0.003965756 0.05265023 -0.031215142 0.092321314
0.07241902 -0.053205322 0.12830368 0.051205765 0.2773796 0.03690236 -0.042115558 -0.0050314106
0.100612745 0.0414796 0.005559389 0.029279234 0.0152278645 -0.017171212 0.04357593 0.038039133
-0.028544834 -0.014406136 0.03394087 -0.048476115 -0.009888991 0.14808983 -0.14111088 0.018727073
-0.103845306 0.049924802 -0.053671084 0.029771833 0.10364634 -0.041639697 0.17717397 -0.065675676
-0.13207696 0.29980132 -0.04350907 -0.030621147 -9.3158225e-05 -0.086020626 0.038731977 0.040464137
-0.047101308 -0.027586592 -0.07492339 -0.11834154 0.10019003 0.19178951 -0.014673953 0.102453694
0.11642092 0.016699333 -0.17004748 -0.025851501 0.024041496 -0.09174183 -0.11030501 -0.1373991
-0.16650307 -0.068228036 0.06307053 0.012197247 0.0010847123 0.013799047 -0.041181248 0.011380959
0.05083569 -0.024423415 0.0689782 0.05256155 0.14708331 0.025362222 0.11241437 -0.04495343
-0.029745083 -0.11555515 0.046234068 0.066782504 0.106708415 0.060666006 -0.0360527 -0.058559127
-0.1663134 -0.06200391 0.17352197 -0.01365212 0.08115599 -0.172101 0.026294112 0.06104142
0.01307885 0.028637754 0.0060117943 0.050729617 0.01076788 -0.0099114925 0.009237025 -0.24435212
0.15359597 -0.066046394 0.14146194 0.021910677 0.22506084 0.020414986 0.05247062 -0.05242842
-0.0040631974 0.016193412 0.025259191 0.023285842 -0.0025136215 -0.054981302 -0.028275555 0.117846906
0.12871283 0.021977957 -0.151157 -0.105172046 -0.06208046 -0.033843305 -0.044739526 0.039939284
-0.040713534 -0.17395754 -0.055127162 -0.068932734 0.20099533 0.206039 -0.041612867 -0.011779221
-0.002290537 0.15225837 -0.1270096 -0.07687501 -0.061227426 0.05191754 -0.19755666 -0.09303834
-0.06414966 -0.03503595 0.10519425 -0.051484425 -0.0032763155 0.13756625 0.07406691 -0.07946472
0.025232054 -0.13994265 -0.048246566 -0.028192246 0.015749462 0.2523934 0.0057826997 0.014433033
-0.17582124 -0.0014768895 -0.028644636 0.06436931 0.10738857 -0.026625147 -0.09638766 0.009124967
-0.020020222 -0.028329693 0.06372227 0.15565108 -0.024174416 0.2031613 0.06538076 -0.15817179
0.08231125 0.0601684 -0.031382564 -0.03977266 -0.045432124 0.0025420066 -0.034987897 0.052127834
00000000: 3465 3ebd b46a 8c3c 5267 a6bb 3bdd 8d3d
00000010: 39e6 483d 9ac3 2bbd 6594 0bbd 13dd 97bd
00000020: 8dd4 ee3d 5466 d63c 9e74 b43d d170 75bd
00000030: e2a8 17be 8b01 be3c 6e39 92bd 1ae6 5d3d
00000040: ec85 243d 4d3a de3d 2fb0 063e 0727 a63c
00000050: 5dc6 3a3b 5d97 ea3d 0699 2abc 9137 ba3d
00000060: d329 e3bc e8d3 5f3d cf3f c4bc bd85 7ebd
00000070: 0933 873d bfbc 8f3d be21 5b3c f976 5c3d
00000080: cc82 42bd 551d 043e 830c 393d 6d02 73bd
00000090: 644e 85bc 55b3 d33c 080f 06be 2de3 00bc
000000a0: 512f de3d 7b11 a13d 3ebe 553e ca47 d13d
000000b0: fcbb 1bbd fa0d dabd 3e71 133e 54cb 87bc
000000c0: a76a 68be 9ed8 073e 46ee bbbd 2c83 a03d
000000d0: fa19 8cbd fc5d 50bd a838 c13d 4d57 8d3c
000000e0: 188f f53b 72a1 70bc ce76 fcbc aeee 943b
000000f0: 4d80 0bbe dc55 c3bd 96ed 2b3d 9f20 00be
00000100: 44f9 ffbd de60 9dbc ed8f 3b3e 535f 28be
00000110: 31a4 22bd 1ec2 82bc 1b10 433d de2e ab3b
00000120: a0d5 cb3c e7ba 42bd 27b8 c8bd b348 293b
00000130: 2cf3 813b c4a7 573d e6b6 ffbc f512 bd3d
00000140: 6c50 943d d3ed 59bd 0a62 033e 23bd 513d
00000150: b304 8e3e ee26 173d 5d81 2cbd 88de a4bb
00000160: 0e0e ce3d 83e6 293d 892b b63b 01db ef3c
00000170: 4b7e 793c a4aa 8cbc ad7c 323d ecce 1b3d
00000180: dbd6 e9bc b707 6cbc 9505 0b3d e48e 46bd
00000190: 6f05 22bc dca4 173e 5f7f 10be 8569 993c
000001a0: d9ac d4bd f37d 4c3d 36d6 5bbd 0fe4 f33c
000001b0: 8844 d43d 638e 2abd 186d 353e f880 86bd
000001c0: 2f3f 07be 8f7f 993e 9136 32bd 33d9 fabc
000001d0: f15d c3b8 952b b0bd 6ca5 1e3d b9bd 253d
000001e0: 4ded 40bd 47fd e1bc 6f71 99bd 0d5d f2bd
000001f0: 6e30 cd3d 7864 443e 056b 70bc 3ed3 d13d
00000200: 176e ee3d 0acd 883c ed20 2ebe 87c6 d3bc
00000210: acf2 c43c 24e3 bbbd 98e7 e1bd 5ab2 0cbe
00000220: c87f 2abe 24bb 8bbd 1f2b 813d f6d6 473c
00000230: e82c 8e3a 6615 623c abad 28bd 3477 3a3c
00000240: 1639 503d 9d13 c8bc 7144 8d3d c84a 573d
00000250: 029d 163e 6fc4 cf3c 8139 e63d 1621 38bd
00000260: f6ab f3bc 2ea8 ecbd ef5f 3d3d 44c5 883d
00000270: f189 da3d eb7c 783d ffab 13bd b2db 6fbd
00000280: 0f4e 2abe d0f7 7dbd beaf 313e 24ad 5fbc
00000290: 1d35 a63d 3f3b 30be c066 d73c 9106 7a3d
000002a0: ac48 563c b999 ea3c 96fe c43b dcc9 4f3d
000002b0: c36b 303c d063 22bc e456 173c 7137 7abe
000002c0: 4348 1d3e 5543 87bd 66db 103e 057e b33c
000002d0: 5976 663e 543d a73c 6feb 563d 2fbf 56bd
000002e0: 9224 85bb 0ca8 843c 5dec ce3c f3c1 be3c
000002f0: 92bb 24bb 1334 61bd 23a2 e7bc b859 f13d
00000300: 4ccd 033e 1e0b b43c e7c8 1abe 7164 d7bd
00000310: 1548 7ebd 479f 0abd cb40 37bd 6097 233d
00000320: 3cc3 26bd ed21 32be 05cd 61bd 9b2c 8dbd
00000330: b8d1 4d3e e3fb 523e 4172 2abd a2fd 40bc
00000340: d61c 16bb 9ee9 1b3e ce0e 02be a570 9dbd
00000350: 9cc9 7abd 7da7 543d 4b4c 4abe e38a bebd
00000360: e660 83bd db81 0fbd 1570 d73d 55e1 52bd
00000370: 74b7 56bb 2bde 0c3e 64b0 973d 66be a2bd
00000380: 74b3 ce3c 204d 0fbe 319e 45bd 6df3 e6bc
00000390: 0405 813c b539 813e cd7c bd3b 8778 6c3c
000003a0: 7c0a 34be 3094 c1ba 28a8 eabc 0fd4 833d
000003b0: 8aee db3d fb1c dabc e566 c5bd e380 153c
000003c0: 7301 a4bc ac13 e8bc d280 823d ff62 1f3e
000003d0: 6d09 c6bc 8409 503e 59e6 853d c9f7 21be
000003e0: cd92 a83d 2473 763d 018b 00bd a8e8 22bd
000003f0: 0917 3abd cb97 263b 784f 0fbd ff83 553d

network_body._body_endoder.seq_layers.2.bias f4 [128]
0.016645577 -0.015264859 -0.02016226 -0.0013699714 0.0062703323 -0.004514461 0.005220986 -0.020688802
-0.004326927 0.002651906 -0.00030087747 -0.0071719214 -0.015106048 0.014880383 0.0028908518 0.0066900128
-0.016595718 0.0003968425 0.011671237 0.0078037344 -0.0006060459 0.016010802 0.0014865865 0.0020109292
-0.020482024 0.02063142 0.009272272 -0.005655412 0.01762531 0.001005706 -0.0033727584 0.020938203
-0.002018297 -0.014339611 0.0097036185 -0.013565376 -0.004600945 -0.0010283386 -0.0049686567 -0.0074846377
0.011048545 0.02690017 0.008727149 -0.018558737 0.008202786 -0.014927279 -0.011758767 0.00066386233
0.01090003 -0.016922738 0.011508705 0.0043958058 0.023798302 0.010478634 -0.011308025 -0.0026995672
-0.0050279573 -0.012298105 0.0014243919 0.002894508 0.009113177 0.007883941 0.011900203 -0.043180812
-0.013236059 0.034677435 0.013017585 -0.014051718 0.014274488 -0.012480208 -0.007172636 -0.02149885
0.011015116 -0.0056284606 0.011861935 -0.011749368 -0.004003263 0.021615319 0.011926397 0.0023348264
0.009748471 0.0018831947 0.01049756 -0.009596229 -0.0076386603 -0.011635781 -0.003841041 -0.005191254
0.008178568 -0.022636876 0.009996418 0.016200885 -0.015094923 0.01689614 -0.020082772 0.007904506
0.020623269 0.005079763 -0.011340347 0.011055073 -0.0043262565 0.010262741 -0.004670702 0.007130056
-0.0061696237 0.01880659 0.011883826 0.007515011 -0.016043233 0.0045817182 0.011315269 0.005992548
0.01939437 0.0052107894 0.0097023845 -0.027382312 -0.021003617 -0.008326523 -0.015322724 -0.009812238
0.0038061212 -0.015832102 0.01010814 0.006611211 -0.006267113 -0.0013779002 0.0017054955 0.004439211
00000000: 4e5c 883c 7619 7abc 532b a5bc 9d90 b3ba
00000010: 5c77 cd3b 0bee 93bb ce14 ab3b 907b a9bc
00000020: e5c8 8dbb 9acb 2d3b 17bf 9db9 7002 ebbb
00000030: 5c7f 77bc dacc 733c 7274 3d3b e537 db3b
00000040: bef3 87bc 4c0f d039 b738 3f3c 78b6 ff3b
00000050: 0ddf 1eba 1629 833c 91d9 c23a cbc9 033b
00000060: ebc9 a7bc 3903 a93c baea 173c 0951 b9bb
00000070: f462 903c e5d1 833a 7f09 5dbb 9886 ab3c
00000080: 6845 04bb b0f0 6abc edfb 1e3c 5041 5ebc
00000090: 86c3 96bb 51c9 86ba 1dd0 a2bb b141 f5bb
000000a0: f504 353c bf5d dc3c 51fc 0e3c 7e08 98bc
000000b0: fa64 063c 8c91 74bc d8a7 40bc 0c07 2e3a
000000c0: 0a96 323c 8ea1 8abc 028f 3c3c b10a 903b
000000d0: a8f4 c23c 94ae 2b3c 4b45 39bc 39eb 30bb
000000e0: 90c1 a4bb fe7d 49bc a9b2 ba3a c9b1 3d3b
000000f0: 6f4f 153c a52b 013c 12f9 423c 5dde 30bd
00000100: 0edc 58bc ed09 0e3d b547 553c 2d39 66bc
00000110: 8bdf 693c c979 4cbc 6f08 ebbb 5b1e b0bc
00000120: bf78 343c f36e b8bb 9058 423c 6c80 40bc
00000130: ce2d 83bb 9c12 b13c ef66 433c e303 193b
00000140: 0db8 1f3c 87d5 f63a f5fd 2b3c 8039 1dbc
00000150: ba4d fabb 01a4 3ebc f9b9 7bbb 651b aabb
00000160: 67ff 053c f870 b9bc 04c8 233c b8b7 843c
00000170: b250 77bc c669 8a3c a084 a4bc e781 013c
00000180: 21f2 a83c 2474 a63b ddcc 39bc 5620 353c
00000190: 45c3 8dbb 0e25 283c b00c 99bb 3fa3 e93b
000001a0: 8e2a cabb 4710 9a3c 61b4 423c 7b40 f63b
000001b0: 196d 83bc 3d22 963b ae63 393c 235d c43b
000001c0: f1e0 9e3c 45bf aa3b c0f6 1e3c df50 e0bc
000001d0: c70f acbc f86b 08bc 2a0c 7bbc 82c3 20bc
000001e0: 1e70 793b 53b2 81bc 9d9c 253c dca2 d83b
000001f0: 5b5c cdbb a99a b4ba ef8a df3a cd76 913b

action_model._continuous_distribution.log_sigma f4 [1, 2]
-0.043520458 -0.021663815
00000000: 8242 32bd 5078 b1bc

action_model._continuous_distribution.mu.weight f4 [2, 128]
0.02619492 -0.020641124 -0.024151854 0.0047360556 0.01208288 0.011921693 0.002628221 -0.007984997
0.004004709 -0.0023562678 0.0072895284 -0.023215039 -0.013542133 0.0012851704 0.011846478 -0.0034961123
-0.008538898 -0.03901147 0.022021169 0.012098364 0.026537402 0.016212516 0.01327837 -0.02001085
-0.0027457466 0.010855395 0.031718366 -0.045883026 0.005259549 -0.003060291 0.0050686537 0.021015419
-0.03942948 -0.020627812 0.021995377 0.0046585537 -0.026892446 0.01371924 0.008135912 -0.026932618
0.005668178 0.048237577 0.018496001 -0.008469284 0.010903033 -0.047121357 -0.0028834094 -0.0033625304
-0.026157057 -0.00027297757 0.012266534 -0.035463836 0.03337627 0.020367319 -0.0038503916 0.01574579
0.012011429 0.0019400099 -0.010819208 -0.006218149 0.022741038 0.017533684 0.011794558 -0.01880436
0.0030696075 0.022889733 0.03949634 -0.058184315 0.02826476 -0.045549326 -0.026167259 -0.013762949
0.024187746 -0.009360286 0.010585035 -0.0141168265 -0.032182816 0.017718732 0.008406314 0.0036036533
0.01701656 -0.0012036911 0.0076691126 -0.019898012 0.0017328489 0.0017226532 -0.025870554 0.0049620518
0.012651265 0.0038279782 0.0155877415 0.015647031 0.0008422742 0.011237324 -0.0012417155 0.009082006
0.028647093 -0.008672733 -0.0063660885 0.011599064 0.005678843 0.023145821 0.013016665 0.017454082
-0.04731983 0.03060561 0.016452948 -0.030122485 -0.010329922 -0.018604059 0.012349176 0.009770437
0.010365273 0.0048051467 0.017854346 -0.010110137 -0.04897882 -0.010797859 -0.04902629 -0.004981645
-0.0074474756 -0.015224146 -0.004117454 0.0014442877 -0.028655715 0.0014291981 -0.0084921215 -0.023943316
-0.020793438 0.003035176 -0.0041092657 0.022283487 -0.010061293 -0.02190273 -0.0020293419 0.0006027019
-0.02630916 -0.013685857 0.0014506646 -0.002109319 -0.007929658 0.052998405 -0.0011428683 0.042692695
0.00730083 0.017742066 -0.024055382 -0.049460966 0.023910597 0.025878273 -0.007916202 0.014210835
-0.010093022 0.02874469 -0.053075645 0.006357103 0.045452584 0.017564444 -0.0007456258 -0.019143825
-0.004007837 0.00255933 -0.02647916 -0.018874368 -0.019269729 -0.04239762 -0.024168493 -0.025644924
0.052996267 0.017599443 -0.020607093 0.00839806 -0.00063663797 -0.0099625755 -0.023238748 -0.021016335
0.018386615 -0.016137589 -0.002629683 0.012719679 -0.0073536607 -0.018769348 0.010944608 -0.020344824
-0.008936971 -0.014645299 -0.021925064 0.03705184 -0.040883232 -0.050125804 0.006660995 -0.013494313
-0.013825345 -0.0069636386 0.029279336 0.0052477657 0.0038437948 0.021636484 -0.00010769876 0.006071442
-0.03304911 0.022912916 0.022350598 0.029197063 -0.0049307332 0.052988555 0.02944911 0.010823821
0.048973583 0.026525293 -0.00092623656 -0.008949103 -0.0073851864 -0.018211333 0.00024445896 0.0072420514
-0.027957764 0.005709802 0.018130127 -0.0034768274 -0.01861431 0.02698891 -0.003977197 -0.0032880679
-0.006177525 0.020124951 0.018596651 0.02924656 -0.021518951 0.03414878 0.0052827643 -0.018902965
-0.002957032 0.0012090574 -0.007750941 -0.032032236 0.009134021 0.019732725 0.015011467 0.030262597
0.0074460404 -0.007422845 -0.024856677 -0.002772732 -0.007663485 0.011708238 -0.00060275174 0.0041125934
-0.036392964 0.0015613319 0.046806637 0.039877508 -0.004380704 -0.045438588 -0.019415291 0.012748048
00000000: bb96 d63c 9317 a9bc 1cda c5bc ea30 9b3b
00000010: 46f7 453c 3453 433c 3b3e 2c3b 81d3 02bc
00000020: ef39 833b 9d6b 1abb ffdc ee3b 772d bebc
00000030: d3df 5dbc 2a73 a83a bb17 423c 081f 65bb
00000040: bce6 0bbc 7eca 1fbd bd65 b43c 3738 463c
00000050: f764 d93c 1cd0 843c 858d 593c cbed a3bc
00000060: fcf1 33bb d4da 313c 1eeb 013d d7ef 3bbd
00000070: 4b58 ac3b 2a8f 48bb f316 a63b 8728 ac3c
00000080: ce80 21bd a8fb a8bc a62f b43c c8a6 983b
00000090: 8c4d dcbc aac6 603c 7d4c 053c cba1 dcbc
000000a0: 20bc b93b c494 453d ed84 973c c0c2 0abc
000000b0: a3a2 323c 5302 41bd 95f7 3cbb e65d 5cbb
000000c0: 5347 d6bc 6e1e 8fb9 93f9 483c 8742 11bd
000000d0: 8eb5 083d 5dd9 a63c da56 7cbb 51fd 803c
000000e0: 96cb 443c ee47 fe3a 0c43 31bc 9dc1 cbbb
000000f0: 6a4b ba3c cda2 8f3c f63d 413c 9a0b 9abc
00000100: 782b 493b 4083 bb3c eac6 213d ad52 6ebd
00000110: 7f8b e73c ee91 3abd b85c d6bc fe7d 61bc
00000120: 6125 c63c e35b 19bc db6c 2d3c 434a 67bc
00000130: 21d2 03bd e026 913c a3ba 093c 452b 6c3b
00000140: 5066 8b3c 2cc5 9dba 2e4d fb3b 2801 a3bc
00000150: c320 e33a a6ca e13a 7cee d3bc b598 a23b
00000160: 4047 4f3c d1de 7a3b ba63 7f3c 342e 803c
00000170: 11cc 5c3a c11c 383c 0fc1 a2ba b2cc 143c
00000180: 4fad ea3c 1418 0ebc 9f9a d0bb 000a 3e3c
00000190: 9615 ba3b 4e9c bd3c da43 553c ddfb 8e3c
000001a0: 70d2 41bd 9eb8 fa3c 55c8 863c 6ec3 f6bc
000001b0: d53e 29bc 8a67 98bc 3354 4a3c 2f14 203c
000001c0: 1bd3 293c 7e74 9d3b 4743 923c fda4 25bc
000001d0: 049e 48bd 81e9 30bc cbcf 48bd 113d a3bb
000001e0: f409 f4bb b26e 79bc b5eb 86bb 414e bd3a
000001f0: 64bf eabc ee53 bb3a 8a22 0bbc c624 c4bc
00000200: 0057 aabc cee9 463b 05a7 86bb dc8b b63c
00000210: 1fd8 24bc 5b6d b3bc b5fe 04bb a4fe 1d3a
00000220: 4f86 d7bc a53a 60bc 3a24 be3a 803c 0abb
00000230: 65eb 01bc db14 593d 4ccc 95ba 89de 2e3d
00000240: cd3b ef3b cf57 913c cb0f c5bc 9597 4abd
00000250: 28e0 c33c acfe d33c f5b2 01bc 90d4 683c
00000260: 345d 25bc fc79 eb3c d965 59bd 3f4f d03b
00000270: 7d2c 3a3d 4fe3 8f3c 1a76 43ba 83d3 9cbc
00000280: 2c54 83bb 6fba 273b d3ea d8bc 6b9e 9abc
00000290: 8ddb 9dbc 20a9 2dbd 01fd c5bc 4e15 d2bc
000002a0: 9d12 593d b52c 903c 35d0 a8bc 0498 093c
000002b0: 0de4 26ba 123a 23bc 305f bebc 732a acbc
000002c0: 879f 963c fa32 84bc c256 2cbb 3366 503c
000002d0: faf6 f0bb 2dc2 99bc 0351 333c 30aa a6bc
000002e0: 606c 12bc d6f2 6fbc 319c b3bc acc3 173d
000002f0: 2d75 27bd b750 4dbd 7a44 da3b 4017 5dbc
00000300: b383 62bc 3c2f e4bb 38db ef3c 73f5 ab3b
00000310: 2de8 7b3b ff3e b13c 55dc e1b8 f2f2 c63b
00000320: 815e 07bd deb3 bb3c 9a18 b73c ae2e ef3c
00000330: fd91 a1bb 870a 593d 433f f13c 6556 313c
00000340: 8698 483d 924b d93c afce 72ba 429f 12bc
00000350: 6fff f1bb ef2f 95bc ba2a 8039 bb4e ed3b
00000360: ae07 e5bc 4a19 bb3b a285 943c 7cdb 63bb
00000370: 0a7d 98bc d917 dd3c 2653 82bb a07c 57bb
00000380: d66c cabb 15dd a43c 0158 983c 7b96 ef3c
00000390: 8348 b0bc 97df 0b3d 0a1b ad3b 64da 9abc
000003a0: c4ca 41bb 3c79 9e3a 9bfb fdbb 3c34 03bd
000003b0: dca6 153c 86a6 a13c a8f2 753c 44e9 f73c
000003c0: eafd f33b 563b f3bb 3ba0 cbbc b9b6 35bb
000003d0: f91d fbbb e9d3 3f3c fc01 1eba efc2 863b
000003e0: ca10 15bd 9ba5 cc3a 51b8 3f3d 9956 233d
000003f0: 028c 8fbb d01d 3abd d10c 9fbc 30dd 503c

action_model._continuous_distribution.mu.bias f4 [2]
0.026106035 0.006363964
00000000: 53dc d53c cd88 d03b

action_model._discrete_distribution.branches.0.weight f4 [1, 128]
-0.005656686 -0.017844114 0.0035449117 0.023237824 0.003240959 -0.00053340034 0.0038415033 0.00083646516
0.000909721 0.0031828166 0.00047371341 0.0045392346 0.008263606 -0.0002768996 -0.011742649 -0.0077594295
-0.0054550148 -0.001866651 -0.008792927 -0.0022465778 -0.009009566 -0.016580207 -0.00072681997 0.0075801387
0.0022974382 -0.009021456 0.0073179975 0.0015627975 0.0039546276 0.0030211406 -0.00094404625 -0.009477129
0.0035986155 0.008712986 0.008997308 -0.011636952 -0.007027428 -0.005400413 0.02045143 0.0029983788
-0.0045766584 0.0037179284 0.0031519085 -0.0011806062 0.0101326415 0.008951636 0.0026925767 0.002229507
-0.00035958982 -0.012072205 0.0101665715 0.0014076028 0.0011114456 0.011747113 -0.012270253 0.0052459524
1.2277825e-05 -0.0058453414 0.0003292525 0.004812757 0.013510446 -0.0054133474 0.0073488653 -0.006933037
0.00081886456 -0.0060313395 0.004086984 0.002438042 0.00416089 0.0040247445 -0.008042605 -0.009515281
-0.0015940946 -0.0029712832 0.0042637764 -0.02552751 0.0044954577 0.0036471367 0.0040484215 -0.0036683753
-0.007657061 0.01247714 -0.007855982 -0.0007974302 0.009093178 -0.014577443 -0.008371551 -0.010125353
-0.0041344366 -0.0076893503 0.006947171 -0.007954477 0.01813657 0.008340902 -0.0030877695 0.013270005
-0.011904531 0.0064120996 0.0005613024 0.004244165 -0.0007123408 0.0032727649 0.013849233 -0.005660913
-0.0020481343 -0.0019300636 -0.011864578 -0.010273355 -0.0041304952 -0.006812688 0.011606562 -0.005639286
0.0019193151 0.000495186 -0.00899643 0.003999991 -0.009484285 0.013173266 0.0030744304 0.0069325417
0.0076044276 -0.009458543 -0.0066929623 -0.0086051775 -0.01154605 0.0028058325 0.00523461 -0.008093227
00000000: b95b b9bb d22d 92bc c051 683b 405d be3c
00000010: 4566 543b e4d3 0bba bbc1 7b3b 3a46 5b3a
00000020: 587a 6e3a cd96 503b bd5c f839 dcbd 943b
00000030: 1364 073c d62c 91b9 3d64 40bc d042 febb
00000040: fbbf b2bb 6aaa f4ba 3510 10bc 523b 13bb
00000050: dc9c 13bc 37d3 87bc 1088 3eba d062 f83b
00000060: 9e90 163b bbce 13bc d0cb ef3b c8d6 cc3a
00000070: d295 813b 54fe 453b df79 77ba f645 1bbc
00000080: c0d6 6b3b e9c0 0e3c 7269 133c eaa8 3ebc
00000090: 5746 e6bb f3f5 b0bb c289 a73c 7380 443b
000000a0: cbf7 95bb 7da8 733b 4090 4e3b 92be 9aba
000000b0: 6103 263c e2a9 123c f175 303b ec1c 123b
000000c0: 5487 bcb9 7fca 45bc b191 263c 507f b83a
000000d0: edad 913a f776 403c 2c09 49bc 3de6 ab3b
000000e0: dbfc 4d37 478a bfbb 869f ac39 55b4 9d3b
000000f0: eb5a 5d3c 7362 b1bb c0ce f03b 882e e3bb
00000100: 12a9 563a 8ba2 c5bb 1bec 853b 8fc7 1f3b
00000110: 1358 883b 01e2 833b 21c5 03bc fbe5 1bbc
00000120: f0f0 d0ba dcb9 42bb 26b7 8b3b 121f d1bc
00000130: a24e 933b cd04 6f3b 9fa8 843b 2069 70bb
00000140: 15e8 fabb eb6c 4c3c 60b6 00bc a30a 51ba
00000150: 8efb 143c 3ad6 6ebc d428 09bc cfe4 25bc
00000160: 2b7a 87bb f2f6 fbbb 18a5 e33b 7f53 02bc
00000170: 2593 943c 47a8 083c 2d5c 4abb 6f6a 593c
00000180: 390b 43bc 971c d23b 5e24 133a a312 8b3b
00000190: 62bc 3aba e27b 563b e5e7 623c 2e7f b9bb
000001a0: fe39 06bb 30fa fcba a663 42bc 9351 28bc
000001b0: 1b59 87bb f83c dfbb 7329 3e3c c2c9 b8bb
000001c0: 8791 fb3a 5fcf 013a c365 13bc 5b12 833b
000001d0: f963 1bbc afd4 573c 627c 493b 602a e33b
000001e0: 902e f93b 01f8 1abc a350 dbbb bbfc 0cbc
000001f0: a52b 3dbc 0fe2 373b 1787 ab3b 7499 04bc

exp_avg f4 [128, 186]
-1.4139849e-07 0.0 -1.8376845e-06 4.2516658e-07 0.0 2.5384464e-08 -1.2886849e-08 0.0
-2.2447587e-06 5.2241904e-07 0.0 -6.6695516e-09 -1.0459769e-08 0.0 -2.8410607e-06 6.6019055e-07
0.0 -4.442346e-09 2.174847e-08 0.0 -3.4602535e-06 8.063631e-07 0.0 -1.7048489e-08
1.4056482e-08 0.0 -2.6007272e-06 6.088071e-07 0.0 -3.0960265e-08 4.6111225e-08 0.0
-2.591951e-06 6.0493977e-07 0.0 -4.444497e-08 1.3025078e-07 0.0 -2.0432901e-06 4.7885425e-07
0.0 -5.0767667e-08 7.144211e-08 0.0 -1.2965975e-06 3.0466256e-07 0.0 -4.7121492e-08
-1.3880852e-07 0.0 5.845872e-06 -1.3495717e-06 0.0 -7.980602e-08 -3.5806988e-07 0.0
7.439587e-06 -1.7261524e-06 0.0 -4.029556e-08 -6.531401e-07 0.0 7.954824e-06 -1.8499985e-06
0.0 1.8277955e-08 -8.2838847e-07 0.0 6.454526e-06 -1.4981476e-06 0.0 7.499263e-08
-6.495804e-07 0.0 6.390813e-06 -1.4746281e-06 0.0 2.6623333e-08 -7.3620646e-07 0.0
6.5956283e-06 -1.520619e-06 0.0 3.3019077e-08 -9.814611e-07 0.0 7.709689e-06 -1.7836325e-06
0.0 9.752341e-08 -1.3571696e-06 0.0 1.0736816e-05 -2.4872274e-06 0.0 1.4535743e-07
-1.5694432e-06 0.0 6.2625063e-06 -1.4520647e-06 0.0 2.265818e-07 -1.5650498e-06 0.0
3.4812163e-06 -7.9822235e-07 0.0 2.9430691e-07 -1.2508154e-06 0.0 7.826417e-06 -1.8032163e-06
0.0 1.8688976e-07 -1.4437254e-06 0.0 5.377927e-06 -1.256244e-06 0.0 2.5561286e-07
-1.5424267e-06 0.0 1.2084884e-05 -2.7899475e-06 0.0 1.2685275e-07 -1.6913854e-06 0.0
1.1913748e-05 -2.7574179e-06 0.0 1.02130414e-07 -9.675449e-07 0.0 1.031691e-05 -2.3966509e-06
0.0 -1.0651008e-08 -6.61333e-07 0.0 6.8135546e-06 -1.584727e-06 0.0 -6.830535e-08
-1.1883566e-06 0.0 6.3915018e-06 -1.4922578e-06 0.0 -2.7735592e-08 2.7599058e-06 0.0
4.211556e-05 -9.800061e-06 0.0 -7.5260857e-07 1.4841396e-06 0.0 4.3024444e-05 -1.0037595e-05
0.0 -3.2439232e-07 -6.5294927e-07 0.0 3.6760277e-05 -8.605403e-06 0.0 2.6411928e-07
-4.244828e-07 0.0 4.072202e-05 -9.488675e-06 0.0 2.7782954e-07 1.1713782e-06 0.0
3.3893957e-05 -7.902175e-06 0.0 4.428697e-08 -9.480281e-07 0.0 3.398792e-05 -7.9459605e-06
0.0 7.5202365e-07 1.859127e-06 0.0 2.9870947e-05 -6.96043e-06 0.0 -2.9800015e-07
1.0531741e-06 0.0 2.6350961e-05 -6.1624537e-06 0.0 -1.554757e-07 1.478356e-06 0.0
2.9344572e-05 -6.837373e-06 0.0 -2.354238e-07 6.457731e-07 0.0 3.357734e-05 -7.885521e-06
0.0 -2.4283507e-08 2.207956e-06 0.0 8.835022e-06 -2.161871e-06 0.0 1.9980473e-07
-2.986737e-07 0.0 2.464734e-05 -5.869747e-06 0.0 5.343927e-07 -2.5314087e-06 0.0
2.5252984e-05 -6.0905722e-06 0.0 1.1266495e-06 6.7578327e-07 0.0 4.5331068e-05 -1.0657136e-05
0.0 -1.6257841e-08 2.3541104e-06 0.0 -1.1860649e-05 2.6354983e-06 0.0 2.8986145e-07
5.8615938e-06 0.0 -2.0079851e-05 4.5973225e-06 0.0 -5.0330726e-07 8.7211965e-06 0.0
-2.1390439e-05 4.997455e-06 0.0 -1.1736712e-06 9.72863e-06 0.0 2.4623985e-06 -5.9799146e-07
00000000: 52d3 17b4 0000 0000 5ca6 f6b5 7342 e434
00000010: 0000 0000 070d da32 f664 5db2 0000 0000
00000020: a9a4 16b6 5d3c 0c35 0000 0000 ff29 e5b1
00000030: 8db2 33b2 0000 0000 0da9 3eb6 f337 3135
00000040: 0000 0000 4aa3 98b1 64d1 ba32 0000 0000
00000050: b436 68b6 da74 5835 0000 0000 0672 92b2
00000060: 107d 7132 0000 0000 2788 2eb6 e86c 2335
00000070: 0000 0000 2cf9 04b3 d40b 4633 0000 0000
00000080: 61f1 2db6 2563 2235 0000 0000 c3e3 3eb3
00000090: 10db 0b34 0000 0000 751f 09b6 9d8a 0035
000000a0: 0000 0000 a40b 5ab3 b76b 9933 0000 0000
000000b0: c006 aeb5 8190 a334 0000 0000 a162 4ab3
000000c0: 650b 15b4 0000 0000 a827 c436 ee22 b5b5
000000d0: 0000 0000 d361 abb3 c03c c0b4 0000 0000
000000e0: 91a1 f936 25ae e7b5 0000 0000 7011 2db3
000000f0: 7253 2fb5 0000 0000 b575 0537 774d f8b5
00000100: 0000 0000 a601 9d32 6c5e 5eb5 0000 0000
00000110: f593 d836 f613 c9b5 0000 0000 a20b a133
00000120: d35e 2eb5 0000 0000 aa70 d636 d6eb c5b5
00000130: 0000 0000 54b1 e432 b99f 45b5 0000 0000
00000140: 0450 dd36 1218 ccb5 0000 0000 dcd0 0d33
00000150: bfba 83b5 0000 0000 dd58 0137 2565 efb5
00000160: 0000 0000 106e d133 fe27 b6b5 0000 0000
00000170: 4622 3437 3eea 26b6 0000 0000 8c13 1c34
00000180: a8a5 d2b5 0000 0000 8522 d236 90e4 c2b5
00000190: 0000 0000 554a 7334 b40e d2b5 0000 0000
000001a0: d79e 6936 6c45 56b5 0000 0000 3c01 9e34
000001b0: b1e1 a7b5 0000 0000 344e 0337 0a06 f2b5
000001c0: 0000 0000 deab 4834 07c6 c1b5 0000 0000
000001d0: 0b74 b436 379c a8b5 0000 0000 2a3b 8934
000001e0: 6105 cfb5 0000 0000 2ec0 4a37 ef3a 3bb6
000001f0: 0000 0000 0535 0834 8f03 e3b5 0000 0000
00000200: 28e1 4737 140c 39b6 0000 0000 ca52 db33
00000210: 97dc 81b5 0000 0000 cb16 2d37 26d6 20b6
00000220: 0000 0000 a1fb 36b2 7586 31b5 0000 0000
00000230: fd9f e436 ceb2 d4b5 0000 0000 43af 92b3
00000240: 9f7f 9fb5 0000 0000 9576 d636 9649 c8b5
00000250: 0000 0000 363f eeb2 d236 3936 0000 0000
00000260: 3da5 3038 f16a 24b7 0000 0000 de06 4ab5
00000270: a632 c735 0000 0000 2575 3438 2467 28b7
00000280: 0000 0000 2428 aeb4 5546 2fb5 0000 0000
00000290: 0c2f 1a38 ed5f 10b7 0000 0000 47cc 8d34
000002a0: 79e4 e3b4 0000 0000 f0cc 2a38 8c31 1fb7
000002b0: 0000 0000 9a28 9534 4038 9d35 0000 0000
000002c0: 5c29 0e38 9593 04b7 0000 0000 0a36 3e33
000002d0: ff7b 7eb5 0000 0000 408e 0e38 a44f 05b7
000002e0: 0000 0000 acde 4935 1e87 f935 0000 0000
000002f0: 5f93 fa37 a38d e9b6 0000 0000 d4fc 9fb4
00000300: c95a 8d35 0000 0000 420c dd37 13c7 ceb6
00000310: 0000 0000 d6f0 26b4 ed6b c635 0000 0000
00000320: fd28 f637 966c e5b6 0000 0000 cdc8 7cb4
00000330: 3159 2d35 0000 0000 65d5 0c38 0e4c 04b7
00000340: 0000 0000 ff97 d0b2 652c 1436 0000 0000
00000350: 213a 1437 a914 11b6 0000 0000 e889 5634
00000360: 6759 a0b4 0000 0000 c2c1 ce37 bef4 c4b6
00000370: 0000 0000 3073 0f35 45e1 29b6 0000 0000
00000380: 5fd6 d337 9e5d ccb6 0000 0000 6237 9735
00000390: 7967 3535 0000 0000 dd21 3e38 0dcc 32b7
000003a0: 0000 0000 5fa7 8bb2 4ffb 1d36 0000 0000
000003b0: 19fd 46b7 84dd 3036 0000 0000 419e 9b34
000003c0: b5ae c436 0000 0000 2771 a8b7 b342 9a36
000003d0: 0000 0000 031b 07b5 4151 1237 0000 0000
000003e0: 9e6f b3b7 d0af a736 0000 0000 0987 9db5
000003f0: 2638 2337 0000 0000 af3f 2536 a985 20b5

exp_avg_sq f4 [128, 186]
2.1779845e-08 0.0 1.1348809e-08 7.4226814e-10 0.0 1.3016871e-09 2.1805551e-08 0.0
1.1316704e-08 7.434082e-10 0.0 1.3010212e-09 2.1820538e-08 0.0 1.1313887e-08 7.452762e-10
0.0 1.3007668e-09 2.1851458e-08 0.0 1.1319546e-08 7.471681e-10 0.0 1.3013339e-09
2.1875813e-08 0.0 1.12993135e-08 7.470878e-10 0.0 1.3023147e-09 2.1902334e-08 0.0
1.1292833e-08 7.4803325e-10 0.0 1.3036467e-09 2.1946486e-08 0.0 1.1225089e-08 7.4711154e-10
0.0 1.3044199e-09 2.1985544e-08 0.0 1.1169336e-08 7.45571e-10 0.0 1.3056379e-09
2.2005008e-08 0.0 1.1153535e-08 7.460739e-10 0.0 1.3058381e-09 2.2034275e-08 0.0
1.1120798e-08 7.46013e-10 0.0 1.3062827e-09 2.2012605e-08 0.0 1.1133045e-08 7.474066e-10
0.0 1.3047464e-09 2.2016739e-08 0.0 1.11610365e-08 7.508314e-10 0.0 1.3040611e-09
2.1979686e-08 0.0 1.11984955e-08 7.533794e-10 0.0 1.3023758e-09 2.1981556e-08 0.0
1.1205803e-08 7.5389267e-10 0.0 1.3030038e-09 2.1987013e-08 0.0 1.1232724e-08 7.553826e-10
0.0 1.3044233e-09 2.1977078e-08 0.0 1.1236061e-08 7.563718e-10 0.0 1.3046159e-09
2.196195e-08 0.0 1.12839516e-08 7.5803136e-10 0.0 1.3051226e-09 2.191917e-08 0.0
1.1294908e-08 7.5735035e-10 0.0 1.3045294e-09 2.1858543e-08 0.0 1.1349239e-08 7.590342e-10
0.0 1.3023275e-09 2.1780822e-08 0.0 1.1403837e-08 7.5997725e-10 0.0 1.3006127e-09
2.1733214e-08 0.0 1.1432249e-08 7.6012185e-10 0.0 1.2998169e-09 2.1677199e-08 0.0
1.1451159e-08 7.6055723e-10 0.0 1.2982769e-09 2.1589079e-08 0.0 1.1486992e-08 7.6113865e-10
0.0 1.2953113e-09 2.1539286e-08 0.0 1.15428245e-08 7.6236234e-10 0.0 1.2951656e-09
2.1453946e-08 0.0 1.1850297e-08 7.772174e-10 0.0 1.2925666e-09 2.1408873e-08 0.0
1.2972409e-08 8.3615204e-10 0.0 1.2923794e-09 2.1314625e-08 0.0 1.2979779e-08 8.3538887e-10
0.0 1.2889624e-09 2.1260442e-08 0.0 1.3047962e-08 8.3594687e-10 0.0 1.2892929e-09
2.1242737e-08 0.0 1.3123514e-08 8.383899e-10 0.0 1.2899161e-09 2.1221826e-08 0.0
1.31403235e-08 8.3855684e-10 0.0 1.2898306e-09 2.1181583e-08 0.0 1.3185515e-08 8.392086e-10
0.0 1.2896084e-09 1.802154e-08 0.0 1.2448089e-07 7.0980324e-09 0.0 1.1963986e-09
1.8011388e-08 0.0 1.2446696e-07 7.1002333e-09 0.0 1.1922161e-09 1.8018495e-08 0.0
1.244712e-07 7.10597e-09 0.0 1.1897597e-09 1.78667e-08 0.0 1.2449952e-07 7.11145e-09
0.0 1.1783838e-09 1.7761623e-08 0.0 1.2466703e-07 7.1257276e-09 0.0 1.1666296e-09
1.7591478e-08 0.0 1.2496473e-07 7.145525e-09 0.0 1.1538669e-09 1.7443178e-08 0.0
1.2540244e-07 7.1734645e-09 0.0 1.1409484e-09 1.7269747e-08 0.0 1.2595287e-07 7.2068835e-09
0.0 1.1279974e-09 1.6967949e-08 0.0 1.2666831e-07 7.2502773e-09 0.0 1.1071358e-09
1.6746862e-08 0.0 1.2715029e-07 7.278206e-09 0.0 1.0933643e-09 1.6497376e-08 0.0
1.2757792e-07 7.3031643e-09 0.0 1.0776774e-09 1.614356e-08 0.0 1.2843708e-07 7.3523987e-09
00000000: 6316 bb32 0000 0000 97f8 4232 7a08 4c30
00000010: 0000 0000 0be7 b230 ea4e bb32 0000 0000
00000020: 646b 4232 b458 4c30 0000 0000 9dcf b230
00000030: df6f bb32 0000 0000 005f 4232 26dc 4c30
00000040: 0000 0000 aac6 b230 ddb3 bb32 0000 0000
00000050: e477 4232 4861 4d30 0000 0000 9eda b230
00000060: 6ce9 bb32 0000 0000 e81e 4232 a15b 4d30
00000070: 0000 0000 20fd b230 be23 bc32 0000 0000
00000080: 6802 4232 299e 4d30 0000 0000 fe2b b330
00000090: d584 bc32 0000 0000 77d8 4032 4d5d 4d30
000000a0: 0000 0000 3247 b330 b9da bc32 0000 0000
000000b0: 42e3 3f32 e5f0 4c30 0000 0000 0d72 b330
000000c0: 8605 bd32 0000 0000 c49d 3f32 4914 4d30
000000d0: 0000 0000 1879 b330 e245 bd32 0000 0000
000000e0: c90d 3f32 ff0f 4d30 0000 0000 bd88 b330
000000f0: 3b16 bd32 0000 0000 a643 3f32 1072 4d30
00000100: 0000 0000 af52 b330 521f bd32 0000 0000
00000110: c2be 3f32 1063 4e30 0000 0000 923a b330
00000120: d7cd bc32 0000 0000 8163 4032 5d16 4f30
00000130: 0000 0000 46ff b230 f4d1 bc32 0000 0000
00000140: a583 4032 7b3a 4f30 0000 0000 5f15 b330
00000150: f4dd bc32 0000 0000 0bfa 4032 53a3 4f30
00000160: 0000 0000 5147 b330 1bc8 bc32 0000 0000
00000170: b808 4132 efe8 4f30 0000 0000 174e b330
00000180: d7a6 bc32 0000 0000 58db 4132 b75d 5030
00000190: 0000 0000 eb5f b330 c448 bc32 0000 0000
000001a0: 880b 4232 cb2d 5030 0000 0000 0c4b b330
000001b0: 72c3 bb32 0000 0000 7bfa 4232 49a4 5030
000001c0: 0000 0000 93fd b230 8918 bb32 0000 0000
000001d0: 9bea 4332 a5e6 5030 0000 0000 3ec1 b230
000001e0: d8af ba32 0000 0000 9067 4432 d2f0 5030
000001f0: 0000 0000 3ea5 b230 aa34 ba32 0000 0000
00000200: bbba 4432 750f 5130 0000 0000 0f6f b230
00000210: e372 b932 0000 0000 5358 4532 5f38 5130
00000220: 0000 0000 b706 b230 6405 b932 0000 0000
00000230: e14d 4632 7b8e 5130 0000 0000 9701 b230
00000240: ba49 b832 0000 0000 2896 4b32 d0a3 5530
00000250: 0000 0000 25a6 b130 9ce6 b732 0000 0000
00000260: 42dd 5e32 f8d6 6530 0000 0000 8f9f b130
00000270: 5b17 b732 0000 0000 acfd 5e32 44a1 6530
00000280: 0000 0000 5527 b130 35a0 b632 0000 0000
00000290: 8b29 6032 88c8 6530 0000 0000 f632 b130
000002a0: 4679 b632 0000 0000 d375 6132 7274 6630
000002b0: 0000 0000 e348 b130 4a4b b632 0000 0000
000002c0: c1bf 6132 3180 6630 0000 0000 e145 b130
000002d0: cbf2 b532 0000 0000 8286 6232 0eae 6630
000002e0: 0000 0000 103e b130 c9cd 9a32 0000 0000
000002f0: 0ca9 0534 f4e2 f331 0000 0000 896e a430
00000300: 76b7 9a32 0000 0000 38a5 0534 50f6 f331
00000310: 0000 0000 60db a330 17c7 9a32 0000 0000
00000320: 62a6 0534 c628 f431 0000 0000 f384 a330
00000330: 4a79 9932 0000 0000 2bae 0534 fa58 f431
00000340: 0000 0000 b2f4 a130 3992 9832 0000 0000
00000350: 36dc 0534 90d6 f431 0000 0000 2157 a030
00000360: 121c 9732 0000 0000 0b2e 0634 b484 f531
00000370: 0000 0000 1596 9e30 f4d5 9532 0000 0000
00000380: 5ca6 0634 767a f631 0000 0000 8ecf 9c30
00000390: 9358 9432 0000 0000 a93d 0734 6ba0 f731
000003a0: 0000 0000 e107 9b30 eac0 9132 0000 0000
000003b0: 5202 0834 1d1e f931 0000 0000 e129 9830
000003c0: bdda 8f32 0000 0000 ce86 0834 c713 fa31
000003d0: 0000 0000 5645 9630 1db6 8d32 0000 0000
000003e0: 5afc 0834 50ef fa31 0000 0000 671d 9430
000003f0: 10ac 8a32 0000 0000 84e8 0934 62a0 fc31

exp_avg f4 [128]
-7.946068e-06 -1.914515e-05 -2.9554818e-05 -3.6257015e-06 -1.0119221e-05 7.046311e-06 7.2000084e-06 -1.2537984e-05
-9.283396e-06 1.1377006e-06 2.0295151e-06 3.1177686e-05 -1.4910875e-05 6.0277407e-06 8.662949e-06 -1.9178082e-05
-1.8875768e-05 1.0317953e-06 -3.4293553e-05 -2.9890415e-07 1.4176752e-05 5.483803e-06 1.7118022e-05 -3.5835021e-06
-3.2649063e-05 5.938887e-06 -1.4228088e-05 3.2792186e-06 4.4074472e-06 1.3814502e-05 1.908002e-06 6.5327486e-06
2.1571097e-05 2.5747244e-05 1.4356694e-05 -1.2940994e-05 -6.2142385e-06 2.0031224e-05 -5.6378454e-08 -2.9616665e-06
1.4753525e-06 -6.0299e-06 -1.4433513e-05 -8.936424e-06 -8.55539e-06 2.2033537e-06 -6.9946186e-06 4.935854e-05
5.4330844e-06 -2.0441712e-05 1.17593245e-05 -1.7859607e-05 4.6351383e-06 6.1815163e-06 -2.8520021e-06 -3.792611e-05
1.7471e-05 8.537946e-06 2.0977934e-05 4.1957246e-06 -3.129779e-05 -1.4314718e-05 1.5943713e-06 5.9598324e-06
3.3102715e-06 -6.613517e-06 -4.742974e-06 2.0695386e-06 9.715203e-06 2.1533651e-06 3.622506e-05 -4.079156e-05
6.8097333e-06 2.1572003e-05 2.2315928e-05 -1.2990555e-06 3.6113083e-06 2.118571e-05 -1.117229e-05 -2.7052463e-06
-7.0801e-06 -4.9815055e-05 -3.0259198e-05 -2.9419616e-05 1.30241315e-05 -9.524953e-06 1.5291787e-05 -1.7542434e-06
4.6579275e-06 -1.3705925e-05 5.414179e-06 -8.008316e-05 -7.5922208e-06 1.9837918e-05 -1.3064851e-05 -4.0807296e-05
4.134128e-06 -6.292456e-05 6.621607e-06 -3.893502e-06 3.3857975e-06 -2.7072997e-06 5.029933e-06 -1.4142807e-05
2.0924355e-05 -1.1218578e-06 1.914159e-07 9.28081e-06 -1.2735173e-05 1.9744662e-05 4.042978e-06 -9.3014205e-06
-1.447807e-06 -2.658363e-05 -5.0380595e-06 -3.7868008e-06 3.1789195e-06 1.7734748e-05 -1.6134478e-05 -2.1317833e-06
-7.904036e-06 6.1631254e-06 1.1416707e-05 3.8141725e-06 -1.846659e-05 -1.1789234e-05 1.2261357e-06 1.1946075e-05
00000000: 1a50 05b7 e699 a0b7 7dec f7b7 1451 73b6
00000010: b9c5 29b7 5a6f ec36 9a97 f136 3b5a 52b7
00000020: e2bf 1bb7 18b3 9835 ce32 0836 c9c4 0238
00000030: b829 7ab7 e641 ca36 1557 1137 9ee0 a0b7
00000040: 6757 9eb7 377c 8a35 6cd6 0fb8 1379 a0b4
00000050: b0d8 6d37 8201 b836 ac98 8f37 197c 70b6
00000060: aaf0 08b8 a746 c736 2cb5 6eb7 8c10 5c36
00000070: afe3 9336 d6c4 6737 3a0b 0036 e233 db36
00000080: 94f3 b437 c9fb d737 88dd 7037 251d 59b7
00000090: e783 d0b6 ba08 a837 c424 72b3 0bc1 46b6
000000a0: ba04 c635 7254 cab6 7727 72b7 a6ed 15b7
000000b0: 1f89 0fb7 54dd 1336 51b3 eab6 5406 4f38
000000c0: d74d b636 3e7a abb7 ea49 4537 37d1 95b7
000000d0: 8987 9b36 d26a cf36 0665 3fb6 da12 1fb8
000000e0: b08e 9237 333e 0f37 c5f9 af37 00c9 8c36
000000f0: bf45 03b8 3f29 70b7 2efe d535 92fa c736
00000100: 0826 5e36 aee9 ddb6 d625 9fb6 67e2 0a36
00000110: 7bfe 2237 8882 1036 5df0 1738 9b17 2bb8
00000120: 2a7f e436 86f5 b437 1733 bb37 355b aeb5
00000130: ce59 7236 f7b7 b137 9f70 3bb7 c78b 35b6
00000140: 9991 edb6 82f0 50b8 22d5 fdb7 25ca f6b7
00000150: 3882 5a37 5dcd 1fb7 dd46 8037 5873 ebb5
00000160: 4b4b 9c36 80f2 65b7 72ab b536 52f2 a7b8
00000170: aec0 feb6 9b69 a637 1c31 5bb7 8028 2bb8
00000180: e4b7 8a36 5ef6 83b8 2c2f de36 eda4 82b6
00000190: 8f37 6336 0eaf 35b6 ccc6 a836 e546 6db7
000001a0: b686 af37 be92 96b5 0088 4d34 c7b4 1b37
000001b0: 27a9 55b7 57a1 a537 eba8 8736 4c0d 1cb7
000001c0: 4552 c2b5 e9ff deb7 9a0c a9b6 be20 7eb6
000001d0: 6c55 5536 15c5 9437 8758 87b7 c20f 0fb6
000001e0: 939b 04b7 d8cc ce36 628a 3f37 fcf6 7f36
000001f0: b3e8 9ab7 60ca 45b7 b491 a435 006c 4837

exp_avg_sq f4 [128]
2.0920308e-09 9.115863e-09 2.5673689e-08 3.506e-08 4.231651e-09 1.0598025e-07 5.8132024e-08 2.4085534e-09
3.4725782e-09 8.9340896e-10 1.8261183e-09 7.0167786e-08 1.0063722e-09 6.576971e-10 2.0929194e-08 4.43319e-09
4.4274358e-09 4.648104e-09 1.3729927e-07 1.2261133e-08 8.715975e-08 2.234702e-09 4.5371724e-08 3.4457737e-09
2.762291e-09 1.02871674e-07 7.1322224e-09 5.706679e-09 2.4192983e-09 6.8457155e-09 3.345056e-08 1.2148721e-09
8.907434e-08 8.648231e-08 6.4163764e-08 6.749896e-08 5.4993194e-08 1.2303836e-07 4.13021e-08 5.115541e-09
1.8677944e-09 8.928677e-09 7.10462e-09 3.6394243e-09 2.8284985e-09 4.4742543e-09 3.9074712e-09 2.0803684e-07
5.166576e-09 4.8942784e-08 2.0751025e-09 4.0518305e-08 2.1751674e-09 5.3099263e-09 1.8182025e-09 3.9050168e-08
6.869502e-08 2.6508409e-09 9.116314e-08 1.0032296e-08 1.3541688e-07 2.1468683e-08 3.7283443e-09 3.226703e-09
4.9410446e-08 8.997586e-09 5.375667e-08 7.905963e-09 2.3708047e-09 2.4439805e-08 7.590138e-08 3.4492615e-07
4.259242e-09 9.408761e-08 2.1138996e-07 4.588339e-08 2.5380515e-09 4.1485706e-08 2.6586696e-08 1.5479645e-07
3.4205532e-09 2.9361502e-07 3.8274184e-09 3.2966444e-08 5.473982e-08 1.1204007e-07 3.1502626e-08 1.7711862e-09
3.355913e-07 5.4637606e-09 9.843414e-08 5.6671143e-09 1.3341677e-09 3.0736132e-08 1.16244e-08 6.2118453e-09
5.3209204e-10 3.3940598e-08 6.5628556e-09 2.6142262e-09 8.687407e-10 4.813784e-08 5.1965086e-09 1.22685035e-08
2.3237776e-08 1.7447274e-09 3.4626968e-08 3.0284926e-09 3.9449497e-09 9.674935e-08 6.3230434e-09 3.485334e-09
2.5314492e-07 3.0055936e-08 1.09521805e-08 1.8244658e-09 1.4279906e-08 3.054486e-08 3.772375e-08 5.1634174e-08
6.136395e-09 3.8424837e-09 4.601044e-09 1.1560392e-07 3.9381067e-09 3.6901417e-09 3.3404441e-09 1.0130878e-07
00000000: 65c3 0f31 fd9b 1c32 0a89 dc32 e194 1633
00000010: ff65 9131 4297 e333 d6ac 7933 b883 2531
00000020: 3ea2 6e31 1194 7530 d3fa fa30 26af 9633
00000030: 9350 8a30 52c9 3430 c9c7 b332 c052 9831
00000040: 2320 9831 28b5 9f31 896c 1334 09a5 5232
00000050: 942c bb33 4b91 1931 bdde 4233 b1ca 6c31
00000060: bdd2 3d31 4dea dc33 b10f f531 7b14 c431
00000070: bf40 2631 8d37 eb31 48ab 0f33 83f8 a630
00000080: 2349 bf33 27b8 b933 67ca 8933 f2f3 9033
00000090: a831 6c33 871c 0434 2464 3133 c6c4 af31
000000a0: 965a 0031 bd64 1932 e61c f431 6e19 7a31
000000b0: 795f 4231 f5bb 9931 7b42 8631 bb60 5f34
000000c0: af85 b131 2935 5233 9799 0e31 5906 2e33
000000d0: f379 1531 9b72 b631 50e4 f930 1db8 2733
000000e0: 7d85 9333 162a 3631 77c5 c333 815a 2c32
000000f0: 1c67 1134 226a b832 dd1a 8031 c2bc 5d31
00000100: 5c37 5433 cd93 1a32 15e2 6633 cbd2 0732
00000110: a3eb 2231 b3ef d132 3aff a233 4a2e b934
00000120: b058 9231 360d ca33 6efa 6234 5211 4533
00000130: e069 2e31 042e 3233 c360 e432 2036 2634
00000140: 020f 6b31 24a2 9d34 5482 8331 fd96 0d33
00000150: 121b 6b33 ae9a f033 814d 0733 136e f330
00000160: 512b b434 bfbb bb31 be62 d333 77b8 c231
00000170: da5d b730 bc02 0433 a7b4 4732 f86f d531
00000180: a642 1230 15c6 1133 7d7f e131 f4a5 3331
00000190: 31cc 6e30 1dc0 4e33 f98c b231 73c5 5232
000001a0: 699c c732 23cb ef30 c1b8 1433 ce1d 5031
000001b0: 258c 8731 85c4 cf33 1442 d931 a582 6f31
000001c0: f9e7 8734 da16 0133 3328 3c32 afc0 fa30
000001d0: b153 7532 6e30 0333 b405 2233 60c4 5d33
000001e0: 4dd8 d231 d806 8431 3617 9e31 ed41 f833
000001f0: f44f 8731 a995 7d31 b78d 6531 178f d933
