results/run2/MazeBrain/MazeBrain-499906.onnx (onnx, 170454 bytes, 8 tensors)

network_body._body_endoder.seq_layers.0.weight f4 [128, 186]
0	0xbce6314a	-0.028099675
1	0xbc233110	-0.009960428
2	0xbdd8830e	-0.10571872
3	0xbd6ca500	-0.057774544
4	0xbc1ae2b9	-0.009453469
5	0xbcfd0336	-0.03088532
6	0xbd7f2fb5	-0.062301356
7	0xbcb7322c	-0.022362791
8	0x3e05c986	0.13065156
9	0xbdaefa33	-0.085438155
10	0x3e199937	0.14999853
11	0xbafba250	-0.0019198153
12	0x3c9566aa	0.01823743
13	0xbcbbb516	-0.022913497
14	0x3d11b7c3	0.03557564
15	0x3d39a619	0.04532442
16	0x3d9d88b5	0.076920904
17	0xbdf39f1c	-0.11895582
18	0xbb87b645	-0.0041416013
19	0x3c29f885	0.010374193
20	0xbddfc0dc	-0.10925457
21	0xbdbc3320	-0.09189439
22	0xbe0429d5	-0.12906583
23	0x3a1a19d5	0.0005878483
24	0x3cdaa09a	0.026687909
25	0xbce6da33	-0.028180217
26	0x3bac531f	0.0052589322
27	0x3caa395a	0.0207793
28	0x3c6fd3a5	0.014637862
29	0xbc30dde7	-0.010795093
30	0x3db93217	0.09042757
31	0x3e0cf12a	0.13763872
32	0x3d85ec95	0.06539265
33	0x3d7307a8	0.059333473
34	0xbdf26840	-0.1183629
35	0x3daec369	0.08533365
36	0xbdbb8754	-0.09156671
37	0x3de49f29	0.1116317
38	0xbdd45c5a	-0.10369177
39	0xbbf4bdac	-0.0074688997
40	0x3db54589	0.088511534
41	0x3c02cf1c	0.007983949
42	0xbd974279	-0.073857255
43	0xbd51dc4a	-0.051235475
44	0x3dd66aee	0.10469614
45	0x3d241913	0.040062975
46	0xbc82a0ac	-0.015945755
47	0x3e0054bc	0.12532324
48	0x3e00a792	0.12563923
49	0x3c1e48e7	0.009660936
50	0xbbddc877	-0.006768282
51	0x3d6530fd	0.055954922
52	0xbcaf3a92	-0.021390233
53	0xbceef77f	-0.02917075
54	0xbda21dc1	-0.07915831
55	0xbd0c0083	-0.034180176
56	0x3c907cce	0.017637637
57	0x3e4927d5	0.19644101
58	0xbd1f1ab1	-0.038843814
59	0xbdcf3d96	-0.101191685
60	0xbdf27e6c	-0.11840519
61	0x3c0d6541	0.008630098
62	0xbc337cc2	-0.010955038
63	0x3c93d088	0.018043771
64	0x3d41ee83	0.047346603
65	0x3d3bd5c9	0.04585818
66	0xbdbba2a7	-0.09161883
67	0x3d866483	0.0656214
68	0x3d657f82	0.056029804
69	0x3cee20ad	0.029068315
70	0xbd542cf8	-0.051800698
71	0xba1f3a67	-0.0006074071
72	0xbd7399fc	-0.059473023
73	0x3d123610	0.03569609
74	0x3d828f86	0.06375031
75	0xbd418f11	-0.04725558
76	0xbbf7a6ad	-0.007557711
77	0x3d7ca614	0.061681822
78	0x3cef9117	0.029243989
79	0xbc86d059	-0.01645677
80	0xbcef6638	-0.029223546
81	0xbe0f5fc5	-0.14001377
82	0x3d5ca976	0.053872548
83	0x3e1f280c	0.1554262
84	0x3d8247cd	0.06361351
85	0xbda0df59	-0.078551
86	0xbd1e2032	-0.038604923
87	0xbd39f71a	-0.04540167
88	0x3d1ed03c	0.038772807
89	0x3d05804e	0.032593064
90	0x3caf96a3	0.021434134
91	0xbc311959	-0.010809266
92	0x3bb18969	0.005417992
93	0x3e064fd2	0.13116387
94	0xbd2ab79d	-0.041679014
95	0xbce96448	-0.0284902
96	0xbd521ba1	-0.05129588
97	0x3db2e38a	0.08734806
98	0x3ddd5a89	0.10808284
99	0xb9f735a5	-0.0004715148
100	0x3dac2fea	0.084075764
101	0xbbfef27b	-0.007780371
102	0xbc47a085	-0.012184267
103	0xbd537c84	-0.05163242
104	0xbcd20c19	-0.025640534
105	0x3ab33294	0.001367169
106	0xbd5b307a	-0.053513028
107	0x3d8ed480	0.06974125
108	0xbd248ce4	-0.040173426
109	0x3d411164	0.047135726
110	0x3d0eb454	0.034839943
111	0x3cfd8ee6	0.030951928
112	0x3cc84710	0.024447948
113	0xbd42fb89	-0.047603164
114	0x3dc5f2f4	0.0966548
115	0xbcb8b8dc	-0.022549085
116	0x3dd9a969	0.106280155
117	0x3db54a05	0.08852009
118	0x3d9ae9c3	0.07564118
119	0x3d385a29	0.04500786
120	0x3daa96c1	0.08329535
121	0xbd8bd4f3	-0.06827726
122	0xbd81d49c	-0.0633938
123	0x3dc426b5	0.09577695
124	0xbc797a90	-0.015226975
125	0xbdc93c1c	-0.09825918
126	0xbdb1d0f5	-0.086824335
127	0xbdc21548	-0.09476715
128	0xbb83dd88	-0.0040242113
129	0xbde66467	-0.11249619
130	0xbc75c4b1	-0.015000508
131	0x3dd89b2a	0.1057647
132	0x3b120f9d	0.0022287138
133	0xbcea175c	-0.028575592
134	0x3d5698ba	0.052391745
135	0xbd463c5e	-0.048397414
136	0xbe0216a0	-0.12703943
137	0xbbc8f3fc	-0.006132601
138	0x3ce570bb	0.028007856
139	0x3cddcb99	0.027074622
140	0x3d9b7136	0.07589953
141	0x3adbfe52	0.0016784167
142	0xbdb01cc5	-0.08599237
143	0xbd6517fc	-0.055931076
144	0x3dded8cb	0.10881194
145	0x3d304414	0.043033674
146	0x3c307287	0.010769493
147	0x3d74fa8b	0.05980925
148	0x3cbd5247	0.023110522
149	0xbd7e8591	-0.062139098
150	0x3d78ede7	0.060773756
151	0x3ceb40d3	0.028717434
152	0x3c461ef4	0.012092341
153	0x3c240602	0.010011198
154	0xbccfbb87	-0.025357975
155	0xbdb00d0f	-0.08596241
156	0x3d75d339	0.06001589
157	0xbd67286a	-0.056435026
158	0x3c370631	0.01117091
159	0xbb710cf5	-0.0036781405
160	0xbbbcc42a	-0.0057606893
161	0x3b7a2fd0	0.003817547
162	0xbe335679	-0.17513455
163	0xbd2d5b89	-0.042323623
164	0x3b28a2a4	0.0025731707
165	0x3d7c343b	0.06157325
166	0xba8381e1	-0.0010033214
167	0xbba96f7c	-0.0051707607
168	0x3e2e4f85	0.17022522
169	0xbe3be0be	-0.18347451
170	0xb99c36ab	-0.0002979537
171	0xbdde91e2	-0.10867669
172	0xbd2a4998	-0.04157409
173	0xbdc2f4e0	-0.095193624
174	0xbca571e3	-0.020195907
175	0x3d839847	0.06425529
176	0xbca8bf65	-0.020599077
177	0xbd81a25b	-0.06329795
178	0xbc966fc6	-0.018363845
179	0xbdab9566	-0.08378105
180	0xbdb69955	-0.089159645
181	0x3b3baf2e	0.002863835
182	0xbd0c77a0	-0.03429377
183	0x3d75bada	0.05999265
184	0xbd2da0bb	-0.042389613
185	0xbe3ae291	-0.1825049
186	0xbd3e0d05	-0.046399135
187	0xbd437042	-0.04771448
188	0xbd055741	-0.032553915
189	0xbbc96976	-0.006146605
190	0x3de0be36	0.1097378
191	0x3d63b475	0.05559202
192	0x3d310a87	0.04322293
193	0x3d13b180	0.03605795
194	0x3cce5b84	0.025190122
195	0x3c2a41cf	0.010391667
196	0x3d7ccb0b	0.061717074
197	0xbd0dc08e	-0.034607463
198	0xbe14d907	-0.14535914
199	0xbd3887da	-0.045051433
200	0x3c943659	0.018092321
201	0xbb32701c	-0.0027227467
202	0xbd64414b	-0.05572633
203	0xbd85023c	-0.06494567
204	0xbd6ee91f	-0.05832779
205	0x3d8d8903	0.069108985
206	0x3db59e73	0.088681124
207	0x3de695d8	0.11259049
208	0xbdb44fa8	-0.08804256
209	0xbd37f18d	-0.044908095
210	0xbc5211ab	-0.012821595
211	0x3dd2192b	0.10258707
212	0x3d86f0a2	0.06588866
213	0x3cef1187	0.029183162
214	0x3d9bb8bb	0.07603594
215	0xbc292519	-0.010323786
216	0x3bc2a01b	0.005939496
217	0xbdbda2ed	-0.09259591
218	0xbd369f69	-0.04458562
219	0xbc1f288e	-0.009714259
220	0x3d69f018	0.057113737
221	0xbc239ae8	-0.009985663
222	0x3d2e3364	0.04252948
223	0x3d3840a6	0.04498353
224	0x3bd87bc8	0.0066065527
225	0xbb35841c	-0.0027697152
226	0x3e2c8b56	0.16850027
227	0xbce73782	-0.02822471
228	0xbdc28189	-0.09497363
229	0xbc4b8b58	-0.012423359
230	0xbce86ad7	-0.028371258
231	0x3cd15d15	0.02555708
232	0x3db1463d	0.08655975
233	0x3c84dc62	0.016218368
234	0x3de9dfb1	0.11419619
235	0xbd211a32	-0.039331622
236	0x3c29281b	0.010324503
237	0x3d553cf6	0.05206009
238	0x3d91d1b5	0.071200766
239	0x3c5400c8	0.012939639
240	0xbdcec3bf	-0.10095929
241	0x3c80eb03	0.015737062
242	0x3d11625a	0.035494186
243	0xbc2dcf1e	-0.010608463
244	0xbb3af6e0	-0.0028528497
245	0x3d566ae6	0.05234804
246	0xbb8280dc	-0.0039826464
247	0xbc3170a4	-0.010830078
248	0x3dbd569b	0.09245034
249	0x3d4b173d	0.04958271
250	0x3d1c44c5	0.03815152
251	0x3d2049fc	0.039133057
252	0xbc55de11	-0.013053433
253	0xbb815eb6	-0.003948058
254	0xbda4a2a0	-0.08038831
255	0x3d7335f4	0.059377626

network_body._body_endoder.seq_layers.0.bias f4 [128]
0	0xbcc9a96c	-0.02461692
1	0xbc09f0af	-0.0084192
2	0xbc4af62c	-0.0123877935
3	0x3bc30693	0.0059517114
4	0xbc85a439	-0.016313659
5	0x3938fc89	0.00017641684
6	0x3ca407ae	0.020023193
7	0xbc34948a	-0.011021743
8	0x3b2076b5	0.0024484817
9	0xbc982828	-0.018573835
10	0xbc69326a	-0.014233211
11	0xbb3d1f06	-0.0028857603
12	0xbbde467c	-0.0067833047
13	0xbbddbdef	-0.0067670266
14	0x3c1f444f	0.009720876
15	0x3b28a369	0.0025732166
16	0x3c04286b	0.008066277
17	0xbb4e5459	-0.003148338
18	0xbc231c5b	-0.009955491
19	0x3ba72261	0.005100534
20	0xbbce9b68	-0.006305147
21	0x3b912e16	0.0044305427
22	0x3c788d8f	0.015170469
23	0x3b35b714	0.0027727531
24	0x39275f7e	0.00015961935
25	0x3ac560b3	0.0015058726
26	0xbbfe424a	-0.007759367
27	0x39f5fa64	0.00046916597
28	0x3bf3ccd8	0.0074401908
29	0x3b174630	0.0023082606
30	0xbbe21837	-0.0068998593
31	0xbcab47f5	-0.020908335
32	0x3b821705	0.0039700293
33	0x3bd67d35	0.0065456876
34	0x3c432461	0.011910529
35	0x3c68ebb8	0.014216356
36	0xbc2979b5	-0.010343959
37	0x3b1f923f	0.0024348644
38	0x3c2d6708	0.010583647
39	0xbc158439	-0.009125763
40	0xbc7bb35e	-0.015362589
41	0x3c49e9c6	0.012323802
42	0x3ba7def7	0.005123015
43	0x3bf706f4	0.0075386707
44	0xbc4f8e58	-0.012668215
45	0xbba34477	-0.004982527
46	0xba3fbd80	-0.00073143095
47	0x3c121d58	0.008918129
48	0x3b04842f	0.002022039
49	0x3b9db76e	0.0048131263
50	0xbc61c3a3	-0.013779554
51	0x3c66e32c	0.014092248
52	0xbce6c851	-0.02817169
53	0xbc4c64bc	-0.012475189
54	0x3adef8fa	0.0017011457
55	0x3b3b2c04	0.002856017
56	0x3ca730dd	0.020409042
57	0x3a950fd3	0.0011372514
58	0x3b4a97d6	0.0030913255
59	0x3c02cfc0	0.007984102
60	0x3b30a8ea	0.002695615
61	0xbbb1d8d5	-0.0054274597
62	0xbc44b166	-0.012005186
63	0xbb9dd39a	-0.0048164846
64	0x3b919756	0.0044430895
65	0xbc33c16f	-0.010971411
66	0x3b45ef3f	0.0030202416
67	0x3c24f160	0.010067314
68	0xbb6b70be	-0.0035925354
69	0x3bb186d1	0.0054176827
70	0xbb1a71ac	-0.002356629
71	0x3bbeea33	0.0058262586
72	0x3b9227e7	0.004460323
73	0x38a9849f	8.0832506e-05
74	0xbb9df2e2	-0.0048202137
75	0xbc1d5a07	-0.009603984
76	0xbc447121	-0.011989863
77	0x3acae13d	0.0015478503
78	0x3c15cd33	0.009143162
79	0x3c21dac4	0.009878818
80	0x3b52cbd2	0.0032164943
81	0x3c0916d0	0.008367255
82	0x3a971201	0.0011525751
83	0xbc1b4858	-0.009477697
84	0x3c4dabbc	0.012553152
85	0xbc460de0	-0.012088269
86	0x3b748150	0.0037308522
87	0xbb76c961	-0.0037656652
88	0x3b67ba15	0.0035358716
89	0xbc72c2b6	-0.0148169305
90	0xbc297ed6	-0.010345181
91	0x3a0d9fbc	0.00054025254
92	0xbc63e113	-0.013908642
93	0x3aefde2e	0.0018300468
94	0x3c343ef0	0.011001334
95	0xbba089fb	-0.004899261
96	0xbc0e0023	-0.008667025
97	0x39a10a8c	0.0003071617
98	0x3b06c54e	0.002056438
99	0xbbf48735	-0.007462407
100	0x3c02f593	0.00799312
101	0x3aa8b7ea	0.0012872193
102	0xbc0bd6f5	-0.0085351365
103	0x3c7f8605	0.015595918
104	0x3c501bed	0.0127019705
105	0xbccb6b0c	-0.024831317
106	0xbc3d7c98	-0.01156535
107	0xbc653ece	-0.013992025
108	0x3b9f065d	0.0048530535
109	0xbbda0eee	-0.006654612
110	0x3c004c4e	0.007830692
111	0x3bf25b42	0.0073961327
112	0x3b4d398b	0.0031314816
113	0x3c3413b6	0.010991028
114	0x389bab46	7.422878e-05
115	0xbc566c91	-0.013087408
116	0x3bab127f	0.0052207108
117	0x3c17e6f0	0.009271368
118	0xbbce2345	-0.0062908255
119	0x3c64a40d	0.013955128
120	0xbbce0a34	-0.0062878374
121	0xbbe405bc	-0.0069586914
122	0x3ae67d90	0.0017585028
123	0x3c1b8f12	0.00949456
124	0x38d8ddad	0.00010340973
125	0x3c92a13f	0.017899154
126	0xbafea8c7	-0.0019428962
127	0x3c26f0f4	0.010189284

network_body._body_endoder.seq_layers.2.weight f4 [128, 128]
0	0xbd30345c	-0.043018684
1	0x3ca04558	0.019564316
2	0xbbd5dfc0	-0.006526917
3	0x3d958f6d	0.07302747
4	0x3d365c0e	0.044521384
5	0xbd55039d	-0.0520054
6	0xbd19b556	-0.03752645
7	0xbd8fc39d	-0.07019732
8	0x3df22fe0	0.11825538
9	0x3ce8efb9	0.028434621
10	0x3dc2f0b0	0.09518564
11	0xbd6c6ede	-0.05772292
12	0xbe13cd09	-0.14433683
13	0x3ceaf8f4	0.028683163
14	0xbd8e7cc5	-0.06957392
15	0x3d6ab5e9	0.05730239
16	0x3d1b1e84	0.0378709
17	0x3de9fcc4	0.11425164
18	0x3dfe4dc2	0.12417175
19	0x3ccb971c	0.024852328
20	0xbbc4a513	-0.0060011237
21	0x3df1dccf	0.11809694
22	0x3b1163c1	0.0022184702
23	0x3dbe8a51	0.093037255
24	0xbce19a7d	-0.027539486
25	0x3d47bb1e	0.048762433
26	0xbce25228	-0.027627066
27	0xbd77af1f	-0.060469743
28	0x3d8a6ab2	0.06758632
29	0x3d93f125	0.07223729
30	0x3c8b0cad	0.016973818
31	0x3d620574	0.05518098
32	0xbd3602c1	-0.04443622
33	0x3e081874	0.13290578
34	0x3d2360f0	0.03988737
35	0xbd68e516	-0.0568591
36	0xbcbed378	-0.023294196
37	0x3c8cb724	0.017177172
38	0xbe033d3b	-0.12816326
39	0xbbfe7560	-0.007765457
40	0x3dd448cb	0.10365447
41	0x3daa8de9	0.083278485
42	0x3e5b18ec	0.21396226
43	0x3ddb63d7	0.10712402
44	0xbd0ddd5c	-0.034634933
45	0xbdd238bb	-0.10264727
46	0x3e17577b	0.14779465
47	0xbc7f63bf	-0.015587746
48	0xbe620efd	-0.2207603
49	0x3e022b7a	0.12711897
50	0xbdad6275	-0.08466045
51	0x3da6dccd	0.08147583
52	0xbd81fcaa	-0.0634702
53	0xbd404948	-0.046944886
54	0x3dc7ce72	0.09756173
55	0x3c6bcfcf	0.014392807
56	0xba888a83	-0.0010417256
57	0xbc33f19d	-0.010982898
58	0xbcfca999	-0.03084259
59	0x3bdaee19	0.0066812155
60	0xbe11fe7d	-0.14257236
61	0xbdcf1ac4	-0.10112527
62	0x3d10855c	0.03528343
63	0xbdf98550	-0.121836305
64	0xbe019a7d	-0.12656589
65	0xbc898225	-0.01678569
66	0x3e3c9e79	0.18419828
67	0xbe236c07	-0.15959178
68	0xbd155f41	-0.036467794
69	0xbc1ff981	-0.009764076
70	0x3d541854	0.051781014
71	0x3b904e86	0.004403892
72	0x3cf82baf	0.030294267
73	0xbd4b8c2f	-0.049694236
74	0xbdd9c89f	-0.106339686
75	0x3b0bfedd	0.0021361627
76	0x3b3e5030	0.0029039495
77	0x3d6c7695	0.057730276
78	0xbd104562	-0.03522242
79	0x3db2d67e	0.087323174
80	0x3d9a9d7a	0.075495675
81	0xbd79edf7	-0.061017957
82	0x3e05e70e	0.13076422
83	0x3d3f8ec8	0.046767026
84	0x3e8f6d47	0.2801306
85	0x3d035925	0.032067437
86	0xbd1a5b34	-0.037684634
87	0xb9cb4e39	-0.00038777458
88	0x3dbe0e9b	0.092801295
89	0x3d2ed02f	0.042679008
90	0xbaaa5e3c	-0.0012998055
91	0x3cf83ed5	0.030303398
92	0x3c9a8a3d	0.018864745
93	0xbc5fd05f	-0.013660519
94	0x3d516ea7	0.051130917
95	0x3d1a9b84	0.037745968
96	0xbccbce1f	-0.02487856
97	0xbc895794	-0.016765393
98	0x3d187727	0.037223008
99	0xbd3a3bca	-0.045467176
100	0xbb4ba18d	-0.0031071634
101	0x3e1547a8	0.14578116
102	0xbe0cc000	-0.13745117
103	0x3ca533a0	0.020166218
104	0xbdca7113	-0.098848484
105	0x3d575639	0.052572463
106	0xbd7666c7	-0.06015661
107	0x3cd81325	0.026376316
108	0x3dd88777	0.10572713
109	0xbd342307	-0.043978717
110	0x3e394b17	0.18095051
111	0xbd792664	-0.060827628
112	0xbe085bcf	-0.13316272
113	0x3e9ca5a7	0.30595133
114	0xbd283cea	-0.041073717
115	0xbce72fe1	-0.028221073
116	0x3b9c92dc	0.004778249
117	0xbdc38f57	-0.09548824
118	0x3cfd4821	0.030918183
119	0x3d04aef6	0.03239342
120	0xbd3c8c4c	-0.046032235
121	0xbcd89557	-0.026438398
122	0xbd9c7743	-0.07639935
123	0xbde7f3c9	-0.11325795
124	0x3dd37de9	0.1032675
125	0x3e4704ba	0.19435397
126	0xbc50c5b2	-0.012742447
127	0x3ddb426c	0.10706028
128	0x3de97ddc	0.11400959
129	0x3c599ff1	0.013282762
130	0xbe2bccd6	-0.16777357
131	0xbcc45ebb	-0.023970952
132	0x3cd35d81	0.025801422
133	0xbdaef6c6	-0.08543162
134	0xbdd57ddd	-0.10424397
135	0xbe0e9900	-0.13925552
136	0xbe2b67a0	-0.16738749
137	0xbd8e8fd7	-0.06961029
138	0x3d7287e5	0.05921163
139	0x3c7b0f47	0.015323467
140	0xbade90dc	-0.0016980427
141	0x3c268461	0.0101633975
142	0xbd21097a	-0.03931568
143	0x3c04d168	0.008106567
144	0x3d5f2e46	0.05448749
145	0xbcb0a342	-0.021562222
146	0x3d98d95b	0.07463332
147	0x3d616c25	0.055034775
148	0x3e1afb34	0.15134889
149	0x3cbcab47	0.02303089
150	0x3dea201a	0.11431904
151	0xbd3ca31e	-0.046054
152	0xbd0125e3	-0.031530272
153	0xbde08f0c	-0.10964784
154	0x3d45fa92	0.048334666
155	0x3d8ad786	0.06779389
156	0x3dd13dda	0.102168754
157	0x3d7d792d	0.06188314
158	0xbd1333d0	-0.035938084
159	0xbd74d85d	-0.059776653
160	0xbe26ee3b	-0.16301815
161	0xbd6db517	-0.05803403
162	0x3e34d3ee	0.1765897
163	0xbc1f367a	-0.009717578
164	0x3db170d4	0.086640984
165	0xbe29a518	-0.16566885
166	0x3ce7bd0b	0.028288385
167	0x3d849996	0.06474607
168	0x3c5ee1c8	0.013603635
169	0x3cde5284	0.027138956
170	0x3adf6f24	0.0017046672
171	0x3d3e88dc	0.046517238
172	0x3be1a560	0.0068861693
173	0xbc467368	-0.012112476
174	0x3bc5b021	0.006032959
175	0xbe74a3d7	-0.23890625
176	0x3e1c80b7	0.15283476
177	0xbd4dd7ee	-0.050254755
178	0x3e0d13d9	0.13777103
179	0x3cc52dfd	0.02406978
180	0x3e652919	0.22378959
181	0x3c93f4cf	0.01806107
182	0x3d495d3d	0.049161185
183	0xbd48026b	-0.04883043
184	0x3a815af3	0.0009869024
185	0x3c508338	0.0127265975
186	0x3d0081a1	0.031373624
187	0x3ccce4ae	0.025011387
188	0x3c0c0a13	0.008547324
189	0xbd44841e	-0.04797756
190	0xbce86b10	-0.028371364
191	0x3ded9002	0.11599733
192	0x3e0854df	0.13313626
193	0x3ca8b158	0.020592377
194	0xbe16aedc	-0.14715141
195	0xbdd0064c	-0.10157451
196	0xbd7fc3eb	-0.0624427
197	0xbce5ae31	-0.028037162
198	0xbd2a7006	-0.04161074
199	0x3d3e773c	0.04650043
200	0xbd3a6d39	-0.04551432
201	0xbe2a40a0	-0.16626215
202	0xbd4444c0	-0.047917128
203	0xbd8a357d	-0.06748483
204	0x3e4d2fea	0.20037809
205	0x3e57f43b	0.2108926
206	0xbd16ec91	-0.0368467
207	0xbb6de881	-0.0036301913
208	0xbb40758f	-0.0029366945
209	0x3e231499	0.15925826
210	0xbe04d214	-0.12970763
211	0xbd912ef7	-0.07089036
212	0xbd59c53f	-0.053166624
213	0x3d66fef7	0.056395497
214	0xbe45ba23	-0.19309287
215	0xbdc4f7b5	-0.09617559
216	0xbd686ae2	-0.056742556
217	0xbd156d94	-0.036481455
218	0x3de14771	0.109999545
219	0xbd58fd0e	-0.052975707
220	0xbbee8b00	-0.0072797537
221	0x3e0e6cc9	0.13908686
222	0x3da57721	0.08079363
223	0xbd9e899b	-0.0774109
224	0x3ccc40c6	0.02493323
225	0xbe0e966a	-0.13924566
226	0xbd47f958	-0.048821777
227	0xbcf44a8c	-0.029820703
228	0x3c341d18	0.010993265
229	0x3e83be58	0.25731158
230	0x3bfa7a99	0.0076440093
231	0x3c61846c	0.013764482
232	0xbe2f1c90	-0.1710074
233	0xbb80b08c	-0.003927296
234	0xbcb6b06f	-0.022300927
235	0x3d836a8a	0.06416805
236	0x3dda5416	0.10660569
237	0xbcb8c286	-0.022553694
238	0xbdc7cf08	-0.09756285
239	0x3b73796e	0.0037151235
240	0xbc829eaa	-0.015944798
241	0xbd028954	-0.031869248
242	0x3d8cb177	0.06869786
243	0x3e203b25	0.15647562
244	0xbcbeec01	-0.023305895
245	0x3e539d2e	0.20665428
246	0x3d8bd7d9	0.06828279
247	0xbe14947e	-0.1450977
248	0x3da5b18e	0.080905065
249	0x3d79cb87	0.060985114
250	0xbd013334	-0.03154297
251	0xbd18bc43	-0.037288915
252	0xbd41e972	-0.04734177
253	0xb9ea62ad	-0.00044705477
254	0xbd0a063d	-0.033697356
255	0x3d46dda3	0.048551213

network_body._body_endoder.seq_layers.2.bias f4 [128]
0	0x3c807e74	0.015685298
1	0xbc3a6540	-0.011376679
2	0xbc641f29	-0.013923445
3	0x39925be7	0.00027915763
4	0x3b91d260	0.0044501275
5	0xbbb65791	-0.005564638
6	0x3b946704	0.004528882
7	0xbc4bd6d5	-0.012441357
8	0xbb198c3a	-0.0023429529
9	0x3bb5a001	0.0055427556
10	0xbaa51c75	-0.0012596982
11	0xbbc360bc	-0.0059624594
12	0xbbfb55c2	-0.0076701352
13	0x3c5520b7	0.013008288
14	0xbb09a279	-0.0021001382
15	0x3ba18d1b	0.004930151
16	0xbbe95d9e	-0.0071217557
17	0xbb9b9353	-0.004747787
18	0x3bc4aa4c	0.0060017463
19	0x3ba34884	0.00498301
20	0x389adfb8	7.384963e-05
21	0x3c555eb8	0.013023071
22	0xba969eab	-0.0011491379
23	0x3b8d0cc8	0.004304502
24	0xbc491f2a	-0.0122754965
25	0x3c953c0e	0.018217113
26	0x3b2b19c1	0.002610788
27	0xbc2923c2	-0.010323467
28	0x3c76b1cb	0.015057038
29	0x3a986b42	0.0011628645
30	0xbb5b2bf6	-0.003344295
31	0x3c9498d7	0.018139286
32	0xbc244e0e	-0.010028375
33	0xbc40be6e	-0.011764152
34	0x3b6b8714	0.0035938667
35	0xbc50cd3b	-0.012744243
36	0xbb7aa01f	-0.0038242412
37	0xbaffc96f	-0.0019514988
38	0xbb921acc	-0.004458761
39	0xbb7f1d77	-0.0038927475
40	0x3c2db95b	0.010603274
41	0x3cb28283	0.021790748
42	0x3bcb83da	0.0062107863
43	0xbbf60dac	-0.007508954
44	0x3b9bc503	0.0047537102
45	0xbc87427a	-0.01651119
46	0xbbfc5c9e	-0.0077014705
47	0x3b1452c7	0.0022632347
48	0x3c29d583	0.010365847
49	0xbc3f70a8	-0.011684574
50	0x3c194b3a	0.009356314
51	0x3b0c7537	0.002143217
52	0x3c6a832a	0.0143134985
53	0x3ba4010b	0.005005007
54	0xbbeb71b0	-0.0071851835
55	0xbbbcbb9f	-0.005759671
56	0xbbd0723b	-0.0063612736
57	0xbbfe63fd	-0.0077633844
58	0x3b3c2a80	0.0028711855
59	0x3b39daab	0.0028359096
60	0x3b96b302	0.004598976
61	0x3b780156	0.0037842593
62	0x3bae6f81	0.005323351
63	0xbd250e53	-0.040296864
64	0xbc03afb1	-0.008037494
65	0x3ce25c0f	0.027631788
66	0x3c249e98	0.010047577
67	0xbc2a519d	-0.010395435
68	0x3c06e1fa	0.008232588
69	0xbc5dc70d	-0.013536227
70	0xbc2554fc	-0.010091063
71	0xbc81286b	-0.015766343
72	0x3bc24d46	0.005929622
73	0xbb311cb4	-0.0027025165
74	0x3bf338ff	0.007422566
75	0xbc08f20d	-0.008358491
76	0xbb5d54b0	-0.0033772402
77	0x3c9ada64	0.018902965
78	0x3c0acd37	0.008471779
79	0x3b462a1d	0.0030237504
80	0x3c084cae	0.008319063
81	0xb79aa3f8	-1.8434584e-05
82	0x3c1a0c05	0.00940228
83	0xbc284449	-0.010270187
84	0xbb8559f9	-0.0040695635
85	0xbbbfb946	-0.0058509437
86	0xbb0ed87b	-0.0021796513
87	0xbb9005f7	-0.0043952423
88	0x3bc19e09	0.005908732
89	0xbcb02fa8	-0.0215071
90	0x3bb61b05	0.00555742
91	0x3c66a079	0.014076346
92	0xbc3c91af	-0.011509343
93	0x3c6e0f52	0.01453002
94	0xbc55cecb	-0.013049792
95	0x3bdf3a23	0.0068123504
96	0x3c6ed6a9	0.014577546
97	0x3ba5715c	0.005048914
98	0xbc33fe09	-0.01098586
99	0x3c16cce4	0.009204123
100	0xbb44ee93	-0.0030049428
101	0x3b94f25b	0.0045454926
102	0xbbfdc657	-0.007744591
103	0x3b1f70e1	0.0024328756
104	0xbbab7c5c	-0.0052333307
105	0x3c287b48	0.010283299
106	0x3c088823	0.008333239
107	0x3bdef400	0.0068039894
108	0xbc80830b	-0.015687486
109	0x3b8dcbca	0.004327272
110	0x3c0b7983	0.008512857
111	0x3b81c39f	0.0039600874
112	0x3c6514e8	0.013982035
113	0x3ba1620a	0.0049250172
114	0x3be330ee	0.006933323
115	0xbcb1776c	-0.02166339
116	0xbcaf65a3	-0.021410769
117	0xbbb802b3	-0.005615556
118	0xbc3b5f88	-0.011436351
119	0xbc13f460	-0.0090304315
120	0x3bf4cbff	0.0074706073
121	0xbc53179e	-0.012884049
122	0x3c24ab0d	0.010050547
123	0x3bbd5a0b	0.005778556
124	0xbc30a840	-0.010782301
125	0xbaccd020	-0.0015625991
126	0x3b854214	0.004066715
127	0x3a8bb83a	0.0010659762

action_model._continuous_distribution.log_sigma f4 [1, 2]
0	0xbcf89550	-0.030344635
1	0xbc2bb5d1	-0.01048036

action_model._continuous_distribution.mu.weight f4 [2, 128]
0	0x3d0808ce	0.03321152
1	0xbc55250a	-0.013009319
2	0xbc8db006	-0.017295849
3	0x3a409302	0.00073461246
4	0x3c304f78	0.010761134
5	0x3be4777c	0.0069722515
6	0x3ba5c7bf	0.005059212
7	0xbc2c60ac	-0.010521095
8	0xbba510b5	-0.005037392
9	0x3bda8c64	0.006669568
10	0x3c4f3bed	0.012648565
11	0xbc3e113e	-0.011600791
12	0xbc20cf11	-0.0098149935
13	0xbb3e1339	-0.0029003157
14	0x3bfe8891	0.007767745
15	0xbba91a97	-0.0051606405
16	0xbc8daf03	-0.017295366
17	0xbcf1caff	-0.029515741
18	0x3c9112a3	0.017709082
19	0x3afc5fa4	0.0019254577
20	0x3d0be8cb	0.034157556
21	0x3c7acd60	0.015307754
22	0x3c306e35	0.010768463
23	0xbc6366e9	-0.013879516
24	0xbc681904	-0.01416612
25	0x3c31a8e7	0.010843492
26	0x3cbfe2b2	0.023423526
27	0xbd0e8de2	-0.03480328
28	0x3a93e831	0.0011284408
29	0xbb817a6d	-0.003951362
30	0x3ba731c1	0.0051023667
31	0x3cbbb49c	0.02291327
32	0xbce57d74	-0.028013922
33	0xbc01a8a7	-0.007913745
34	0x3c3199d7	0.010839901
35	0xbba1e1b3	-0.0049402355
36	0xbc986b1f	-0.018605767
37	0xba24aef2	-0.00062821724
38	0xbba46ce6	-0.0050178645
39	0xbc94a743	-0.018146163
40	0x3b1c4ebd	0.0023850643
41	0x3d40cc79	0.04707
42	0x3c8220a7	0.01588471
43	0xbca5516b	-0.020180425
44	0x3c8d012e	0.017212477
45	0xbd19e4a6	-0.03757157
46	0xbc2324c3	-0.009957495
47	0xbb8dafcc	-0.004323935
48	0xbcad3917	-0.021145387
49	0xbc39ef52	-0.011348562
50	0x3c4733fd	0.012158391
51	0xbce68089	-0.028137462
52	0x3cd4a15f	0.025955854
53	0x3c829e05	0.01594449
54	0xbc0ad3ec	-0.008473378
55	0x3bb74dc7	0.0055939886
56	0x3b908e87	0.004411522
57	0xbbdbe975	-0.00671118
58	0xb91f44ee	-0.000151891
59	0xbc0f3e1e	-0.008742837
60	0x3c3afde5	0.011413072
61	0x3b522c04	0.0032069692
62	0x3c2287c1	0.009920062
63	0xbc6fff0d	-0.014648211
64	0xbbdb4775	-0.006691868
65	0x3cc265d4	0.023730196
66	0x3d461698	0.04836139
67	0xbd3f724f	-0.046739873
68	0x3cfdafd0	0.030967623
69	0xbd10b6d8	-0.035330623
70	0xbc8431d4	-0.016137041
71	0xbc2f395e	-0.01069483
72	0x3c4c78f0	0.012480006
73	0xbc4b384d	-0.01240356
74	0x3c15f0e1	0.009151668
75	0xbc5f91bc	-0.013645586
76	0xbcd4c0fe	-0.025970932
77	0x3c542a8c	0.012949597
78	0x3be504d8	0.006989103
79	0x3c5e9ebd	0.013587651
80	0x3c5d2e24	0.01349977
81	0x3a7e0bc2	0.0009691083
82	0x3c840226	0.016114306
83	0xbc458d3d	-0.0120576
84	0xbb2c687d	-0.0026307397
85	0xbbf4e031	-0.0074730148
86	0xbc98d904	-0.018658169
87	0x3a4a0120	0.0007705856
88	0x3b6baa33	0.00359596
89	0x3b3b9c3b	0.0028627056
90	0x3c79a81d	0.015237835
91	0x3cb26b53	0.021779692
92	0xbc37799e	-0.011198429
93	0x3c3f4130	0.011673257
94	0xbbf20400	-0.0073857307
95	0x3c8e3c8e	0.01736286
96	0x3cfda62e	0.03096303
97	0xbc5561e3	-0.013023826
98	0xbb277721	-0.0025553184
99	0x3c2d8118	0.01058986
100	0xbaefd5d7	-0.0018297982
101	0x3c8d28c1	0.017231347
102	0x3be7033e	0.007049947
103	0x3be09ac4	0.006854387
104	0xbd1e3c75	-0.038631875
105	0x3cb80ce5	0.022467086
106	0x3c92ddeb	0.017928084
107	0xbca8116a	-0.020516116
108	0xbb57f05e	-0.0032949666
109	0xbc17a4d8	-0.00925561
110	0x3c6e2164	0.014534328
111	0x3c3e0b99	0.011599445
112	0x3c58ff1b	0.013244416
113	0x3c132a30	0.008982226
114	0x3c123049	0.008922645
115	0xbba07f19	-0.0048979637
116	0xbd2a9310	-0.041644156
117	0x395b85bb	0.00020935286
118	0xbd297d8a	-0.04137949
119	0x3b705ea9	0.0036677516
120	0x3b980a75	0.0046399185
121	0xbb78eee9	-0.0037984198
122	0xbbcdaab0	-0.006276451
123	0x3b89ab52	0.004201331
124	0xbc89bfd7	-0.01681511
125	0xbc554dde	-0.013019053
126	0x39929d6c	0.00027964578
127	0xbc91f07d	-0.017814869
128	0xbcc2591b	-0.02372413
129	0x3b138cd9	0.0022514372
130	0xbbb5a6d9	-0.0055435714
131	0x3ce38cd7	0.027777119
132	0xbc59313d	-0.013256368
133	0xbccf3139	-0.025292026
134	0xbb862f0f	-0.0040949653
135	0x3b556326	0.0032560318
136	0xbcf050e8	-0.029335454
137	0xbc6f5733	-0.014608192
138	0x3b8aa402	0.004230977
139	0xbb5ab679	-0.0033372922
140	0xbc7e1f01	-0.015510322
141	0x3d4c5688	0.04988721
142	0x37c52685	2.3502167e-05
143	0x3d2bbdb5	0.041928966
144	0x3c333428	0.010937728
145	0x3ca3e769	0.020007806
146	0xbcde956a	-0.027170856
147	0xbd51f27e	-0.05125665
148	0x3cb09fa1	0.021560492
149	0x3cc6d311	0.024270566
150	0xbc0caa75	-0.008585562
151	0x3c2de8cd	0.010614586
152	0xbc2f0e6e	-0.010684593
153	0x3cda1354	0.026620544
154	0xbd57766d	-0.052603174
155	0x3b908903	0.0044108643
156	0x3d3919e6	0.045190714
157	0x3c86348f	0.016382484
158	0xbb466d43	-0.0030277527
159	0xbcaef85b	-0.02135866
160	0xbb910dcc	-0.0044266935
161	0x3b495425	0.003072032
162	0xbcd35e8c	-0.02580192
163	0xbc8428e1	-0.016132774
164	0xbcaa791d	-0.020809704
165	0xbd43ba36	-0.047785006
166	0xbcc18e05	-0.02362729
167	0xbce0d338	-0.027444467
168	0x3d4f5fdb	0.050628524
169	0x3c558c84	0.01303399
170	0xbcc3bf14	-0.023894824
171	0x3c2a10c6	0.010379976
172	0xbbbb42ef	-0.005714766
173	0xbc390d76	-0.011294713
174	0xbcb1b61d	-0.021693284
175	0xbcac8ae3	-0.02106232
176	0x3c9510eb	0.018196544
177	0xbc89b79b	-0.016811183
178	0xbc3a17d9	-0.011358225
179	0x3c57f2b4	0.0131804235
180	0xbb112339	-0.0022146238
181	0xbc8d142d	-0.017221535
182	0x3c52c57d	0.012864468
183	0xbca3ef38	-0.02001153
184	0xbc5a863b	-0.013337667
185	0xbc850548	-0.01623787
186	0xbcbe5ebd	-0.023238534
187	0x3d10b35c	0.0353273
188	0xbd1e32fc	-0.03862284
189	0xbd467176	-0.04844805
190	0x3bd2e796	0.0064362986
191	0xbc1f77fa	-0.0097331945
192	0xbc6a530a	-0.014302025
193	0xbbc67a52	-0.006057062
194	0x3cf0274c	0.029315613
195	0x3b1e9c99	0.0024202226
196	0x3b59c3fb	0.0033228386
197	0x3c99aa27	0.018757893
198	0xbb11d781	-0.0022253694
199	0x3bb88a1e	0.005631699
200	0xbd010ee0	-0.031508327
201	0x3cb81a90	0.022473603
202	0x3ca09be8	0.019605592
203	0x3cf8040d	0.030275369
204	0xbbff2296	-0.0077861054
205	0x3d4e9cfb	0.050442677
206	0x3ce51647	0.027964724
207	0x3c2473ca	0.010037372
208	0x3d41bb2c	0.04729764
209	0x3ccb56b7	0.024821622
210	0x3bdb7a75	0.0066979476
211	0xbc1b3c85	-0.009474878
212	0xbc126e1b	-0.008937384
213	0xbca8f8f1	-0.020626517
214	0xbb290c05	-0.0025794518
215	0x3c2222cd	0.009895992
216	0xbcf3117a	-0.02967142
217	0x3b8b1a30	0.004245065
218	0x3c60f9cd	0.013731432
219	0xbbd9b3f8	-0.0066437684
220	0xbca232c4	-0.019799598
221	0x3cdc5770	0.026897162
222	0xbb75adec	-0.0037487699
223	0xbbdda69b	-0.0067642457
224	0xbb7be798	-0.0038437601
225	0x3ca2e031	0.019882293
226	0x3c910f66	0.017707538
227	0x3cecf01d	0.028923089
228	0xbcae30a1	-0.021263422
229	0x3d0a80c0	0.03381419
230	0x3c4147db	0.011796917
231	0xbcb1dc4f	-0.021711497
232	0xbb278718	-0.00255627
233	0x3b1e4453	0.002414961
234	0xbbf66549	-0.0075193984
235	0xbd04a428	-0.032383114
236	0x3c1a2ad6	0.009409627
237	0x3caad175	0.02085183
238	0x3c68087f	0.014162182
239	0x3cf19b13	0.02949289
240	0x3b899d06	0.004199627
241	0xbc60c305	-0.013718371
242	0xbce5ffe8	-0.028076127
243	0xbba07373	-0.004896575
244	0xbbfd780b	-0.0077352575
245	0x3c375618	0.01118996
246	0xbabfd0b7	-0.0014634345
247	0xba2d74c7	-0.00066168274
248	0xbd1d1c70	-0.0383572
249	0x3ab0c538	0.001348651
250	0x3d3431ac	0.043992683
251	0x3d224113	0.03961284
252	0xbb90993e	-0.004412799
253	0xbd3b3cdf	-0.045712348
254	0xbcafe07a	-0.021469343
255	0x3c2c8770	0.010530338

action_model._continuous_distribution.mu.bias f4 [2]
0	0x3c7faf24	0.015605722
1	0x3bba499a	0.0056850435

action_model._discrete_distribution.branches.0.weight f4 [1, 128]
0	0xbbb95bb9	-0.005656686
1	0xbc922dd2	-0.017844114
2	0x3b6851c0	0.0035449117
3	0x3cbe5d40	0.023237824
4	0x3b546645	0.003240959
5	0xba0bd3e4	-0.00053340034
6	0x3b7bc1bb	0.0038415033
7	0x3a5b463a	0.00083646516
8	0x3a6e7a58	0.000909721
9	0x3b5096cd	0.0031828166
10	0x39f85cbd	0.00047371341
11	0x3b94bddc	0.0045392346
12	0x3c076413	0.008263606
13	0xb9912cd6	-0.0002768996
14	0xbc40643d	-0.011742649
15	0xbbfe42d0	-0.0077594295
16	0xbbb2bffb	-0.0054550148
17	0xbaf4aa6a	-0.001866651
18	0xbc101035	-0.008792927
19	0xbb133b52	-0.0022465778
20	0xbc139cdc	-0.009009566
21	0xbc87d337	-0.016580207
22	0xba3e8810	-0.00072681997
23	0x3bf862d0	0.0075801387
24	0x3b16909e	0.0022974382
25	0xbc13cebb	-0.009021456
26	0x3befcbd0	0.0073179975
27	0x3accd6c8	0.0015627975
28	0x3b8195d2	0.0039546276
29	0x3b45fe54	0.0030211406
30	0xba7779df	-0.00094404625
31	0xbc1b45f6	-0.009477129
32	0x3b6bd6c0	0.0035986155
33	0x3c0ec0e9	0.008712986
34	0x3c136972	0.008997308
35	0xbc3ea8ea	-0.011636952
36	0xbbe64657	-0.007027428
37	0xbbb0f5f3	-0.005400413
38	0x3ca789c2	0.02045143
39	0x3b448073	0.0029983788
40	0xbb95f7cb	-0.0045766584
41	0x3b73a87d	0.0037179284
42	0x3b4e9040	0.0031519085
43	0xba9abe92	-0.0011806062
44	0x3c260361	0.0101326415
45	0x3c12a9e2	0.008951636
46	0x3b3075f1	0.0026925767
47	0x3b121cec	0.002229507
48	0xb9bc8754	-0.00035958982
49	0xbc45ca7f	-0.012072205
50	0x3c2691b1	0.0101665715
51	0x3ab87f50	0.0014076028
52	0x3a91aded	0.0011114456
53	0x3c4076f7	0.011747113
54	0xbc49092c	-0.012270253
55	0x3babe63d	0.0052459524
56	0x374dfcdb	1.2277825e-05
57	0xbbbf8a47	-0.0058453414
58	0x39ac9f86	0.0003292525
59	0x3b9db455	0.004812757
60	0x3c5d5aeb	0.013510446
61	0xbbb16273	-0.0054133474
62	0x3bf0cec0	0.0073488653
63	0xbbe32e88	-0.006933037
64	0x3a56a912	0.00081886456
65	0xbbc5a28b	-0.0060313395
66	0x3b85ec1b	0.004086984
67	0x3b1fc78f	0.002438042
68	0x3b885813	0.00416089
69	0x3b83e201	0.0040247445
70	0xbc03c521	-0.008042605
71	0xbc1be5fb	-0.009515281
72	0xbad0f0f0	-0.0015940946
73	0xbb42b9dc	-0.0029712832
74	0x3b8bb726	0.0042637764
75	0xbcd11f12	-0.02552751
76	0x3b934ea2	0.0044954577
77	0x3b6f04cd	0.0036471367
78	0x3b84a89f	0.0040484215
79	0xbb706920	-0.0036683753
80	0xbbfae815	-0.007657061
81	0x3c4c6ceb	0.01247714
82	0xbc00b660	-0.007855982
83	0xba510aa3	-0.0007974302
84	0x3c14fb8e	0.009093178
85	0xbc6ed63a	-0.014577443
86	0xbc0928d4	-0.008371551
87	0xbc25e4cf	-0.010125353
88	0xbb877a2b	-0.0041344366
89	0xbbfbf6f2	-0.0076893503
90	0x3be3a518	0.006947171
91	0xbc02537f	-0.007954477
92	0x3c949325	0.01813657
93	0x3c08a847	0.008340902
94	0xbb4a5c2d	-0.0030877695
95	0x3c596a6f	0.013270005
96	0xbc430b39	-0.011904531
97	0x3bd21c97	0.0064120996
98	0x3a13245e	0.0005613024
99	0x3b8b12a3	0.004244165
100	0xba3abc62	-0.0007123408
101	0x3b567be2	0.0032727649
102	0x3c62e7e5	0.013849233
103	0xbbb97f2e	-0.005660913
104	0xbb0639fe	-0.0020481343
105	0xbafcfa30	-0.0019300636
106	0xbc4263a6	-0.011864578
107	0xbc285193	-0.010273355
108	0xbb87591b	-0.0041304952
109	0xbbdf3cf8	-0.006812688
110	0x3c3e2973	0.011606562
111	0xbbb8c9c2	-0.005639286
112	0x3afb9187	0.0019193151
113	0x3a01cf5f	0.000495186
114	0xbc1365c3	-0.00899643
115	0x3b83125b	0.003999991
116	0xbc1b63f9	-0.009484285
117	0x3c57d4af	0.013173266
118	0x3b497c62	0.0030744304
119	0x3be32a60	0.0069325417
120	0x3bf92e90	0.0076044276
121	0xbc1af801	-0.009458543
122	0xbbdb50a3	-0.0066929623
123	0xbc0cfcbb	-0.0086051775
124	0xbc3d2ba5	-0.01154605
125	0x3b37e20f	0.0028058325
126	0x3bab8717	0.00523461
127	0xbc049974	-0.008093227
