results/run1/MazeBrain/MazeBrain-0.pt (torch, 335420 bytes, 13 tensors)

network_body._body_endoder.seq_layers.0.weight f4 [128, 186]
0.026092796 -0.029794395 -0.0541198 -0.0073262057 -0.13192157 -0.065045714 0.018816592 -0.13417056
-0.013789897 -0.08190835 -0.023454832 -0.15767753 -0.011696686 0.061861202 -0.03491254 0.013588652
-0.016031079 -0.049804974 -0.026252512 -0.006564618 0.146727 -0.24852376 0.060077563 -0.020781504
-0.12343205 0.14890268 -0.017349249 0.09893985 -0.022649255 0.0083948895 -0.019514848 0.037090223
0.047179684 0.014200161 -0.033079926 -0.00039067204 0.05817948 -0.08506858 0.014903144 0.11064595
0.024684032 0.070109084 0.008322039 -0.052566215 -0.05078303 0.037931163 -0.093022734 0.07981738
0.070391834 -0.040797863 0.1026632 0.07052809 0.09677746 0.049851086 -0.049667586 -0.041267816
0.08247712 0.055923875 -0.09528242 0.060997825 -0.0006714299 -0.076976635 0.0035004856 -0.064056315
-0.095467724 0.045639355 0.007823464 -0.06550515 -0.0040125274 0.036254358 0.09608677 0.02671734
0.12792426 -0.055575147 0.11897665 0.08895409 0.029705692 -0.09558009 0.08856 -0.07569406
0.053732563 -0.051682513 -0.11087099 -0.051992077 -0.24269548 0.023731567 -0.058563363 0.001375462
-0.019254513 -0.06745206 -0.18607046 -0.09399036 -0.038943958 -0.07932319 -0.038523722 -0.0453763
0.1171831 0.09364926 0.014605083 0.0693078 0.06173803 -0.022531101 0.019854777 0.023740876
-0.056473065 0.07420507 -0.09311582 -0.0127430465 -0.0746852 0.039282277 0.09386403 -0.0042504272
-0.0047710394 -0.12502548 -0.059092592 0.122824274 -0.15557192 0.034454964 0.035007562 0.013977424
-0.028735438 0.10962925 -0.06114532 0.043186363 0.029705033 0.05456015 -0.0042025293 -0.08809672
0.036319736 0.08362515 -0.050067633 -0.06460002 -0.1265125 -0.01827447 0.03220503 -0.004233177
0.013966882 0.034536414 0.20453218 0.096175395 0.12970923 0.10970421 0.08395326 0.03955108
-0.04253115 0.052728027 -0.0047573736 -0.031394325 -0.10306666 0.116485655 -0.046948314 0.052968916
0.017206138 -0.086179204 0.11386411 0.08658734 -0.015343721 -0.021445815 0.01675505 0.038340732
-0.045683138 -0.010858446 0.10046173 -0.12880918 0.045452617 -0.0768091 -0.060783844 0.03189577
0.015748428 -0.15460056 0.14523506 -0.17753549 0.11182779 0.012970293 0.10241637 -0.1294395
0.050226726 0.1016131 -0.009964663 0.057992127 -0.0033819086 -0.082648195 -0.19055215 -0.097818874
0.02917733 0.034086622 0.12729423 0.014044281 -0.015638964 -0.047397777 0.074391164 -0.170662
-0.0103375735 0.16908357 0.089071944 -0.080431275 -0.063985884 0.022741772 -0.16834226 0.029237939
-0.15264598 0.053628966 -0.09971913 0.074089855 0.12891145 -0.012585252 0.13142924 -0.013239001
-0.052528873 -0.06420438 0.13483745 0.06609387 -0.12674695 0.029661579 0.091410436 -0.02776631
0.0595889 -0.09750428 0.114470415 0.041680284 0.009286101 -0.07969169 0.08316113 -0.05684629
0.20655459 -0.08950637 -0.037782393 0.030479461 0.06511254 -0.09075707 -0.037723847 0.13082746
-0.006511067 0.00018952705 0.047405116 0.04277344 0.019010834 -0.02895165 -0.06894732 -0.0061409986
-0.0012465633 0.114237346 -0.019120546 -0.059483048 -0.09995391 -0.023794197 -0.1348814 -0.017738542
-0.016926313 -0.025869247 0.04870148 -0.058703527 0.04134894 -0.14120466 0.00022144897 0.057150513
00000000: 8fc0 d53c 6013 f4bc b9ac 5dbd ab10 f0bb
00000010: 7316 07be b036 85bd 4125 9a3c 0264 09be
00000020: 05ef 61bc 91bf a7bd 5924 c0bc 3876 21be
00000030: 75a3 3fbc 2c62 7d3d 7400 0fbd f0a2 5e3c
00000040: 9c53 83bc 4d00 4cbd 820f d7bc 021c d7bb
00000050: 9a3f 163e 037d 7ebe e413 763d f93d aabc
00000060: f1c9 fcbd f279 183e 0320 8ebc faa0 ca3d
00000070: ee8a b9bc b88a 093c 9add 9fbc ebeb 173d
00000080: 7c3f 413d cba7 683c d17e 07bd 1dd3 ccb9
00000090: 9b4d 6e3d 7038 aebd 512c 743c 589a e23d
000000a0: 2b36 ca3c 5a95 8f3d 2959 083c ac4f 57bd
000000b0: de01 50bd b55d 1b3d b482 bebd 4b77 a33d
000000c0: 9829 903d a91b 27bd 1541 d23d 0871 903d
000000d0: 4333 c63d a730 4c3d 3d70 4bbd 7108 29bd
000000e0: c4e9 a83d 6f10 653d 6e23 c3bd dbd8 793d
000000f0: e602 30ba eda5 9dbd 6768 653b f52f 83bd
00000100: 9584 c3bd 55f0 3a3d fd2d 003c 9027 86bd
00000110: 857b 83bb 737f 143d 24c9 c43d 53de da3c
00000120: 94fe 023e c4a2 63bd 08aa f33d 902d b63d
00000130: 5a59 f33c 7fbf c3bd f25e b53d 7d05 9bbd
00000140: ad16 5c3d 0bb1 53bd 5410 e3bd a5f5 54bd
00000150: 2a85 78be b468 c23c 23e0 6fbd d948 b43a
00000160: a4bb 9dbc 4e24 8abd 4189 3ebe 057e c0bd
00000170: b383 1fbd 3274 a2bd 0dcb 1dbd 80dc 39bd
00000180: b1fd ef3d 2fcb bf3d 284a 6f3c 3ff1 8d3d
00000190: 04e1 7c3d 2593 b8bc 7ca6 a23c 3a7c c23c
000001a0: 4d50 67bd d4f8 973d 82b3 bebd 36c8 50bc
000001b0: 8ef4 98bd 74e6 203d c93b c03d 2b47 8bbb
000001c0: 6156 9cbb ae06 00be 130b 72bd 4b8b fb3d
000001d0: 3f4e 1fbe a620 0d3d 1764 0f3d 9101 653c
000001e0: 9566 ebbc 4d85 e03d 8473 7abd 2fe4 303d
000001f0: f857 f33c 777a 5f3d 5fb5 89bb 0e6c b4bd
00000200: 01c4 143d aa43 ab3d b813 4dbd 044d 84bd
00000210: 7e8c 01be 57b4 95bc 6ce9 033d 76b6 8abb
00000220: 59d5 643c 0e76 0d3d e270 513e 9bf7 c43d
00000230: 7fd2 043e 9aac e03d b0ef ab3d 5000 223d
00000240: 2535 2ebd 58f9 573d bee3 9bbb 5697 00bd
00000250: 9d14 d3bd 0890 ee3d e04c 40bd eff5 583d
00000260: e3f3 8c3c b97e b0bd 9631 e93d b454 b13d
00000270: 3b64 7bbc 22af afbc e341 893c 2c0b 1d3d
00000280: 3e1e 3bbd a0e7 31bc e1be cd3d 8ee6 03be
00000290: 862c 3a3d 174e 9dbd 7bf8 78bd 24a5 023d
000002a0: d902 813c 9c4f 1ebe 80b8 143e ddcb 35be
000002b0: f805 e53d 5a81 543c acbf d13d ca8b 04be
000002c0: 8aba 4d3d 871a d03d d342 23bc 2789 6d3d
000002d0: 03a3 5dbb 7543 a9bd 1a20 43be 4355 c8bd
000002e0: 4c05 ef3c 6a9e 0b3d 6b59 023e fc19 663c
000002f0: 491d 80bc 2c24 42bd 655a 983d 05c2 2ebe
00000300: ed5e 29bc 3e24 2d3e 5a6b b63d 27b9 a4bd
00000310: 080b 83bd f44c ba3c ea61 2cbe 6784 ef3c
00000320: 3a4f 1cbe 0caa 5b3d 8b39 ccbd 6cbc 973d
00000330: 5d01 043e 5f32 4ebc 6395 063e 65e8 58bc
00000340: 8428 57bd 967d 83bd d412 0a3e 395c 873d
00000350: f4c9 01be d7fc f23c 6535 bb3d 2c76 e3bc
00000360: 7e13 743d 53b0 c7bd 776f ea3d f2b8 2a3d
00000370: bb24 183c 6635 a3bd 6250 aa3d a8d7 68bd
00000380: 0c83 533e 1e4f b7bd b6c1 1abd 10b0 f93c
00000390: b959 853d d8de b9bd 5284 1abd a2f7 053e
000003a0: ca5a d5bb c8bb 4639 de2b 423d 3433 2f3d
000003b0: 9cbc 9b3c 032c edbc 4134 8dbd 6e3a c9bb
000003c0: b963 a3ba 45f5 e93d b1a2 9cbc 7fa4 73bd
000003d0: a3b4 ccbd 0cec c2bc 5a1e 0abe 6b50 91bc
000003e0: 0da9 8abc beeb d3bc 347b 473d 1c73 70bd
000003f0: 825d 293d f497 10be c134 6839 a816 6a3d

network_body._body_endoder.seq_layers.0.bias f4 [128]
0.0 0.0 0.0 0.0 0.0 0.0 0.0 0.0
0.0 0.0 0.0 0.0 0.0 0.0 0.0 0.0
0.0 0.0 0.0 0.0 0.0 0.0 0.0 0.0
0.0 0.0 0.0 0.0 0.0 0.0 0.0 0.0
0.0 0.0 0.0 0.0 0.0 0.0 0.0 0.0
0.0 0.0 0.0 0.0 0.0 0.0 0.0 0.0
0.0 0.0 0.0 0.0 0.0 0.0 0.0 0.0
0.0 0.0 0.0 0.0 0.0 0.0 0.0 0.0
0.0 0.0 0.0 0.0 0.0 0.0 0.0 0.0
0.0 0.0 0.0 0.0 0.0 0.0 0.0 0.0
0.0 0.0 0.0 0.0 0.0 0.0 0.0 0.0
0.0 0.0 0.0 0.0 0.0 0.0 0.0 0.0
0.0 0.0 0.0 0.0 0.0 0.0 0.0 0.0
0.0 0.0 0.0 0.0 0.0 0.0 0.0 0.0
0.0 0.0 0.0 0.0 0.0 0.0 0.0 0.0
0.0 0.0 0.0 0.0 0.0 0.0 0.0 0.0
00000000: 0000 0000 0000 0000 0000 0000 0000 0000
00000010: 0000 0000 0000 0000 0000 0000 0000 0000
00000020: 0000 0000 0000 0000 0000 0000 0000 0000
00000030: 0000 0000 0000 0000 0000 0000 0000 0000
00000040: 0000 0000 0000 0000 0000 0000 0000 0000
00000050: 0000 0000 0000 0000 0000 0000 0000 0000
00000060: 0000 0000 0000 0000 0000 0000 0000 0000
00000070: 0000 0000 0000 0000 0000 0000 0000 0000
00000080: 0000 0000 0000 0000 0000 0000 0000 0000
00000090: 0000 0000 0000 0000 0000 0000 0000 0000
000000a0: 0000 0000 0000 0000 0000 0000 0000 0000
000000b0: 0000 0000 0000 0000 0000 0000 0000 0000
000000c0: 0000 0000 0000 0000 0000 0000 0000 0000
000000d0: 0000 0000 0000 0000 0000 0000 0000 0000
000000e0: 0000 0000 0000 0000 0000 0000 0000 0000
000000f0: 0000 0000 0000 0000 0000 0000 0000 0000
00000100: 0000 0000 0000 0000 0000 0000 0000 0000
00000110: 0000 0000 0000 0000 0000 0000 0000 0000
00000120: 0000 0000 0000 0000 0000 0000 0000 0000
00000130: 0000 0000 0000 0000 0000 0000 0000 0000
00000140: 0000 0000 0000 0000 0000 0000 0000 0000
00000150: 0000 0000 0000 0000 0000 0000 0000 0000
00000160: 0000 0000 0000 0000 0000 0000 0000 0000
00000170: 0000 0000 0000 0000 0000 0000 0000 0000
00000180: 0000 0000 0000 0000 0000 0000 0000 0000
00000190: 0000 0000 0000 0000 0000 0000 0000 0000
000001a0: 0000 0000 0000 0000 0000 0000 0000 0000
000001b0: 0000 0000 0000 0000 0000 0000 0000 0000
000001c0: 0000 0000 0000 0000 0000 0000 0000 0000
000001d0: 0000 0000 0000 0000 0000 0000 0000 0000
000001e0: 0000 0000 0000 0000 0000 0000 0000 0000
000001f0: 0000 0000 0000 0000 0000 0000 0000 0000

network_body._body_endoder.seq_layers.2.weight f4 [128, 128]
-0.026173024 -0.1605159 0.057418738 -0.18394792 -0.1140046 0.044494186 0.10908956 0.0184676
-0.027961642 0.078993924 -0.16800046 -0.0021006737 0.07436923 0.07240222 -0.024941567 0.02618691
0.22396134 0.029579733 -0.017689249 0.088404976 0.07099969 0.058149368 -0.09201844 -0.07739517
-0.026826777 0.01852582 -0.09131577 0.0075178263 -0.04177522 0.058047425 0.12764996 0.10563738
0.15040556 0.07027812 0.041464157 -0.011936933 0.041974068 -0.095723286 0.029078519 -0.024485104
-0.107219085 -0.19344223 -0.021463754 -0.012416859 -0.026618848 -0.120113656 -0.00999993 0.041681137
0.08688862 -0.073856786 0.19069467 -0.061485928 0.0031346001 0.058906615 -0.027851066 -0.011808525
0.025101854 -0.017356232 0.0806766 -0.0062463246 0.08310685 0.024328511 -0.0069479677 -0.101558015
0.19737312 -0.021166092 0.049127124 0.06071485 -0.13090105 -0.068745926 0.004600812 0.06876419
0.11356073 -0.0212899 0.0143222585 -0.01934313 0.028056309 -0.013786695 -0.039198536 -0.14094923
0.019599598 -0.10922741 0.025579099 -0.06373017 0.0056461077 -0.02568264 0.050173674 -0.02534165
-0.06360197 -0.0075527756 -0.028481979 -0.028638586 0.057316404 0.009370522 -0.04706723 -0.072736956
0.06739407 0.0111460015 -0.058398075 0.0123954285 0.090706065 -0.04752957 -0.06537522 -0.11985708
-1.740532e-05 -0.1405271 -0.023588339 0.17427757 -0.034611743 -0.11989342 -0.023560628 0.06699325
0.071554765 0.15746644 0.09306282 0.15440948 0.012677038 0.03452901 -0.17161854 0.03655433
0.17343076 -0.08385592 -0.0028225477 0.189511 -0.026970126 0.06840966 -0.08368722 0.0946263
-0.07794248 0.07413227 -0.05824116 0.05603792 0.09644923 0.18103561 0.0013867408 -0.08594232
0.01960331 -0.032537147 0.11186434 0.1529049 -0.085848875 0.038371276 -0.066976786 -0.014185472
-0.19443922 0.18780817 -0.1604956 -0.10856956 -0.020552803 0.06797798 0.007862323 0.15124002
0.034052752 0.03878901 0.009628313 0.0062409397 0.111650266 0.02056999 -0.0020637189 -0.038760494
0.09401123 -0.0056747505 -0.017446011 -0.23052068 -0.13587153 -0.07073239 0.13893981 -0.090153016
0.14349058 -0.12731276 -0.04708029 -0.0032132533 0.020340024 0.06824975 0.04842648 0.14192778
-0.069638126 0.021833992 -0.032978818 -0.07360831 0.15834923 -0.038922295 -0.06620448 -0.08404405
-0.029746708 0.14777388 -0.11274133 -0.010782301 -0.01130773 -0.057478823 -0.16112582 -0.03648364
0.09887429 -0.1430001 0.06412402 -0.34243894 -0.038226508 0.01975821 -0.091331474 -0.110552795
-0.04232848 0.09898951 -0.14536284 0.08991663 -0.0023369582 0.038247876 0.04366662 0.06618146
0.017995888 -0.0420719 0.006440434 0.10818301 -0.011119315 -0.042009998 -0.016653024 -0.048331298
0.05189984 0.1444454 0.03236918 -0.12349124 0.03309099 0.033340044 0.03050342 0.11074471
-0.07683221 -0.15038252 -0.028309936 -0.16240245 -0.027545003 -0.08525469 0.0022128914 0.108695306
0.019640673 0.08530584 -0.031769797 0.030157413 -0.05613191 0.0052526053 0.00835678 0.07977908
-0.0026230135 0.07663681 -0.0893121 0.029509049 0.03843193 0.08897504 0.07632194 0.05024351
0.07594488 0.08025718 -0.055853765 0.03430148 -0.054142267 -0.0646996 0.04993826 0.007052652
00000000: cf68 d6bc 485e 24be e92f 6b3d d85c 3cbe
00000010: 3e7b e9bd 893f 363d 596a df3d 5d49 973c
00000020: d00f e5bc 91c7 a13d 5008 2cbe 75ab 09bb
00000030: e54e 983d 9d47 943d 4252 ccbc ee85 d63c
00000040: 1f56 653e 3251 f23c 0be9 90bc ab0d b53d
00000050: 4968 913d 082e 6e3d 2a74 bcbd 5c81 9ebd
00000060: d4c3 dbbc 76c3 973c c303 bbbd 1958 f63b
00000070: 7e1c 2bbd 23c3 6d3d acb6 023e 6958 d83d
00000080: ea03 1a3e faed 8f3d 52d6 293d 2093 43bc
00000090: 00ed 2b3d 920a c4bd 1336 ee3c fc94 c8bc
000000a0: ae95 dbbd b815 46be c1d4 afbc 1570 4bbc
000000b0: c50f dabc 26fe f5bd bfd6 23bc d7b9 2a3d
000000c0: a9f2 b13d 3a42 97bd 7745 433e abd8 7bbd
000000d0: dd6d 4d3b 1048 713d eb27 e4bc 8b78 41bc
000000e0: 67a2 cd3c a82e 8ebc c639 a53d f8ad ccbb
000000f0: ed33 aa3d 964c c73c c7ab e3bb a6fd cfbd
00000100: 2e1c 4a3e 8364 adbc 8639 493d 22b0 783d
00000110: ed0a 06be aaca 8cbd 69c2 963b 3dd4 8c3d
00000120: 8792 e83d 2868 aebc e8a7 6a3c 7c75 9ebc
00000130: 58d6 e53c 97e1 61bc a58e 20bd ff54 10be
00000140: 568f a03c 9fb2 dfbd 428b d13c f784 82bd
00000150: fc02 b93b 6664 d2bc e982 4d3d 4b99 cfbc
00000160: c041 82bd 467d f7bb 0a53 e9bc 789b eabc
00000170: 9bc4 6a3d d186 193c 91c9 40bd 1df7 94bd
00000180: e705 8a3d b89d 363c d232 6fbd 3216 4b3c
00000190: 1ac4 b93d 5eae 42bd 71e3 85bd a177 f5bd
000001a0: a401 92b7 56e6 0fbe 553c c1bc d275 323e
000001b0: 0bc5 0dbd ae8a f5bd 3802 c1bc c233 893d
000001c0: 4e8b 923d e23e 213e b897 be3d 851d 1e3e
000001d0: 5ab3 4f3c 4b6e 0d3d c5bc 2fbe feb9 153d
000001e0: d597 313e a7bc abbd 7efa 38bb 2c0f 423e
000001f0: 74f0 dcbc 5d1a 8c3d 3564 abbd 6fcb c13d
00000200: 4fa0 9fbd a9d2 973d 488e 6ebd 0588 653d
00000210: 2d87 c53d 6661 393e 4dc3 b53a 8702 b0bd
00000220: 1f97 a03c ac45 05bd 2219 e53d 1a93 1c3e
00000230: 89d1 afbd 332b 1d3d 202b 89bd 2f6a 68bc
00000240: 131b 47be c950 403e f558 24be b859 debd
00000250: 5a5e a8bc 0a38 8b3d f9d0 003c aade 1a3e
00000260: e67a 0b3d 3ae1 1e3d 12c0 1d3c cc80 cc3b
00000270: e5a8 e43d 6582 a83c 753f 07bb 53c3 1ebd
00000280: f688 c03d 42f3 b9bb f0ea 8ebc 9d0d 6cbe
00000290: e821 0bbe 25dc 90bd 3d46 0e3e 25a2 b8bd
000002a0: 32ef 123e 475e 02be 43d7 40bd 7295 52bb
000002b0: 1fa0 a63c 86c6 8b3d d85a 463d 8455 113e
000002c0: 6f9e 8ebd 33dd b23c cc14 07bd f4bf 96bd
000002d0: 4d26 223e fc6c 1fbd 3796 87bd 491f acbd
000002e0: 5eaf f3bc 0952 173e ede4 e6bd 40a8 30bc
000002f0: 0f44 39bc ea6e 6bbd 2bfe 24be df6f 15bd
00000300: 9b7e ca3d 9e6e 12be 7453 833d 2854 afbe
00000310: 6693 1cbd f8db a13c ff0b bbbd 8169 e2bd
00000320: a160 2dbd 03bb ca3d ffd9 14be 3626 b83d
00000330: a727 19bb cea9 1c3d c5db 323d 258a 873d
00000340: 1d6c 933c 9653 2cbd 470a d33b 0e8f dd3d
00000350: ca2d 36bc ad12 2cbd ec6b 88bc 0af7 45bd
00000360: ed94 543d 7fe9 133e 8c95 043d fae8 fcbd
00000370: 6b8a 073d 928f 083d 4fe2 f93c 1fce e23d
00000380: 355a 9dbd e0fd 19be 3dea e7bc d44c 26be
00000390: 0fa6 e1bc 039a aebd 2806 113b a59b de3d
000003a0: 7ae5 a03c d4b4 ae3d 0c21 02bd ae0c f73c
000003b0: 93ea 65bd 0c1e ac3b e0ea 083c 3763 a33d
000003c0: dde6 2bbb c3f3 9c3d 43e9 b6bd f6bc f13c
000003d0: cd6a 1d3d 8c38 b63d ad4e 9c3d 24cc 4d3d
000003e0: fd88 9b3d e05d a43d ebc6 64bd b57f 0c3d
000003f0: 48c4 5dbd 3981 84bd 108c 4c3d ef19 e73b

network_body._body_endoder.seq_layers.2.bias f4 [128]
0.0 0.0 0.0 0.0 0.0 0.0 0.0 0.0
0.0 0.0 0.0 0.0 0.0 0.0 0.0 0.0
0.0 0.0 0.0 0.0 0.0 0.0 0.0 0.0
0.0 0.0 0.0 0.0 0.0 0.0 0.0 0.0
0.0 0.0 0.0 0.0 0.0 0.0 0.0 0.0
0.0 0.0 0.0 0.0 0.0 0.0 0.0 0.0
0.0 0.0 0.0 0.0 0.0 0.0 0.0 0.0
0.0 0.0 0.0 0.0 0.0 0.0 0.0 0.0
0.0 0.0 0.0 0.0 0.0 0.0 0.0 0.0
0.0 0.0 0.0 0.0 0.0 0.0 0.0 0.0
0.0 0.0 0.0 0.0 0.0 0.0 0.0 0.0
0.0 0.0 0.0 0.0 0.0 0.0 0.0 0.0
0.0 0.0 0.0 0.0 0.0 0.0 0.0 0.0
0.0 0.0 0.0 0.0 0.0 0.0 0.0 0.0
0.0 0.0 0.0 0.0 0.0 0.0 0.0 0.0
0.0 0.0 0.0 0.0 0.0 0.0 0.0 0.0
00000000: 0000 0000 0000 0000 0000 0000 0000 0000
00000010: 0000 0000 0000 0000 0000 0000 0000 0000
00000020: 0000 0000 0000 0000 0000 0000 0000 0000
00000030: 0000 0000 0000 0000 0000 0000 0000 0000
00000040: 0000 0000 0000 0000 0000 0000 0000 0000
00000050: 0000 0000 0000 0000 0000 0000 0000 0000
00000060: 0000 0000 0000 0000 0000 0000 0000 0000
00000070: 0000 0000 0000 0000 0000 0000 0000 0000
00000080: 0000 0000 0000 0000 0000 0000 0000 0000
00000090: 0000 0000 0000 0000 0000 0000 0000 0000
000000a0: 0000 0000 0000 0000 0000 0000 0000 0000
000000b0: 0000 0000 0000 0000 0000 0000 0000 0000
000000c0: 0000 0000 0000 0000 0000 0000 0000 0000
000000d0: 0000 0000 0000 0000 0000 0000 0000 0000
000000e0: 0000 0000 0000 0000 0000 0000 0000 0000
000000f0: 0000 0000 0000 0000 0000 0000 0000 0000
00000100: 0000 0000 0000 0000 0000 0000 0000 0000
00000110: 0000 0000 0000 0000 0000 0000 0000 0000
00000120: 0000 0000 0000 0000 0000 0000 0000 0000
00000130: 0000 0000 0000 0000 0000 0000 0000 0000
00000140: 0000 0000 0000 0000 0000 0000 0000 0000
00000150: 0000 0000 0000 0000 0000 0000 0000 0000
00000160: 0000 0000 0000 0000 0000 0000 0000 0000
00000170: 0000 0000 0000 0000 0000 0000 0000 0000
00000180: 0000 0000 0000 0000 0000 0000 0000 0000
00000190: 0000 0000 0000 0000 0000 0000 0000 0000
000001a0: 0000 0000 0000 0000 0000 0000 0000 0000
000001b0: 0000 0000 0000 0000 0000 0000 0000 0000
000001c0: 0000 0000 0000 0000 0000 0000 0000 0000
000001d0: 0000 0000 0000 0000 0000 0000 0000 0000
000001e0: 0000 0000 0000 0000 0000 0000 0000 0000
000001f0: 0000 0000 0000 0000 0000 0000 0000 0000

action_model._continuous_distribution.log_sigma f4 [1, 2]
0.0 0.0
00000000: 0000 0000 0000 0000

action_model._continuous_distribution.mu.weight f4 [2, 128]
-0.025908757 -0.004259072 0.013698195 -0.013181597 0.013188641 -0.010686364 0.014974504 0.008813558
0.0037467522 0.03033629 0.0012531204 0.03180916 -0.014815371 -0.010818134 0.007445739 -0.03028659
-0.009890335 -0.012555191 0.016266879 -0.0025072952 -0.0076455697 -0.01249776 0.006154101 -0.0013012474
-0.02277117 -0.009150486 0.035413485 -0.006484286 -0.0037830041 -0.010879668 0.005959476 -0.0013438661
-0.007781032 0.006876554 0.00900279 0.008727903 -0.0027799632 -0.00833397 -0.013773205 -0.018750012
0.018577 -0.01438385 -0.002271891 -0.004418097 0.023302794 -0.016515924 -0.0085582845 -0.025768563
-0.028771225 -0.028478513 -0.007880765 0.011347983 -0.014103769 -0.014208487 0.009045745 0.0049951235
0.017575031 -0.0019853848 -0.0014163645 0.016500356 -0.00275634 0.00584114 0.01491347 0.0152653
-0.017181901 0.006267057 0.04040157 -0.009021193 -0.020574855 -0.022486703 -0.008726714 0.0032857123
-0.0054366454 -0.009926976 0.011084645 -0.00037008474 0.015034336 0.015420063 0.00927451 -0.0015508825
-0.019159669 0.041391134 -0.0013249957 -0.0058189635 0.018079614 -0.013985339 -0.04062277 0.0036206
0.029836113 0.0032645941 0.0034071747 0.006181299 -0.03297406 0.024514748 -0.027607916 -0.0026222405
0.0055041513 -0.0312742 0.02130322 -0.016667297 -0.0025776292 -0.010971159 0.008561387 0.007950878
-0.004800319 0.0016666122 -0.0007331617 -0.0066846306 -0.028675795 0.0024407064 0.0029851429 0.011698275
-0.00036830234 0.0031385769 -0.0070739845 -0.020327901 -0.0030565679 -0.004616035 0.009927648 0.031161292
-0.004307698 0.019152477 0.021973396 -0.0104928175 0.0072271274 0.01608276 -0.0036217875 -0.0055091986
0.005655052 -0.022990614 -0.016992195 0.03666822 0.013588265 0.04092651 0.015879987 -0.01649644
-0.0009088775 0.0011056704 0.01755075 -0.0018713123 -0.0037708823 -0.03561412 -0.011624851 -0.0032540974
0.036757436 -0.0055743684 -0.02837128 0.019469235 0.017636364 0.022862982 -0.00815134 -0.0029132576
0.007397047 -0.017748324 -0.0294579 -0.012497863 0.0051981504 -0.0030988755 -0.022273885 -0.018743036
0.003300522 0.030333161 0.0130419405 -0.009466468 -0.0078349 -0.0022018626 0.02509819 0.02626814
-0.00085871853 -0.024623103 -0.011227597 -0.014186104 0.021738704 -0.02067766 -0.024968801 0.0009858726
-0.0032392424 0.023642827 -0.013507227 0.013551652 -0.019786878 0.0070910538 0.0074841264 -0.0248299
-0.06060785 0.00041518352 -0.0126357125 -0.0010088709 0.0044005346 0.010181296 0.011713098 -0.006680841
0.008172114 -0.02253514 0.005886221 -0.0021678086 0.018653557 0.011261093 -0.015172051 0.0035581775
-0.031885516 -0.016747465 0.022065615 -0.011320066 -0.012945145 -0.0040321737 0.010972673 0.01833166
0.033464145 0.001332536 -0.0065151043 -0.011372664 0.031319354 0.004438685 -0.018131385 -0.027879229
-0.003573481 -0.0019832202 0.010255216 -0.0044273986 -0.0067225336 0.04036925 -0.011504775 -0.009638876
-0.027838899 -0.016882641 -0.020347364 0.020672312 -0.03121123 0.036012743 -0.009685795 -0.00156499
-0.0055367723 0.011918217 0.010612058 -0.0027435485 0.034310773 -0.004254166 -0.0012086184 0.028313
0.010267143 -0.019413559 0.018682817 0.027032573 -0.02993749 0.037589896 0.027415097 0.010279439
0.029024968 -0.0008796394 0.008611213 0.00090884644 0.009445372 -0.01704557 -0.01562126 0.008552409
00000000: 9a3e d4bc af8f 8bbb 656e 603c a0f7 57bc
00000010: 2b15 583c dc15 2fbc 9f57 753c be66 103c
00000020: 128c 753b d083 f83c be3f a43a 524a 023d
00000030: 2bbc 72bc 8b3e 31bc 63fb f33b 951b f8bc
00000040: 120b 22bc 4ab4 4dbc 1e42 853c 6f51 24bb
00000050: b087 fabb 68c3 4cbc 57a8 c93b 9e8e aaba
00000060: 9b8a babc eceb 15bc bb0d 113d 227a d4bb
00000070: 47ec 77bb a340 32bc b547 c33b aa24 b0ba
00000080: 07f8 febb b754 e13b 7080 133c 7aff 0e3c
00000090: 0b30 36bb 348b 08bc 02a9 61bc a099 99bc
000000a0: cb2e 983c 3daa 6bbc 02e4 14bb afc5 90bb
000000b0: 80e5 be3c 674c 87bc 0c38 0cbc 9818 d3bc
000000c0: a2b1 ebbc c54b e9bc 531e 01bc e4ec 393c
000000d0: 7f13 67bc b7ca 68bc 9b34 143c 22ae a33b
000000e0: 83f9 8f3c 3b1d 02bb 4ea5 b9ba c12b 873c
000000f0: b6a3 34bb 0967 bf3b a057 743c 4f1b 7a3c
00000100: 0fc1 8cbc e25b cd3b 1e7c 253d a0cd 13bc
00000110: 998c a8bc 0936 b8bc 7efa 0ebc 1b55 573b
00000120: e325 b2bb c1a4 22bc 5f9c 353c ef07 c2b9
00000130: 9352 763c 6fa4 7c3c 1df4 173c fb46 cbba
00000140: bdf4 9cbc c089 293d 7aab adba 01ad bebb
00000150: b31b 943c c322 65bc 1064 26bd 9747 6d3b
00000160: dd6a f43c cdf2 553b e84a 5f3b 7f8c ca3b
00000170: cf0f 07bd 27d3 c83c ff29 e2bc e5d9 2bbb
00000180: 2b5c b43b 6019 00bd 1784 ae3c db89 88bc
00000190: 71ed 28bb 60c0 33bc 0f45 0c3c 6644 023c
000001a0: ff4b 9dbb 3a72 da3a a631 40ba bf0a dbbb
000001b0: 80e9 eabc 42f4 1f3b 63a2 433b 1faa 3f3c
000001c0: b418 c1b9 95b0 4d3b e2cc e7bb b386 a6bc
000001d0: b350 48bb 1c42 97bb 93a7 223c f745 ff3c
000001e0: 9727 8dbb a8e5 9c3c 8d01 b43c 11ea 2bbc
000001f0: 8ad1 ec3b febf 833c 835b 6dbb 8286 b4bb
00000200: 044e b93b d056 bcbc 3733 8bbc 6a31 163d
00000210: 50a1 5e3c 8ea2 273d bf16 823c 8b23 87bc
00000220: bd41 6eba 24ec 903a 97c6 8f3c d246 f5ba
00000230: e820 77bb 1de0 11bd 2976 3ebc b242 55bb
00000240: f78e 163d 31a9 b6bb e36a e8bc f27d 9f3c
00000250: 237a 903c 264b bb3c 338d 05bc 5aec 3ebb
00000260: ed62 f23b ef64 91bc b251 f1bc d6c3 4cbc
00000270: 3f55 aa3b 8116 4bbb b977 b6bc ff8a 99bc
00000280: 924d 583b 407d f83c ddad 553c 3f19 1bbc
00000290: f45d 00bc 204d 10bb b89a cd3c 4830 d73c
000002a0: a01b 61ba 64b6 c9bc f4f3 37bc d56c 68bc
000002b0: 5e15 b23c 3264 a9bc 5f8b ccbc 6538 813a
000002c0: 7849 54bb 9aae c13c 6b4d 5dbc c007 5e3c
000002d0: 1718 a2bc 125c e83b 673d f53b 1368 cbbc
000002e0: f03f 78bd fdac d939 0506 4fbc 173c 84ba
000002f0: 5c32 903b 73cf 263c 4be8 3f3c f5ea dabb
00000300: 55e4 053c 9d9b b8bc 33e1 c03b cb11 0ebb
00000310: 58cf 983c 7380 383c 3294 78bc 5030 693b
00000320: 639a 02bd fb31 89bc f3c2 b43c cc77 39bc
00000330: e017 54bc 5320 84bb bac6 333c 472c 963c
00000340: b311 093d 7da8 ae3a a87c d5bb 6954 3abc
00000350: b948 003d 6372 913b 4588 94bc fb62 e4bc
00000360: 1031 6abb eaf8 01bb 7e05 283c b613 91bb
00000370: b348 dcbb 3a5a 253d 867e 3cbc 60ec 1dbc
00000380: 670e e4bc 774d 8abc 84af a6bc fb58 a93c
00000390: b2ae ffbc 1982 133d 2bb1 1ebc 5a20 cdba
000003a0: d06d b5bb a044 433c 33de 2d3c 1bcd 33bb
000003b0: 7489 0c3d 8866 8bbb 816a 9eba aaf0 e73c
000003c0: 8537 283c 2f09 9fbc b50c 993c 6a73 dd3c
000003d0: 783f f5bc ddf7 193d a095 e03c 186b 283c
000003e0: c5c5 ed3c 9a97 66ba 0c16 0d3c a73f 6e3a
000003f0: c3c0 1a3c 27a3 8bbc 50f0 7fbc 671f 0c3c

action_model._continuous_distribution.mu.bias f4 [2]
0.0 0.0
00000000: 0000 0000 0000 0000

action_model._discrete_distribution.branches.0.weight f4 [1, 128]
-0.00024739277 -0.009528178 0.009575641 -0.0003998784 0.0013922298 0.0026653435 -0.0029453447 -0.009468143
-2.2788756e-05 -0.003494914 -0.0024769416 0.0022913085 -0.0040560924 -0.0037247117 -0.008838949 0.0011771129
0.01170692 -0.007773328 0.0024474366 -0.008162516 0.0031467658 -0.0035554997 0.0063418555 0.009449453
0.0035192873 -0.00085282506 0.0012352269 0.0050287293 0.017546767 -0.0076539214 -0.016509114 0.001589306
-0.00058096147 0.00038306968 0.002235846 0.01890528 -0.0024870934 -0.012282093 0.010268122 -0.009305902
-0.010671451 -0.005626041 0.0030878808 0.0020415992 -0.005775453 -0.0054451553 -0.007393744 0.009388123
0.007815863 -0.00016767372 -0.010913083 0.0036318903 0.011222359 -0.0046275803 0.0005984451 -0.0026550915
-0.0005130903 -0.0018322803 -0.015283893 0.012776016 -0.014485982 0.011393916 0.005900053 -0.0022546574
-0.01818849 -0.008534777 -0.007032712 -0.0047201263 0.014362994 0.0040102815 0.0025739684 -0.0070863604
-0.012795821 -0.005663345 0.005850012 0.00090952934 -0.003462632 0.014539656 0.00730947 0.003405905
-0.018595828 -0.0022025479 0.009343485 -0.011136286 0.010269464 -0.0044561117 -0.006067518 -0.008252716
-0.009851133 -0.004972905 -0.00033371925 0.005205599 -0.0010065063 -0.013683061 0.006446959 -0.012046981
-0.018604727 -0.026971936 0.0010014903 -0.0018924524 0.005931946 -0.016938113 0.005927772 -0.011138162
0.007512922 0.001643675 0.010059907 -0.000724542 -0.0027858724 -0.018756134 0.0106595615 0.0013895354
-0.0049812826 -0.0026334205 0.009632514 0.005814392 0.005225317 0.008505097 -0.0012096877 0.014436895
0.0041797524 -0.008622872 -0.021340901 0.008135623 0.0138203055 0.009901595 0.0015246505 0.007983452
00000000: 7fb4 81b9 131c 1cbc 26e3 1c3c c5a6 d1b9
00000010: 7b7b b63a 0bad 2e3b af06 41bb 4520 1bbc
00000020: 7b2a bfb7 ed0a 65bb 2f54 22bb c729 163b
00000030: f8e8 84bb 4b1a 74bb 3dd1 10bc 5b49 9a3a
00000040: 62ce 3f3c 67b7 febb 2c65 203b 13bc 05bc
00000050: f839 4e3b 6303 69bb 57cf cf3b e1d1 1a3c
00000060: d8a3 663b 1f90 5fba 56e7 a13a 0ac8 a43b
00000070: 3dbe 8f3c bfcd fabb 1f3e 87bc 4350 d03a
00000080: aa4b 18ba bed6 c839 4587 123b 3fdf 9a3c
00000090: 81fe 22bb d53a 49bc a03b 283c c877 18bc
000000a0: 4fd7 2ebc a75a b8bb 0b5e 4a3b 5acc 053b
000000b0: 0340 bdbb 466d b2bb 3847 f2bb a4d0 193c
000000c0: 1b0e 003c 92d1 2fb9 cacc 32bc 0205 6e3b
000000d0: fcdd 373c f5a2 97bb f9e0 1c3a 0b01 2ebb
000000e0: e880 06ba 2029 f0ba 4b69 7abc 7f52 513c
000000f0: 9d56 6dbc 8cad 3a3c 3b55 c13b e0c2 13bb
00000100: 0700 95bc 73d5 0bbc aa72 e6bb 4aab 9abb
00000110: c352 6b3c ae68 833b 06b0 283b b334 e8bb
00000120: 90a5 51bc 9593 b9bb 75b1 bf3b 7b6d 6e3a
00000130: 53ed 62bb bd37 6e3c 4784 ef3b 9b35 5f3b
00000140: 4756 98bc 9f58 10bb 6b15 193c f874 36bc
00000150: 4141 283c 9304 92bb 08d2 c6bb 6636 07bc
00000160: a666 21bc c0f3 a2bb 0af7 aeb9 bb93 aa3b
00000170: bfec 83ba eb2e 60bc 0341 d33b b360 45bc
00000180: f168 98bc 40f4 dcbc 7044 833a 2a0c f8ba
00000190: c560 c23b ccc1 8abc c13d c23b d67c 36bc
000001a0: f52e f63b 9570 d73a 4fd2 243c 31ef 3dba
000001b0: 2f93 36bb 77a6 99bc 71a5 2e3c 1221 b63a
000001c0: 073a a3bb 7795 2cbb b1d1 1d3c a886 be3b
000001d0: 2339 ab3b f658 0b3c 628e 9eba ba88 6c3c
000001e0: 4ef6 883b f246 0dbc 1dd3 aebc 474b 053c
000001f0: 906e 623c 4d3a 223c c8d6 c73a 06cd 023c

network_body._body_endoder.seq_layers.0.weight f4 [128, 186]
-0.082818545 -0.0047445777 -0.08287145 0.030155549 0.004103754 -0.045271166 -0.14171329 -0.080547065
-0.0042715785 -0.10807667 0.08437995 0.07743437 -0.02116691 0.10933328 0.018584015 -0.048259057
0.0025061336 -0.03798548 0.10864401 -0.03843087 -0.06443659 -0.039151832 -0.07852212 -0.0069302144
-0.04404972 -0.16517858 0.14253856 0.06297797 -0.06684459 0.04703021 0.080190726 0.03578658
-0.033078916 0.026516866 -0.045687173 0.008466987 -0.00024265956 -0.0741763 0.026796687 0.07603427
-0.1654233 0.104787275 0.10342417 -0.02075436 -0.1521212 -0.007844324 0.19169672 0.07971879
-0.014108456 -0.0376931 -0.06733531 -0.08547893 -0.013025675 -0.12191332 0.013477213 -0.042304248
-0.047007278 -0.040299952 0.009929532 0.042753156 -0.001830767 -0.14957862 -0.061861224 -0.069432974
-0.012396694 0.09204465 0.052981403 -0.043581523 0.01321045 0.02420278 -0.102496415 -0.028112538
-0.0020860631 -0.035506513 0.019796025 0.11377295 0.018316679 0.073300645 0.090750314 0.10711986
0.002922184 0.194496 -0.0075043663 0.042561244 0.007266049 0.035853487 -0.029112276 -0.02822002
-0.084644504 -0.052676246 -0.14627695 0.013752598 -0.025111059 0.023806782 0.093302526 0.112057276
-0.025177712 0.11570922 0.0917452 -0.0046201264 -0.07216784 0.017151216 0.022282826 0.087410346
0.08095313 -0.07243676 0.03970316 -0.024640262 -0.04629116 0.060609378 -0.0114837065 -0.0047217603
-0.09435435 0.032890506 0.040683232 0.051378455 0.07405139 0.003581247 0.059699837 -0.09573633
0.02095701 0.18262649 0.05807447 -0.05289649 0.04566439 0.006966022 -0.025730236 -0.0036901862
-0.017001774 -0.068845265 -0.023086205 -0.036100723 -0.04835269 -0.06722219 -0.049285967 -0.050916836
-0.036736924 -0.08987695 0.07546788 -0.061488546 0.0077056484 -0.010588294 0.014181926 -0.05454593
-0.1458241 -0.067162514 0.06409739 0.0292455 -0.023028493 -0.05759225 -0.01809767 -0.054649893
-0.0062165917 -0.030645272 -0.19885662 -0.059933763 0.056269206 0.102072924 -0.04549584 -0.07852046
-0.094549246 -0.0045848764 -0.00047093185 0.017162094 0.00866169 0.121861376 0.09032903 0.10853029
-0.04882999 -0.041225653 0.09676855 0.19915847 0.13652563 0.050758757 -0.079811156 0.033416294
0.12339194 -0.00215864 0.21612789 -0.042406984 0.042887844 -0.038707316 -0.07841736 -0.13082539
0.026276259 -0.115015395 -0.025808996 -0.014586808 0.003136039 -0.031904 -0.067970626 -0.03909001
-0.16640791 -0.19014691 0.039554525 -0.082498826 0.082351714 -0.06821676 0.02332725 0.05324841
-0.014584703 0.1882584 -0.10692996 -0.056320343 -0.041143 -0.009458569 0.036533203 0.07428135
0.14866734 0.026319033 -0.08497295 0.044037268 -0.08244339 -0.0012936222 -0.03424927 0.02436974
-0.12138092 0.04600971 -0.08006158 -0.08689855 0.028489105 0.027855588 0.070294514 -0.020264138
0.0077156564 -0.0084362915 -0.06417565 -0.008439207 0.07145276 -0.08562313 0.030272918 0.075782456
-0.08722191 -0.050130107 -0.053213634 0.047463458 -0.014730724 -0.0916948 0.14470203 -0.0070542386
0.116172716 0.04086402 -0.23843685 0.13804764 -0.04131277 -0.07142801 0.06787315 -0.044134356
-0.05592969 -0.14496794 -0.009090367 -0.06909662 0.034459125 0.025272649 0.06578149 -0.052078288
00000000: c59c a9bd 6778 9bbb 82b8 a9bd c508 f73c
00000010: c978 863b 426e 39bd 4a1d 11be dcf5 a4bd
00000020: 99f8 8bbb 4d57 ddbd 65cf ac3d e995 9e3d
00000030: 3a66 adbc 20ea df3d 813d 983c 4aab 45bd
00000040: f23d 243b aa96 1bbd c080 de3d b069 1dbd
00000050: 55f7 83bd ac5d 20bd 35d0 a0bd da16 e3bb
00000060: 7b6d 34bd 9324 29be a1f5 113e 98fa 803d
00000070: d1e5 88bd c0a2 403d 093b a43d f394 123d
00000080: c27d 07bd e639 d93c 7922 3bbd 1eb9 0a3c
00000090: 6e72 7eb9 bee9 97bd ba84 db3c dbb7 9b3d
000000a0: ba64 29be b69a d63d 0dd0 d33d 0c05 aabc
000000b0: a9c5 1bbe 7b85 00bc 254c 443e 9b43 a33d
000000c0: 2727 67bc 1464 1abd 18e7 89bd 940f afbd
000000d0: a469 55bc b1ad f9bd 87cf 5c3c 3847 2dbd
000000e0: b48a 40bd 9011 25bd 7aaf 223c ef1d 2f3d
000000f0: 59f6 efba 232b 19be 3262 7dbd e032 8ebd
00000100: 811b 4bbc e881 bc3d 0703 593d 8a82 32bd
00000110: a570 583c e944 c63c a4e9 d1bd 444c e6bc
00000120: 55b6 08bb 476f 11bd 462b a23c cb01 e93d
00000130: dc0c 963c a61e 963d 4ddb b93d a861 db3d
00000140: 1d82 3f3b f629 473e 30e7 f5bb b354 2e3d
00000150: 0918 ee3b 1bdb 123d de7c eebc ac2d e7bc
00000160: 195a adbd 0cc3 57bd a0c9 15be 9452 613c
00000170: b5b5 cdbc 7106 c33c 6515 bf3d 497e e53d
00000180: 7d41 cebc f5f8 ec3d e8e4 bb3d 6e64 97bb
00000190: bccc 93bd b580 8c3c 798a b63c 3204 b33d
000001a0: c1ca a53d b959 94bd c89f 223d 60da c9bc
000001b0: cd9b 3dbd 8a41 783d 2826 3cbc ffb8 9abb
000001c0: da3c c1bd 32b8 063d 76a3 263d 3772 523d
000001d0: 41a8 973d 5bb3 6a3b d187 743d 6911 c4bd
000001e0: 09ae ab3c 7002 3b3e 7fdf 6d3d fda9 58bd
000001f0: 950a 3b3d 3a43 e43b 37c8 d2bc 0dd7 71bb
00000200: 4e47 8bbc bffe 8cbd 481f bdbc 5ade 13bd
00000210: 780d 46bd caab 89bd 15e0 49bd 2c8e 50bd
00000220: 7579 16bd 6811 b8bd e78e 9a3d 6adb 7bbd
00000230: aa7f fc3b 867a 2dbc 4f5b 683c 8e6b 5fbd
00000240: ea52 15be 808c 89bd 7e45 833d 4294 ef3c
00000250: 40a6 bcbc dae5 6bbd 9141 94bc 91d8 5fbd
00000260: 8db4 cbbb cb0b fbbc 12a1 4bbe 1b7d 75bd
00000270: 8a7a 663d 9c0b d13d d959 3abd 56cf a0bd
00000280: 09a3 c1bd bb3c 96bb 67e7 f6b9 8597 8c3c
00000290: c3e9 0d3c 7592 f93d 6dfe b83d 2145 de3d
000002a0: f501 48bd 3bdc 28bd 972e c63d 33f0 4b3e
000002b0: 60cd 0b3e 6ae8 4f3d 0874 a3bd 86df 083d
000002c0: eab4 fc3d f877 0dbb a150 5d3e f2b2 2dbd
000002d0: 2aab 2f3d 908b 1ebd 4899 a0bd 17f7 05be
000002e0: 4f41 d73c 318d ebbd 636d d3bc 82fd 6ebc
000002f0: 0186 4d3b c5ad 02bd 2f34 8bbd d91c 20bd
00000300: d666 2abe dfb5 42be ed03 223d 25f5 a8bd
00000310: 04a8 a83d 3bb5 8bbd ca18 bf3c 011b 5a3d
00000320: aef4 6ebc cfc6 403e 18fe dabd 29b0 66bd
00000330: 9085 28bd 1df8 1abc d7a3 153d d220 983d
00000340: 403c 183e 039b d73c 4c06 aebd 6c60 343d
00000350: 14d8 a8bd c28e a9ba f648 0cbd 0da3 c73c
00000360: 8f96 f8bd ad74 3c3d 53f7 a3bd def7 b1bd
00000370: fc61 e93c 6731 e43c 92f6 8f3d fa00 a6bc
00000380: 9ed3 fc3b 5f38 0abc 866e 83bd 9a44 0abc
00000390: d355 923d 2e5b afbd e9fe f73c d533 9b3d
000003a0: 67a1 b2bd 3a55 4dbd 8af6 59bd 0b69 423d
000003b0: 2259 71bc 7cca bbbd c52c 143e 3e27 e7bb
000003c0: f6eb ed3d 0861 273d ca28 74be 5c5c 0d3e
000003d0: 9437 29bd d948 92bd 1401 8b3d 3ac6 34bd
000003e0: 8816 65bd 7a72 14be c3ef 14bc 8782 8dbd
000003f0: 0325 0d3d 9608 cf3c 72b8 863d 0b50 55bd

network_body._body_endoder.seq_layers.0.bias f4 [128]
0.0 0.0 0.0 0.0 0.0 0.0 0.0 0.0
0.0 0.0 0.0 0.0 0.0 0.0 0.0 0.0
0.0 0.0 0.0 0.0 0.0 0.0 0.0 0.0
0.0 0.0 0.0 0.0 0.0 0.0 0.0 0.0
0.0 0.0 0.0 0.0 0.0 0.0 0.0 0.0
0.0 0.0 0.0 0.0 0.0 0.0 0.0 0.0
0.0 0.0 0.0 0.0 0.0 0.0 0.0 0.0
0.0 0.0 0.0 0.0 0.0 0.0 0.0 0.0
0.0 0.0 0.0 0.0 0.0 0.0 0.0 0.0
0.0 0.0 0.0 0.0 0.0 0.0 0.0 0.0
0.0 0.0 0.0 0.0 0.0 0.0 0.0 0.0
0.0 0.0 0.0 0.0 0.0 0.0 0.0 0.0
0.0 0.0 0.0 0.0 0.0 0.0 0.0 0.0
0.0 0.0 0.0 0.0 0.0 0.0 0.0 0.0
0.0 0.0 0.0 0.0 0.0 0.0 0.0 0.0
0.0 0.0 0.0 0.0 0.0 0.0 0.0 0.0
00000000: 0000 0000 0000 0000 0000 0000 0000 0000
00000010: 0000 0000 0000 0000 0000 0000 0000 0000
00000020: 0000 0000 0000 0000 0000 0000 0000 0000
00000030: 0000 0000 0000 0000 0000 0000 0000 0000
00000040: 0000 0000 0000 0000 0000 0000 0000 0000
00000050: 0000 0000 0000 0000 0000 0000 0000 0000
00000060: 0000 0000 0000 0000 0000 0000 0000 0000
00000070: 0000 0000 0000 0000 0000 0000 0000 0000
00000080: 0000 0000 0000 0000 0000 0000 0000 0000
00000090: 0000 0000 0000 0000 0000 0000 0000 0000
000000a0: 0000 0000 0000 0000 0000 0000 0000 0000
000000b0: 0000 0000 0000 0000 0000 0000 0000 0000
000000c0: 0000 0000 0000 0000 0000 0000 0000 0000
000000d0: 0000 0000 0000 0000 0000 0000 0000 0000
000000e0: 0000 0000 0000 0000 0000 0000 0000 0000
000000f0: 0000 0000 0000 0000 0000 0000 0000 0000
00000100: 0000 0000 0000 0000 0000 0000 0000 0000
00000110: 0000 0000 0000 0000 0000 0000 0000 0000
00000120: 0000 0000 0000 0000 0000 0000 0000 0000
00000130: 0000 0000 0000 0000 0000 0000 0000 0000
00000140: 0000 0000 0000 0000 0000 0000 0000 0000
00000150: 0000 0000 0000 0000 0000 0000 0000 0000
00000160: 0000 0000 0000 0000 0000 0000 0000 0000
00000170: 0000 0000 0000 0000 0000 0000 0000 0000
00000180: 0000 0000 0000 0000 0000 0000 0000 0000
00000190: 0000 0000 0000 0000 0000 0000 0000 0000
000001a0: 0000 0000 0000 0000 0000 0000 0000 0000
000001b0: 0000 0000 0000 0000 0000 0000 0000 0000
000001c0: 0000 0000 0000 0000 0000 0000 0000 0000
000001d0: 0000 0000 0000 0000 0000 0000 0000 0000
000001e0: 0000 0000 0000 0000 0000 0000 0000 0000
000001f0: 0000 0000 0000 0000 0000 0000 0000 0000

network_body._body_endoder.seq_layers.2.weight f4 [128, 128]
-0.05072336 -0.013941768 -0.07447624 -0.0027998441 -0.01754273 -0.008525818 -0.041007824 0.079499856
-0.008394496 -0.018562937 0.06330979 0.033703215 0.068255246 0.060013823 0.13232557 -0.011058295
-0.012083436 0.0027722362 0.12089108 -0.05670364 -0.07264291 0.021162856 0.016716568 0.13510384
-0.03936308 0.05627243 -0.01252021 -0.068641864 -0.02995229 0.06544045 -0.043516275 0.023881653
-0.09508573 0.013461814 -0.0037492637 0.11444981 -0.15109989 -0.068174 0.018645328 0.00973332
0.041386236 0.00917366 0.018829007 0.11466302 0.12076303 -0.03993938 0.23349608 0.052115683
0.06414231 0.08777947 0.069127984 0.022828843 0.2547547 -0.012829259 0.00073049887 0.06398237
0.0031517525 -0.11546646 0.09266118 -0.03404652 0.099878654 0.079024784 0.07050933 -0.14262168
0.03915173 -0.02793575 -0.028776692 0.08403182 -0.03440862 0.043280024 0.10781245 0.050515432
0.0626422 0.039479848 0.023820566 0.09952726 -0.04433436 -0.035560947 -0.010569684 -0.12912413
-0.0010993569 0.06971937 -0.005303303 0.042454727 0.029387709 0.04769388 -0.16284221 -0.19784857
0.00805711 0.04885455 -0.0023461478 -0.16836746 -0.01673906 -0.15925522 0.15943556 -0.06366151
-0.13804801 0.031685587 -0.077684134 -0.040449947 0.02929189 0.13994007 0.008992615 0.038200147
0.0025464143 0.028406825 0.11664524 -0.006940451 -0.014227028 0.060264662 -0.031285208 0.12596348
-0.021868668 0.07927511 -0.028204795 0.052832216 0.06744782 -0.03209999 -0.018283531 0.05169397
0.015906427 -0.029186875 0.019405799 0.04547615 0.048064064 0.027677057 -0.17961572 -0.0329518
0.08389232 0.10552066 -0.015679587 -0.10000509 -0.020990025 0.019937634 0.025749374 0.192444
0.09952858 -0.13033801 -0.13964875 0.036134765 -0.01857814 -0.01530177 -0.008409487 -0.033075802
-0.038710054 0.18158576 0.06844872 -0.14270301 0.05731465 -0.10574209 0.04350991 -0.057347704
-0.07904006 -0.043085035 0.08786837 0.14812234 -0.092075795 0.061943095 -0.0031221835 -0.11155877
0.0037133782 -0.12955593 -0.015790254 0.03530882 0.00010309126 0.0030082185 -0.04501952 -0.06268044
-0.1683602 -0.13122575 0.0084317615 -0.105761744 -0.118902825 0.17362721 -0.020461816 0.0046497406
-0.10394768 -0.09219719 -0.021999724 0.15801762 0.10210946 0.08971295 -0.073670775 -0.18849497
-0.13015856 0.058354117 0.04747273 0.0062183724 0.17952204 0.055441365 -0.027778871 -0.1404323
0.07511068 0.0985479 0.13256712 -0.16307038 0.14502811 0.16445279 0.12966867 0.025035074
-0.23886153 0.045189496 -0.05913355 0.050032303 0.06929117 0.05294996 -0.013782377 -0.054783747
-0.10328732 0.011983677 -0.037237108 -0.019062953 0.0966455 0.009970284 0.15244588 0.005756154
0.06413863 -0.008608195 -0.036746457 0.0054678395 -0.019555777 0.07277522 -0.21114671 -0.122167155
-0.06382617 0.039141305 0.030340146 -0.00988301 0.037018985 -0.17274827 0.036336068 0.029508092
0.19561766 -0.23480882 0.005915991 0.04751622 0.05973177 -0.01839293 -0.0077104485 -0.01186592
-0.07396124 -0.11119547 0.085334465 0.04752749 0.047434617 -0.026554503 -0.034833986 -0.07043225
-0.14729598 -0.019172007 -0.012805893 0.03424575 -0.0017868592 -0.049567707 -0.009990012 0.06192732
00000000: 4cc3 4fbd 036c 64bc 0087 98bd 977d 37bb
00000010: c5b5 8fbc dfaf 0bbc d2f7 27bd d2d0 a23d
00000020: 1189 09bc 4d11 98bc 90a8 813d 620c 0a3d
00000030: 68c9 8b3d 0ed1 753d 5b80 073e da2d 35bc
00000040: 9bf9 45bc 68ae 353b be95 f73d 1342 68bd
00000050: cec5 94bd ba5d ad3c 2ff1 883c a958 0a3e
00000060: 2e3b 21bd eb7d 663d 9121 4dbc 1b94 8cbd
00000070: 815e f5bc a505 863d 1f3e 32bd 75a3 c33c
00000080: 4fbc c2bd f18e 5c3c 35b6 75bb a964 ea3d
00000090: eeb9 1abe cf9e 8bbd 16be 983c 8178 1f3c
000000a0: 9d84 293d 1e4d 163c 4a3f 9a3c 72d4 ea3d
000000b0: 9c52 f73d 7a97 23bd 9919 6f3e 4177 553d
000000c0: 0b5d 833d b9c5 b33d f992 8d3d 8e03 bb3c
000000d0: 356f 823e d031 52bc f37e 3f3a 3009 833d
000000e0: a28d 4e3b ae79 ecbd 25c5 bd3d 5d74 0bbd
000000f0: 2e8d cc3d bfd7 a13d 3267 903d 6b0b 12be
00000100: 905d 203d 84d9 e4bc 19bd ebbc e018 ac3d
00000110: 0ef0 0cbd 6546 313d c6cc dc3d 45e9 4e3d
00000120: 8e4a 803d 9fb5 213d 5923 c33c f3d4 cb3d
00000130: f297 35bd 5ba8 11bd 782c 2dbc 1e39 04be
00000140: 4c18 90ba 07c9 8e3d 54c7 adbb 02e5 2d3d
00000150: 7ebe f03c a85a 433d 1cc0 26be d198 4abe
00000160: f801 043c b51b 483d d4c1 19bb 8568 2cbe
00000170: 5a20 89bc cd13 23be 1343 233e f760 82bd
00000180: 755c 0dbe bfc8 013d dc18 9fbd d8ae 25bd
00000190: 8cf5 ef3c 734c 0f3e c355 133c c277 1c3d
000001a0: bee1 263b 6eb5 e83c b3e3 ee3d b96c e3bb
000001b0: 7b18 69bc 14d8 763d eb24 00bd 92fc 003e
000001c0: ec25 b3bc fd5a a23d be0d e7bc 9866 583d
000001d0: 1522 8a3d 477b 03bd 58c7 95bc 0ebd 533d
000001e0: 324e 823c 5019 efbc e9f8 9e3c 3345 3a3d
000001f0: d3de 443d ffba e23c 2fed 37be 77f8 06bd
00000200: bdcf ab3d 371b d83d 7a72 80bc 78cf ccbd
00000210: 46f3 abbc 4054 a33c 5af0 d23c 0a10 453e
00000220: a4d5 cb3d 5477 05be 1500 0fbe 0c02 143d
00000230: 2f31 98bc 46b4 7abc f2c7 09bc 7e7a 07bd
00000240: 6f8e 1ebd 9ef1 393e d82e 8c3d bd20 12be
00000250: c4c2 6a3d 4f8f d8bd 7337 323d 6de5 6abd
00000260: c1df a1bd ef79 30bd 55f4 b33d 62ad 173e
00000270: 3c92 bcbd 0bb8 7d3d 8c9d 4cbb ed78 e4bd
00000280: 265c 733b 4faa 04be 905a 81bc fb9f 103d
00000290: b332 d838 8825 453b 6366 38bd 9a5e 80bd
000002a0: 9e66 2cbe 0b60 06be 5f25 0a3c 9d99 d8bd
000002b0: 5383 f3bd 55cb 313e 8a9f a7bc da5c 983b
000002c0: 85e2 d4bd e1d1 bcbd c438 b4bc 5fcf 213e
000002d0: c41e d13d 6cbb b73d b4e0 96bd d304 41be
000002e0: 4948 05be ba04 6f3d c472 423d 7dc3 cb3b
000002f0: a0d4 373e 7c16 633d 8490 e3bc 7ccd 0fbe
00000300: a1d3 993d 7bd3 c93d adbf 073e ecfb 26be
00000310: 4082 143e 5066 283e ddc7 043e 5b16 cd3c
00000320: 1e98 74be 9f18 393d 0536 72bd acee 4c3d
00000330: 87e8 8d3d 0fe2 583d 7bcf 61bc ec64 60bd
00000340: 4d88 d3bd 2f57 443c f085 18bd e929 9cbc
00000350: 13ee c53d 675a 233c c61a 1c3e 1f9e bc3b
00000360: 1d5b 833d 6309 0dbc 7483 16bd 902b b33b
00000370: 7033 a0bc 2d0b 953d d836 58be c632 fabd
00000380: 4cb7 82bd a252 203d e68b f83c 59ec 21bc
00000390: 38a1 173d ece4 30be 21d5 143d f4ba f13c
000003a0: ff4f 483e b971 70be eeda c13b 5ea0 423d
000003b0: 4da9 743d c5ac 96bc eea7 fcbb 4769 42bc
000003c0: fe78 97bd 73ba e3bd d6c3 ae3d 2fac 423d
000003d0: cd4a 423d d488 d9bc 15ae 0ebd c93e 90bd
000003e0: c2d4 16be 9d0e 9dbc cfcf 51bc 4645 0c3d
000003f0: 0c35 eaba 8207 4bbd 26ad 23bc 80a7 7d3d

network_body._body_endoder.seq_layers.2.bias f4 [128]
0.0 0.0 0.0 0.0 0.0 0.0 0.0 0.0
0.0 0.0 0.0 0.0 0.0 0.0 0.0 0.0
0.0 0.0 0.0 0.0 0.0 0.0 0.0 0.0
0.0 0.0 0.0 0.0 0.0 0.0 0.0 0.0
0.0 0.0 0.0 0.0 0.0 0.0 0.0 0.0
0.0 0.0 0.0 0.0 0.0 0.0 0.0 0.0
0.0 0.0 0.0 0.0 0.0 0.0 0.0 0.0
0.0 0.0 0.0 0.0 0.0 0.0 0.0 0.0
0.0 0.0 0.0 0.0 0.0 0.0 0.0 0.0
0.0 0.0 0.0 0.0 0.0 0.0 0.0 0.0
0.0 0.0 0.0 0.0 0.0 0.0 0.0 0.0
0.0 0.0 0.0 0.0 0.0 0.0 0.0 0.0
0.0 0.0 0.0 0.0 0.0 0.0 0.0 0.0
0.0 0.0 0.0 0.0 0.0 0.0 0.0 0.0
0.0 0.0 0.0 0.0 0.0 0.0 0.0 0.0
0.0 0.0 0.0 0.0 0.0 0.0 0.0 0.0
00000000: 0000 0000 0000 0000 0000 0000 0000 0000
00000010: 0000 0000 0000 0000 0000 0000 0000 0000
00000020: 0000 0000 0000 0000 0000 0000 0000 0000
00000030: 0000 0000 0000 0000 0000 0000 0000 0000
00000040: 0000 0000 0000 0000 0000 0000 0000 0000
00000050: 0000 0000 0000 0000 0000 0000 0000 0000
00000060: 0000 0000 0000 0000 0000 0000 0000 0000
00000070: 0000 0000 0000 0000 0000 0000 0000 0000
00000080: 0000 0000 0000 0000 0000 0000 0000 0000
00000090: 0000 0000 0000 0000 0000 0000 0000 0000
000000a0: 0000 0000 0000 0000 0000 0000 0000 0000
000000b0: 0000 0000 0000 0000 0000 0000 0000 0000
000000c0: 0000 0000 0000 0000 0000 0000 0000 0000
000000d0: 0000 0000 0000 0000 0000 0000 0000 0000
000000e0: 0000 0000 0000 0000 0000 0000 0000 0000
000000f0: 0000 0000 0000 0000 0000 0000 0000 0000
00000100: 0000 0000 0000 0000 0000 0000 0000 0000
00000110: 0000 0000 0000 0000 0000 0000 0000 0000
00000120: 0000 0000 0000 0000 0000 0000 0000 0000
00000130: 0000 0000 0000 0000 0000 0000 0000 0000
00000140: 0000 0000 0000 0000 0000 0000 0000 0000
00000150: 0000 0000 0000 0000 0000 0000 0000 0000
00000160: 0000 0000 0000 0000 0000 0000 0000 0000
00000170: 0000 0000 0000 0000 0000 0000 0000 0000
00000180: 0000 0000 0000 0000 0000 0000 0000 0000
00000190: 0000 0000 0000 0000 0000 0000 0000 0000
000001a0: 0000 0000 0000 0000 0000 0000 0000 0000
000001b0: 0000 0000 0000 0000 0000 0000 0000 0000
000001c0: 0000 0000 0000 0000 0000 0000 0000 0000
000001d0: 0000 0000 0000 0000 0000 0000 0000 0000
000001e0: 0000 0000 0000 0000 0000 0000 0000 0000
000001f0: 0000 0000 0000 0000 0000 0000 0000 0000

value_heads.value_heads.extrinsic.weight f4 [1, 128]
-0.10423327 -0.18659188 0.03844479 0.18658927 0.11619517 -0.016600365 0.13307148 -0.122007325
-0.21037029 0.12525085 0.1162385 -0.18856977 -0.025132947 0.054406535 -0.08020306 -0.11356453
-0.070454545 -0.08134491 -0.120729 -0.05214054 -0.08796438 -0.055612948 -0.098561525 0.11413922
0.024510717 0.17423365 0.008390885 0.14571033 -0.024946734 0.080476366 -0.10075952 0.19802056
-0.0023192521 -0.1218499 -0.098958075 0.069133 0.12000758 -0.17624857 0.06794744 -0.120315045
0.0015882715 0.076499365 0.20082858 0.123065226 -0.006366596 0.19172832 -0.2092887 0.11509759
-0.060743347 -0.04342708 -0.16547592 0.07555707 -0.12637918 0.11237168 0.018383255 0.15550022
0.15148255 -0.06407967 -0.06950849 0.14380386 -0.065315306 -0.022709122 -0.0037304119 -0.08862974
0.0358048 0.20072089 -0.040104855 -0.024913505 0.09255009 -0.04593954 -0.1660946 0.09173336
-0.12454564 0.06729427 -0.15421325 0.15889262 -0.017288566 0.116997615 0.16481243 0.17881438
0.037836175 -0.21243839 0.057743274 0.15528563 -0.13934842 -0.21494412 0.06192893 0.1666817
-0.16465342 0.14673118 0.16482604 -0.11420208 0.1025283 0.14862277 -0.07165102 -0.12778437
0.1822875 -0.07042925 -0.21202569 0.14528708 0.13949886 0.16850069 0.18400167 0.12725644
-0.07414539 -0.10623309 -0.11742711 -0.1267423 -0.19193833 0.030394323 0.05666235 -0.1820626
0.047008313 0.049127612 -0.028724477 0.21494742 0.16679184 -0.04947609 0.08725677 0.06332662
0.044274844 -0.08378958 -0.12528443 0.0988688 0.09051096 -0.19309118 -0.07478824 0.087192625
00000000: 4178 d5bd f111 3fbe 4978 1d3d 4211 3f3e
00000010: bcf7 ed3d 7dfd 87bc e443 083e fade f9bd
00000020: 4f6b 57be c241 003e 730e ee3d 6f18 41be
00000030: 9ce3 cdbc 63d9 5e3d 8041 a4bd 8594 e8bd
00000040: 794a 90bd 2998 a6bd c440 f7bd 5291 55bd
00000050: ab26 b4bd 67ca 63bd a0da c9bd d3c1 e93d
00000060: b3ca c83c 4e6a 323e ec79 093c 1735 153e
00000070: 185d ccbc cbd0 a43d 025b cebd e7c5 4a3e
00000080: 98fe 17bb 718c f9bd 88aa cabd 9a95 8d3d
00000090: 89c6 f53d 817a 34be 0728 8b3d bc67 f6bd
000000a0: 8c2d d03a b3ab 9c3d 02a6 4d3e 9f09 fc3d
000000b0: e19e d0bb 6e54 443e c74f 56be 49b8 eb3d
000000c0: 04ce 78bd 98e0 31bd 8572 29be aabd 9a3d
000000d0: 8b69 01be 2023 e63d 7b98 963c 733b 1f3e
000000e0: 3e1e 1b3e 343c 83bd 785a 8ebd 5241 133e
000000f0: 08c4 85bd 7b08 babc ed79 74bb 8283 b5bd
00000100: 0ea8 123d c789 4d3e fd44 24bd 6817 ccbc
00000110: e78a bd3d 192b 3cbd b414 2abe b3de bb3d
00000120: c911 ffbd 94d1 893d 14ea 1dbe bfb4 223e
00000130: c0a0 8dbc 729c ef3d 97c4 283e 1e1b 373e
00000140: 1bfa 1a3d 7389 59be 3684 6c3d 3203 1f3e
00000150: 5ab1 0ebe 501a 5cbe 31a9 7d3d 9cae 2a3e
00000160: e89a 28be b340 163e 28c8 283e c8e2 e9bd
00000170: 5bfa d13d 9130 183e c5bd 92bd e8d9 02be
00000180: 93a9 3a3e 363d 90bd 431d 59be 23c6 143e
00000190: cad8 0e3e 728b 2c3e ef6a 3c3e 834f 023e
000001a0: 8ad9 97bd bc90 d9bd a07d f0bd bcc8 01be
000001b0: 7b8b 44be 84fd f83c c816 683d 9e6e 3abe
000001c0: ca8b 403d 093a 493d 984f ebbc 2d1b 5c3e
000001d0: 7bcb 2a3e 71a7 4abd adb3 b23d 63b1 813d
000001e0: 8a59 353d df99 abbd 904a 00be ba7b ca3d
000001f0: cf5d b93d b2b9 45be 942a 99bd 0c92 b23d
