results/run1/MazeBrain/MazeBrain-72448.pt (torch, 999685 bytes, 39 tensors)

network_body._body_endoder.seq_layers.0.weight f4 [128, 186]
000000 30 19 6a bd 8c fa cb bd 2b 0a c0 bd 4d 35 0c be
       -0.057152927 -0.099598974 -0.093769394 -0.13692208
000010 1a 41 3b 3c 17 b3 ef 3d 21 ca 9e 3d da ad a6 3d
       0.011429096 0.117040806 0.07753397 0.08138628
000020 e8 08 e1 bd aa d3 1c 3e b4 03 4b bd b0 0b 0f 3c
       -0.10988027 0.15315118 -0.04956408 0.008730814
000030 17 27 2e bc dc 20 b8 3d b1 e3 e7 bc 54 58 8c ba
       -0.010629437 0.089906424 -0.028306814 -0.0010707476
000040 da dc cf 3d 7e 2f f7 3b 56 d7 ab 3c ee 5c 79 bb
       0.10149546 0.0075435033 0.020976704 -0.0038049775
000050 3b 38 87 bd 6a e4 8d bd 24 c4 e2 3d 59 bd 3d 3d
       -0.06602522 -0.06928332 0.11072567 0.046323154
000060 1d be 83 bd 2f d4 58 3c 96 8d 04 be 9a 4c e2 bc
       -0.064327456 0.013234182 -0.12944636 -0.027624417
000070 fe 1f a2 bc f4 7e bf bc 5a cc 86 bc bf 2d 99 3c
       -0.019790646 -0.023375966 -0.016454864 0.018698571
000080 94 82 dc bc ab b6 b7 bd 85 4a 9f 3d ac 9d 35 3d
       -0.026917733 -0.08970388 0.07777885 0.04433982
000090 ba 88 3c 3e 92 1e 12 3e f0 cb 37 3d e2 ce ff bc
       0.18411532 0.14269474 0.044872224 -0.03122658
0000a0 d5 a7 1f bd da bb 93 3d a9 0b 16 bc 5f 5f 39 3d
       -0.038978416 0.07213564 -0.009158053 0.04525697
0000b0 b5 90 ae 3d 33 12 a4 bb ca 84 2a 3d bc 23 3b bc
       0.085236944 -0.0050070523 0.041630544 -0.011422094
0000c0 51 2e 4f 3e e2 f3 eb bd 09 9a a3 3d 8c d4 cb bc
       0.20232512 -0.11521126 0.07988364 -0.024881624
0000d0 6b 05 2e 3c ad ee 99 bd b1 87 46 3c 3c 42 2a be
       0.010621409 -0.07516227 0.012117312 -0.16626829
0000e0 29 7a 1c bd 58 e5 9f 3d a0 9e 65 3d de 9b aa 3d
       -0.03820244 0.07807416 0.05605948 0.083305106
0000f0 4f 43 f3 3b 81 79 68 bd fc da 72 bd b1 5a e4 bc
       0.0074237953 -0.0567565 -0.05929087 -0.027875276
000100 e2 5c 29 be 3c 21 1e 3d 0c 9c f8 bb 44 b4 dd 3d
       -0.16539338 0.038605914 -0.0075869616 0.108253986
000110 81 38 da 3d 09 60 16 3d 26 7e 58 3d d9 50 c1 3c
       0.106553085 0.03671268 0.05285468 0.023598121
000120 e1 62 94 bd af 82 a7 3d 23 cf 09 be 82 0f e1 bd
       -0.07245422 0.08179223 -0.13457923 -0.10989286
000130 bf 1b 8a bd 2f 4d 43 bd 00 03 bd 3b fa bd 43 3c
       -0.067435734 -0.04768103 0.00576818 0.011947149
000140 09 e2 31 3d e6 e7 d1 3c b9 f9 fc 3b 03 44 b5 bd
       0.043428455 0.025623273 0.007720199 -0.08850863
000150 96 ad 80 3d 68 d6 a9 3d 86 c9 63 bd 0f c9 54 bd
       0.06283109 0.08292848 -0.05561211 -0.051949557
000160 72 f6 43 be ab 22 65 bc 55 dd cb 3d b9 a2 05 3e
       -0.1913698 -0.013985316 0.09954325 0.13050355
000170 b0 ff a9 3c c9 39 87 bd eb 3a f8 3a ee 25 11 3d
       0.020751804 -0.066028185 0.0018938457 0.035436563
000180 dd f9 1a bb 94 39 01 3d 33 1e 56 bb 10 f1 c5 bd
       -0.0023647465 0.03154905 -0.0032671809 -0.0966512
000190 50 93 06 3e 97 05 ef bd 1a 0e 9f bd 09 66 b9 3d
       0.13142133 -0.11670988 -0.077663615 0.09052665
0001a0 37 39 96 3d 46 d9 98 3d de c8 34 3d ad 10 01 3e
       0.073351316 0.074633166 0.044136874 0.12604018
0001b0 8b 96 a0 bd 01 c5 3a bd e8 f2 ef bc 42 8d f2 bc
       -0.07841214 -0.045598034 -0.029290631 -0.029608373
0001c0 7f 90 0e bd 88 d6 97 bd b3 30 d1 3d d8 c2 21 3e
       -0.03480577 -0.074139655 0.10214367 0.15796983
0001d0 5c 77 64 3d 24 a5 7d bd fd e5 87 3d 08 fe 7d 3c
       0.055777892 -0.06192507 0.06635664 0.01550246
0001e0 4d 72 8c bb ee 18 12 be 1b d0 0e 3e 3f e0 d1 3d
       -0.0042860867 -0.14267322 0.13946573 0.1024785
0001f0 24 e9 11 3d f2 c4 83 bc 24 39 dd 3d 9d dc a9 3c
       0.03562273 -0.016085122 0.10801914 0.02073508
000200 8d 57 d7 3d b1 d1 5e bd e3 6c e2 bc d2 ee dd 3d
       0.10514746 -0.054399196 -0.027639812 0.10836567
000210 1e 4b b1 3d 8d ce 81 bc 57 5f 4d bd 50 24 46 3d
       0.086569056 -0.015845561 -0.05013975 0.048374474
000220 d0 9b ae bc 2e 99 8c bd 30 b3 9e bd 26 25 a7 3c
       -0.021314532 -0.06865154 -0.07749021 0.020403456
000230 d0 7e 77 bd f7 10 f8 3c 0f 38 c3 bd d1 72 b5 bd
       -0.060423672 0.030281527 -0.09532177 -0.0885979
000240 d0 b4 08 bd c2 18 a0 ba e0 60 cf bd e2 5d e5 bd
       -0.03337556 -0.001221441 -0.10125899 -0.11199547
000250 21 5b 16 3e be 6b c0 bc a4 e9 f0 bd 01 35 3a bc
       0.146832 -0.023488875 -0.117633134 -0.011365176
000260 63 32 d6 bc 14 3b 1f bd ca c5 ab 3d e2 2d bf 3d
       -0.026147073 -0.0388747 0.08387335 0.09334923
000270 d0 79 b1 3d ed b0 12 bc 04 47 cf 3c 61 d6 df bc
       0.08665812 -0.008953315 0.025302418 -0.027323904
000280 68 50 53 3d dd cd a3 bc c5 48 72 3d 08 35 80 bd
       0.051590353 -0.019995624 0.05915143 -0.06260115
000290 08 65 ae bd 22 22 00 be 90 80 be 3c 5b 11 3a bd
       -0.08515364 -0.1251302 0.023254663 -0.045426708
0002a0 e9 dc 63 3d 64 a7 48 bd 93 ac fe bd 8e 83 c4 bc
       0.0556306 -0.04898776 -0.1243526 -0.023988511
0002b0 ff b9 c5 bc 6b 59 c1 3d 1b 62 36 3d 07 bf b6 bc
       -0.024136541 0.09440883 0.044527154 -0.022307886
0002c0 ee fb 61 3d b3 0b ef 3b 9f e8 2d 3d 68 5f b1 bc
       0.0551719 0.007295096 0.042458173 -0.021651939
0002d0 7c bd 28 3e d3 15 c7 3b 23 ab 8a 3d 41 a4 14 3e
       0.16478533 0.0060755997 0.06770923 0.14515783
0002e0 cd 23 6c 3d 4f 12 a6 bc 2c 15 dd bb bf 05 58 3c
       0.05765133 -0.020272402 -0.0067469086 0.013184964
0002f0 8c 4d d5 3c f2 18 d5 3c 66 c8 0a be d0 d4 be 3d
       0.026037954 0.026012871 -0.13553008 0.093179345
000300 d3 0b e3 3b 42 aa 8c 3b a8 49 cd 3c 64 f0 e3 3d
       0.0069289 0.0042927573 0.025059536 0.11129835
000310 ea 03 1b bd 72 77 bb 3c 3d 97 8c 3d 07 03 fe 3c
       -0.03784553 0.022884104 0.06864784 0.031007303
000320 e8 cb 93 bb 8a af 2d bc cc c5 8a 3d c1 5c 40 bd
       -0.0045103915 -0.010600934 0.06776008 -0.046963457
000330 3b c8 7e 3d 96 00 8f 3d 2b 89 8c bd 94 ee 14 bd
       0.062202673 0.06982534 -0.068621 -0.03636034
000340 4f 59 bd 3d 3f ac 07 3e 66 71 89 bd 64 a8 b2 bc
       0.0924555 0.132493 -0.06711082 -0.02180881
000350 bd a7 ba bc 06 4a 3a bd e3 77 f2 bc 8e 74 10 be
       -0.022785062 -0.04548075 -0.029598182 -0.14106962
000360 0a e2 9f bd bc 39 91 bc 90 47 6d bc fc ab ed bd
       -0.078067854 -0.017727725 -0.014482394 -0.11605069
000370 98 bb da bd fc ac a0 3d 0f 00 64 bd c8 d8 01 be
       -0.10680312 0.07845494 -0.05566412 -0.12680352
000380 38 41 a7 3d 34 94 52 bc b9 71 dd bd 4d 46 31 bd
       0.08166736 -0.012852717 -0.108127065 -0.043279935
000390 63 76 58 3b dc cd df bc 93 18 12 bd b7 6c ab bc
       0.0033029548 -0.027319841 -0.035667967 -0.020925863
0003a0 d5 f1 c4 3d be 7a 50 3d 49 b4 9f bd c4 28 1a 3c
       0.09616438 0.050898306 -0.077980585 0.009409133
0003b0 59 45 26 bd 6b 93 05 3c 71 8f 5c 3d 25 3d 8e bd
       -0.04059348 0.008152823 0.053847734 -0.06945256
0003c0 0d 5a 96 3c 31 05 95 3a 89 c5 d8 bd 1a 76 1c 3e
       0.018353486 0.0011369345 -0.10584552 0.15279427
0003d0 ea c6 5b bd f4 05 e2 bd 03 07 5c bd de 59 4d bd
       -0.053656496 -0.11036292 -0.053717624 -0.050134532
0003e0 16 12 5a 3c f2 64 13 3b b5 e0 9a bd 07 78 08 3c
       0.013309976 0.0022490588 -0.07562391 0.008329398
0003f0 7f c5 99 bd 9c 03 b7 bd 7d 47 4b 3d 2f 21 78 bd
       -0.075083725 -0.08936235 0.049628723 -0.06057852

network_body._body_endoder.seq_layers.0.bias f4 [128]
000000 27 64 81 3b c2 5d 0b 38 aa 1b 64 b9 a7 84 b4 bb
       0.0039487067 3.32275e-05 -0.0002175408 -0.0055089775
000010 87 ad 59 3b 7b ae 5a 3a 36 3b a0 ba 38 cb cd ba
       0.0033215003 0.00083420397 -0.0012224677 -0.0015700823
000020 ab e8 4a ba b0 7a 3c 3b 4c 16 1c ba 24 b4 f8 ba
       -0.00077403587 0.002875965 -0.000595425 -0.0018974585
000030 e5 36 e2 ba c4 a2 80 3b da 0b 18 3b 52 cc 11 bb
       -0.0017258791 0.003925653 0.0023200423 -0.0022247029
000040 91 1f 85 bb 0d f1 6e bb 94 7b 9b bb c8 1f 0f ba
       -0.004062601 -0.0036459595 -0.0047449563 -0.0005459753
000050 39 d7 80 bb 82 01 98 3a 67 d5 75 3b 19 ce 2f 3b
       -0.0039319065 0.0011597129 0.003751123 0.0026825725
000060 4e b9 f6 3a 02 b4 18 bb c8 e9 c6 3a 6c 59 a9 3a
       0.0018823536 -0.0023300652 0.0015175873 0.0012920327
000070 79 13 92 3a ab 9d a8 bb f6 cb 3f bb 7a b5 bb ba
       0.0011144719 -0.0051457486 -0.0029265857 -0.0014321052
000080 ba 2e 35 3b ad 49 59 3b 5c d9 db 3a f6 34 f7 ba
       0.002764626 0.0033155486 0.0016773152 -0.0018860388
000090 73 b6 d4 39 99 6a 14 ba 8a 03 39 3b 11 1f 1e bb
       0.00040571726 -0.0005661636 0.002823087 -0.0024127404
0000a0 72 55 02 3a 33 0a d6 3a 2e 94 8f bb c1 ff bf 3a
       0.0004971839 0.0016329944 -0.004381678 0.0014648364
0000b0 88 8a 8d 3a a3 12 77 bb 61 8b 0a bb 64 40 42 bb
       0.0010798732 -0.0037700317 -0.0021140205 -0.002964043
0000c0 0b 9f 94 ba 83 4a 37 bb 4c 3b ba 39 ab c8 df 39
       -0.0011338902 -0.0027967996 0.00035520864 0.00042683384
0000d0 0a 1c 12 3b 73 88 df 3a 92 0d 82 ba 33 99 57 3a
       0.0022294545 0.0017054215 -0.0009922257 0.00082244276
0000e0 ff 78 7d 3b 95 94 fd 3a bc 2e 76 bb 30 52 f0 bb
       0.0038676856 0.0019346649 -0.0037564477 -0.0073340163
0000f0 07 61 0d bb 14 58 ac 3a 9f c5 3c 3b 13 92 00 bb
       -0.0021572725 0.0013148808 0.0028804315 -0.0019618317
000100 3f 71 c7 38 85 d0 41 3a a3 e2 09 bb 94 58 2a 3b
       9.510153e-05 0.00073934376 -0.0021039627 0.0025992738
000110 76 90 8d b9 ea be 12 3b cc 44 0a bc a1 9c bc bb
       -0.00027001248 0.0022391626 -0.008439254 -0.0057559763
000120 8d 92 7f bb b0 80 46 ba b7 65 0e ba 35 b9 a1 3a
       -0.0038997263 -0.00075722765 -0.0005432027 0.0012338521
000130 c7 66 6c 39 46 3b 00 3a 86 41 2d 3b 5e 2c 28 39
       0.00022545001 0.0004891645 0.002643676 0.00016038257
000140 ed 4b d0 3a a2 46 fe ba 76 ab 32 bb fd 1d 50 3b
       0.0015891768 -0.0019399712 -0.0027262843 0.0031756156
000150 d4 37 d2 ba 3e 74 2c bb 35 85 45 bb 25 af be bb
       -0.0016038367 -0.0026314403 -0.0030139212 -0.0058192187
000160 52 7e 14 3b b2 64 2a 3b 09 86 1a 3b 5b da 69 3b
       0.00226583 0.002599996 0.0023578426 0.0035683129
000170 52 1e 88 3b 62 60 3b 3b ee 65 6d bb f1 1c f6 3a
       0.004154005 0.0028591384 -0.0036224085 0.0018776936
000180 66 38 e9 ba f7 5b 8e bb 97 f7 0c 3b bb 2d 73 39
       -0.0017793297 -0.004344459 0.002150988 0.00023191322
000190 a3 5f 30 3b 49 30 80 bb 36 8b 03 bb 20 e6 f8 39
       0.0026912473 -0.003912006 -0.002007199 0.00047473703
0001a0 a9 be 2b 3b 10 85 53 3b 8f 5d 31 bb 6d 03 28 3b
       0.0026206172 0.0032275356 -0.0027063822 0.0025636808
0001b0 bc 91 b7 ba fa 3f 82 b8 d4 f6 c5 bb 61 c3 50 bb
       -0.0014005224 -6.2107996e-05 -0.006041387 -0.0031854736
0001c0 f2 fe 2c bb 20 8f 86 3a e1 ad dc 36 7f 5b cb ba
       -0.0026397076 0.0010266043 6.576753e-06 -0.0015514939
0001d0 4b 3e 38 bb 80 36 3a bb c6 93 80 38 26 99 2d ba
       -0.0028113301 -0.0028413832 6.1310406e-05 -0.0006622247
0001e0 c6 e9 f6 36 2f b9 14 3b 9d f2 46 bb 22 e8 37 ba
       7.358586e-06 0.0022693386 -0.003035701 -0.00070154865
0001f0 56 0f ef ba f9 a6 2c 3b fe 9d 26 bb 66 15 f7 3a
       -0.0018238823 0.002634464 -0.002542376 0.0018850982

network_body._body_endoder.seq_layers.2.weight f4 [128, 128]
000000 9e 03 07 be bc 2b 15 bd 6b 9e 7f 3d 38 58 d3 3d
       -0.13184974 -0.03641866 0.06240694 0.10319561
000010 9b 60 f9 3c 4d b8 2b 3e c3 01 7d 3d f1 be 83 3d
       0.030441573 0.16769524 0.06176926 0.064329036
000020 c1 57 16 bd 00 7e 94 3d 2c 07 41 be 21 3e 8a bd
       -0.036704782 0.07250595 -0.18850392 -0.067501314
000030 11 ec be 3c c0 4a c0 bd d7 d5 e3 bc 37 a4 d4 bd
       0.023305925 -0.093892574 -0.027811928 -0.10382884
000040 54 c2 62 3d a4 ff 11 3d 59 c8 01 3e 1d 89 38 3d
       0.055361107 0.03564419 0.12674083 0.045052636
000050 af 75 8b 3d 1e 0e 05 be 9c 16 44 bd ce 05 08 bd
       0.06809556 -0.12993667 -0.047873124 -0.03320866
000060 ef 76 a6 3c 0d 12 b7 bd f1 32 05 be 02 7c a2 bd
       0.020320384 -0.0893899 -0.13007714 -0.07933809
000070 c6 f3 38 bd 16 93 09 3d d6 e4 15 3d 6a bb 09 bd
       -0.045154355 0.033587538 0.036595188 -0.033625998
000080 6a 8f 5f 3e 54 58 cd bd 75 71 88 bb f2 a6 62 bd
       0.21832052 -0.10026613 -0.0041639158 -0.055334993
000090 0b 12 ec 3b cb d6 1f bd 95 29 3d bd ea 11 a3 3d
       0.0072042993 -0.039023202 -0.046182234 0.07962401
0000a0 df a8 a5 3d e7 3a 2a be 48 9d 92 3d 5b eb 6c 3d
       0.0808885 -0.16624032 0.07158905 0.05784164
0000b0 03 c4 9d 3b 74 c5 47 3e d9 3a 1a bd 97 aa e6 bd
       0.004814626 0.19508916 -0.037653778 -0.11263006
0000c0 fb 7f f9 3b 37 be 8a 3d b4 d3 a8 3d 9a 32 a5 3d
       0.0076141334 0.06774562 0.08243504 0.08066292
0000d0 29 45 4d bd 18 b5 b6 3c bf 28 be bc 3e c4 c9 bd
       -0.050114784 0.02230315 -0.023212789 -0.09851883
0000e0 d1 b0 02 3d 54 44 8f bc 1a d2 cd bc 32 ff 87 bd
       0.031906907 -0.017488636 -0.025124598 -0.066404715
0000f0 c1 5c 8c 3c 44 46 c9 bd 54 ad 44 3d 9a 9a ca bc
       0.017134072 -0.09827855 0.04801686 -0.024731923
000100 fb 94 8d 3d 0b a1 1c 3c da 88 9f 3c eb f4 9e bd
       0.069131814 0.00955988 0.019474436 -0.07761558
000110 93 c9 82 ba 1e 0f 99 bd 5c eb 4d 3d 24 48 27 bd
       -0.0009978287 -0.074735865 0.050273284 -0.040840283
000120 37 59 fb 3d bb 1d 83 bc dc 63 65 3d 8b c0 4d be
       0.12272876 -0.016005388 0.056003436 -0.2009298
000130 32 df 2b 3e e1 d2 08 bd 0a a1 d1 3d 39 88 99 3d
       0.16784361 -0.033404235 0.10235794 0.074966855
000140 67 d3 36 be 43 a3 81 3c c9 65 b7 3d d1 40 23 be
       -0.17854081 0.01582492 0.08954961 -0.15942694
000150 09 06 ac 3d ba 77 c0 3c 0b c8 75 3d 01 31 9f 3d
       0.083995886 0.02349459 0.06000523 0.07773019
000160 c9 1f 77 bd ee ed 26 3e 0f a2 2b bd 17 bf 8d bc
       -0.060333047 0.163017 -0.041902598 -0.017303033
000170 0f a3 b6 3b 6b 39 c9 3c 7a cf 63 bb c5 19 c0 bd
       0.0055736373 0.024563512 -0.0034761117 -0.09379915
000180 90 2e 4a be 92 e9 6e 3d eb 79 7e 3e fc e2 12 3e
       -0.19744325 0.05832822 0.24851196 0.143444
000190 7b c3 ab bd bc dd 2b 3e f5 c9 4b 3e 64 a8 9e 3d
       -0.08386894 0.16783804 0.19901259 0.07746962
0001a0 46 35 b7 bd 4f 74 19 bd a5 6f f6 3c b9 c4 c7 bb
       -0.08945708 -0.037464436 0.030082533 -0.006096449
0001b0 39 ef 0d 3e 22 00 68 3d f9 83 aa 3c 6e 03 16 3d
       0.13860787 0.05664075 0.020814883 0.036624365
0001c0 58 b0 64 3c 5b 6c 9e bc b2 52 2b bd 51 9d 04 3b
       0.013958059 -0.019338777 -0.04182691 0.002023537
0001d0 bc 92 4e bd 2c fe ea 3c e9 fe 34 bb 1d 6c 8b bc
       -0.050432906 0.028685652 -0.0027617759 -0.017019326
0001e0 6b 2a 27 bd 9d cf b8 3c dc 76 59 3d 5b 4f e5 bc
       -0.040811937 0.022559935 0.05309187 -0.027991941
0001f0 35 22 ea 3d 62 5d 5b be 4a b1 b9 3d 7d f3 c0 bd
       0.11432306 -0.21422341 0.09067018 -0.09421442
000200 39 91 24 bd c1 10 06 be db fa 0a 3d a3 74 e3 3d
       -0.040177558 -0.13092329 0.03393064 0.11106231
000210 98 ea 3c 3d 90 bc 7d 3d 43 37 a3 bd 89 50 86 3d
       0.046122164 0.061947405 -0.07969525 0.065583296
000220 8c d8 2b 3e fe c2 d3 bd c0 f2 54 bd 74 66 23 be
       0.16781825 -0.10339926 -0.051989317 -0.15957052
000230 3c 62 22 bd 32 8f 01 3d 6a 0f a9 3d 1c 95 19 bd
       -0.039644465 0.031630702 0.08254893 -0.037495717
000240 b4 84 1c be 9a 6a 1e bd d0 14 e1 bd af 51 97 3d
       -0.15284997 -0.038675882 -0.10990298 0.07388627
000250 87 44 2c bd 73 ab 41 bd 46 8c 92 bd 86 0c 91 bd
       -0.04205754 -0.047282647 -0.07155661 -0.07082467
000260 43 bd 74 bd 52 ed 9f 3d f1 52 81 3d 20 8b 1e be
       -0.059750807 0.07808937 0.06314648 -0.1548276
000270 51 cf 22 3e 0a 67 be 3c 1a 10 30 bd d2 7f 85 3d
       0.15899397 0.023242492 -0.042984106 0.065185204
000280 1e 28 ba bb 3f b8 90 bd 87 d0 64 3b 18 b9 c2 bd
       -0.005681052 -0.07066392 0.003491433 -0.0950796
000290 12 07 39 3d d8 49 1f bc d1 09 6d be 56 28 bb 3d
       0.04517276 -0.009722196 -0.23148276 0.09138553
0002a0 0e 1b ee ba 50 73 e3 3d dd 6a 9e 3d f2 b6 5d 3d
       -0.0018166022 0.111059785 0.07735226 0.05412955
0002b0 05 4f 71 3c c7 50 e5 bd 85 74 c8 3c a3 6d 74 bc
       0.014728312 -0.11197048 0.024469623 -0.014918718
0002c0 79 09 b3 3d c0 c0 5a bc c2 59 01 be b9 dc 37 3d
       0.08742041 -0.013351619 -0.12631896 0.044888232
0002d0 dc 3a bb 3d c6 43 a8 3b 45 1b 60 3d a3 e0 1c 3d
       0.09142086 0.0051350323 0.054713506 0.038300168
0002e0 e1 ca 57 3d 90 45 c1 bc 57 dd d7 3d 40 f3 bb bd
       0.052683715 -0.02359274 0.10540264 -0.09177256
0002f0 1f 81 a0 bc 78 f9 04 3d c1 6a 72 3d 9e fd ff bd
       -0.01959282 0.032464474 0.05918384 -0.124995455
000300 3d ef 27 3e 52 72 f7 3c 92 47 17 3e 2a 60 f9 3c
       0.16399856 0.03020588 0.14773396 0.030441362
000310 f8 e2 46 bd 1e 47 11 bd 1c 0a 0a 3d ec 26 2c 3d
       -0.048556298 -0.035468213 0.033701047 0.042029306
000320 99 00 ed 3d 3a 69 5b 3d e6 0a ac 3c 57 14 47 3e
       0.115723796 0.05356715 0.02100129 0.19441353
000330 47 cd 76 be 63 81 dc bc 57 88 dc 3d 06 74 82 bd
       -0.24101745 -0.026917165 0.10768192 -0.06369786
000340 b0 01 63 bd 02 b0 11 bb 36 e1 81 bd fc 6b 20 bb
       -0.05542153 -0.0022230153 -0.06341784 -0.0024478426
000350 4d 21 f1 3d 0f eb 1d be da e5 d6 3d 0e 44 a6 3c
       0.1177393 -0.15421699 0.104930595 0.020296123
000360 96 93 b8 bd cd 6d dc bc f9 43 7e 3d 24 6c 95 bd
       -0.09012525 -0.026907826 0.062076543 -0.07296017
000370 0a ed 14 3d 5d bd e7 3c 92 48 e9 3c 4b 91 e6 3d
       0.03635887 0.028288538 0.028476987 0.11258181
000380 6d 90 ca 3c e7 c9 c8 bd cb d7 f5 bd 58 66 a0 3c
       0.02472707 -0.09804135 -0.1200405 0.019580051
000390 cb 1a ea bd 74 f9 d6 3d c5 61 03 3e 97 3c 21 be
       -0.114308916 0.10496798 0.12830265 -0.1574577
0003a0 de c3 85 bd 35 dc 3b 3b 6a 05 6f bd 79 57 86 bd
       -0.06531499 0.002866519 -0.058354773 -0.06559653
0003b0 48 ef b0 3c 9d 00 b5 3d 05 ef f2 bc d1 45 4b ba
       0.021598473 0.088380076 -0.029654989 -0.0007754239
0003c0 8c 77 53 3a cf 02 e5 3d 14 bb a3 3d 20 90 e9 bd
       0.0008066825 0.11182176 0.07994667 -0.11404443
0003d0 29 9d f8 bb ed db e5 bd 47 68 dd bd c4 6a 34 3d
       -0.0075870943 -0.11223588 -0.10810905 0.044047132
0003e0 aa 18 b5 bb 58 ed 35 bd 4c 8c 91 bd ac b6 bc bd
       -0.005526622 -0.0444158 -0.07106838 -0.092145294
0003f0 ce cf 25 3e bf 52 59 be b0 fe 11 bd 1c 61 42 bd
       0.16192552 -0.21222971 -0.03564328 -0.047455892

network_body._body_endoder.seq_layers.2.bias f4 [128]
000000 d2 ec 38 bb 10 a3 e3 b9 a7 dc 23 3a ae 92 86 bb
       -0.0028217328 -0.00043418305 0.00062508363 -0.004106841
000010 ae d9 27 3b 60 16 77 3b 85 8c 25 bb f7 d7 cc ba
       0.0025611925 0.0037702546 -0.0025260758 -0.0015628327
000020 89 99 a4 39 c6 92 e9 ba e2 8e 08 3b 22 a8 7f bb
       0.0003139491 -0.0017820231 0.0020837118 -0.0039010127
000030 20 f2 8f bb 21 32 15 3b e4 9a 94 bb bf 79 00 3b
       -0.004392877 0.0022765475 -0.004535066 0.0019603816
000040 5d 97 87 bb 1b b7 50 bb e8 de aa bb 59 08 77 bb
       -0.004137917 -0.003184742 -0.005214561 -0.0037694185
000050 2f 20 b9 bb 6a 93 0a ba c4 ec 8d 3b 23 dd 46 bb
       -0.0056495885 -0.00052862486 0.004331203 -0.003034421
000060 1d 80 40 b8 2a 36 da 3a b5 8c bd 3a 6d 6a 12 3b
       -4.5895682e-05 0.0016648222 0.001446149 0.0022341267
000070 12 3a 7f bb 89 91 9f bb 30 42 27 3b 8e 13 16 ba
       -0.0038944525 -0.004869644 0.0025521629 -0.000572496
000080 d4 51 8d bb 4a f1 5e 3b 6e fc 92 bb 7f f6 53 3b
       -0.004312733 0.0034018331 -0.0044856584 0.0032342968
000090 fc d1 3a 3b 86 f4 a9 ba df 7d 2e bb bd 29 f8 ba
       0.0028506508 -0.001296655 -0.0026625318 -0.0018933337
0000a0 ee 94 8f bb c0 df 3b 3b f1 81 ce 3a c9 65 33 3b
       -0.0043817675 0.00286673 0.0015755278 0.00273739
0000b0 9b 4e 93 bb 31 2c 96 bb dd f8 a1 3a f4 63 75 bb
       -0.0044954545 -0.0045829047 0.0012357492 -0.003744361
0000c0 72 7c 97 3a 50 18 75 bb 97 d7 1f b9 3c 64 b5 3b
       0.0011557473 -0.0037398525 -0.00015243735 0.0055356305
0000d0 21 88 51 3b 4a ad c9 3a 62 7f 8b bb f6 87 97 bb
       0.0031972008 0.0015386727 -0.0042571286 -0.004624362
0000e0 38 9d b0 3a a8 5f c1 3b 65 47 a0 bb 9a fc 88 bb
       0.0013474589 0.0059012957 -0.0048913234 -0.004180503
0000f0 7d 48 a1 ba 15 c3 bd ba b6 57 79 3b 7a b2 fc ba
       -0.0012304928 -0.0014477695 0.0038046665 -0.0019279264
000100 ee 6d c8 ba e8 b1 83 bb bb 3b a5 bb e7 ba 2c 3b
       -0.0015291551 -0.004019011 -0.005042521 0.002635652
000110 9f dc a7 b8 21 5c 67 3b 14 01 52 3b 91 7c 62 3b
       -8.0042744e-05 0.0035302716 0.00320441 0.003455911
000120 0f f4 35 3b 63 17 10 bb 7b 35 21 bb 1e 21 43 3a
       0.0027763878 -0.0021986596 -0.0024598527 0.00074435945
000130 5e f2 52 3b 68 69 55 3b b9 34 3e 3b 01 6f c7 b9
       0.003218792 0.0032564048 0.0029023124 -0.00038038942
000140 b8 79 7b 3b b9 fe 96 bb eb ae f4 3a c3 65 8d 3a
       0.003837211 -0.004608002 0.0018667852 0.0010787774
000150 23 b8 25 b9 af 43 7d 3a fe c8 8e ba 0f a3 21 3b
       -0.00015804222 0.000966127 -0.001089364 0.002466384
000160 c8 4b 1b b9 a9 63 35 bb d7 2c 47 3b 54 00 a0 3a
       -0.00014810183 -0.002767781 0.0030391717 0.0012207129
000170 6f 9c ad bb ba 73 6f 3a 54 90 5d 3b d1 cd 83 3b
       -0.0052981894 0.0009134371 0.003380795 0.004022338
000180 95 2a 34 3b 39 9e ae 3b 1b d1 98 bb 83 8a 09 b9
       0.0027491201 0.00532892 -0.004663599 -0.00013116938
000190 37 7b 51 3b af de bf 3a 2f 5e 63 3b 64 1c 32 3b
       0.003196431 0.0014638508 0.003469359 0.0027177567
0001a0 68 0c 0e bb cd f9 b9 b9 05 85 2b bb bc 02 82 3b
       -0.0021674875 -0.00035472066 -0.0026171815 0.003967611
0001b0 bd 39 52 bb bb ee 10 ba d9 b5 7b 3b 07 9a 87 3a
       -0.0032077872 -0.00055287377 0.003840795 0.0010345586
0001c0 a2 6c 7d bb 55 a1 5d 3b d5 e1 9f 3a 68 5b ce 3a
       -0.0038669487 0.0033818085 0.001219804 0.0015743794
0001d0 f5 2c 87 bb 0d 90 68 3b 23 a4 9c bb d9 09 94 3b
       -0.0041252323 0.0035486252 -0.004780309 0.0045177755
0001e0 bd 3b 85 3b 49 11 99 ba 76 e8 a7 bb e6 75 6c bb
       0.0040659592 -0.0011678125 -0.005124147 -0.0036081015
0001f0 9a 66 4e bb ae e9 a0 bb d7 23 aa bb a5 0e b3 ba
       -0.003149426 -0.0049106693 -0.0051922607 -0.0013660981

action_model._continuous_distribution.log_sigma f4 [1, 2]
000000 4e 36 19 bd 14 a3 e6 3c
       -0.037405305 0.028153934

action_model._continuous_distribution.mu.weight f4 [2, 128]
000000 05 bf b3 3a 96 0f c4 3b 03 72 9c 3b c4 29 8b 3c
       0.0013713544 0.0059833033 0.0047743334 0.016987689
000010 ce ee 91 ba 9b bd 24 bd 52 03 fb 3b f0 3f 87 3b
       -0.0011133791 -0.040219884 0.007660308 0.004127495
000020 b5 b4 fa bb a6 ec e9 3b 9f 96 41 bc 62 69 3d 3c
       -0.0076509365 0.0071388064 -0.011815696 0.01156077
000030 cd 8c 83 3c 9a 21 e8 bb 18 91 c2 3c f4 0a a1 bb
       0.01605835 -0.0070840837 0.023750827 -0.004914636
000040 b3 bd 73 3b f2 1c ce 3c f2 0f 19 3d a8 23 3b 3c
       0.0037191927 0.025160287 0.037368722 0.011422075
000050 2f a7 56 3c 66 df 9e bb 21 2c 8f bc a9 04 11 3c
       0.013101383 -0.0048484085 -0.017477097 0.008851209
000060 df 88 d8 b9 54 56 e7 bb b6 7d a7 bc d1 20 b2 bc
       -0.00041300707 -0.0070598517 -0.020445686 -0.021744164
000070 95 9d 82 3c b4 30 1e 3c 17 41 8f bc 1c 70 e3 3b
       0.015944282 0.009655166 -0.017487092 0.0069408547
000080 4d af 39 3c 56 d5 a1 bc 49 0e 90 3c 06 f7 75 bc
       0.011333299 -0.019755047 0.017584937 -0.015012508
000090 2b 05 08 bc ba 20 b8 3c bc 72 fb 3a 3e a7 13 3c
       -0.008302013 0.022476543 0.0019183974 0.009012042
0000a0 46 51 45 3d 59 3a e5 bb 53 81 1b bc f7 0d b4 bc
       0.04817321 -0.006995481 -0.0094912825 -0.021979315
0000b0 da 76 57 ba dc d8 6c 3c 97 4f 94 bb e1 01 d4 3b
       -0.00082193094 0.014456 -0.0045260894 0.0064699505
0000c0 d8 99 01 bc 76 03 d3 3c 80 cc 1c bc ab a9 d6 bb
       -0.007910214 0.025758486 -0.009570241 -0.0065509877
0000d0 9d 49 5d bc 9c 19 30 bc aa f8 3d 3c eb c2 5c 3c
       -0.01350632 -0.010748293 0.011594931 0.013474206
0000e0 7f 2c e1 bb 3e de b9 3a ca 5c 27 3d b1 5a 58 3c
       -0.0068717594 0.0014180613 0.040859975 0.013205216
0000f0 f2 db a4 3c fb 76 38 3b 11 82 dd bc e7 8f 1c 3b
       0.02012441 0.002814709 -0.02703956 0.0023889483
000100 45 28 92 38 41 31 f8 3b 08 97 2d 3c 79 57 14 bc
       6.969323e-05 0.007574231 0.010595091 -0.009054058
000110 b3 85 21 bc 2b b9 55 bb aa f5 bd bc 22 f3 ac bc
       -0.0098585365 -0.003261159 -0.02318843 -0.021112029
000120 ab ea 40 bd 17 b2 e1 3a 7a c5 2b 3c e1 1d d9 3a
       -0.047098797 0.0017219213 0.010484094 0.0016564691
000130 0f 6a 33 bc b5 57 80 bc 7d 5c 7b 39 5b f9 ae 3b
       -0.010950579 -0.015666822 0.0002397168 0.005339784
000140 63 ae 07 bc 27 db 22 3d 16 5c 8b bc 69 4f 58 bb
       -0.008281323 0.03975978 -0.017011683 -0.0033006317
000150 c8 49 98 bb a9 b2 51 bb c4 00 a8 3b af 6c 7a bc
       -0.0046474673 -0.003199736 0.0051270444 -0.015284701
000160 80 d5 d4 3b ca f8 ed 3c 63 5c 89 bc 9b a8 fb b9
       0.0064951777 0.029049296 -0.016767686 -0.00048000072
000170 73 f2 33 3d d7 43 c6 bc 2c 48 a6 bc 0b 33 f5 bb
       0.04393239 -0.02420227 -0.020298086 -0.0074828914
000180 ec 21 67 bc 76 39 8e bc b9 0e 86 3c 93 f3 8a bb
       -0.014107209 -0.017361384 0.016364442 -0.004240462
000190 98 18 fb bc ef 19 74 3b 98 78 14 bd c7 b5 54 bc
       -0.030651376 0.0037246903 -0.03624782 -0.012982792
0001a0 b7 78 c1 3b 0f fd ad bb e0 2c 6f 3b 61 5f cc bc
       0.005904283 -0.005309708 0.0036495253 -0.024947824
0001b0 a0 51 6b 3c f3 36 d8 3a 7e ca 1c bd 45 2c 2a bb
       0.014362723 0.0016495868 -0.03827905 -0.0025966328
0001c0 67 59 33 3d 8a 82 14 bc fa b2 a5 bb 4c a3 0f bc
       0.043786433 -0.009064326 -0.005056736 -0.00876696
0001d0 61 58 ff 3c 04 b7 8e bc 54 c7 e8 3c 67 fb 1e bd
       0.031170072 -0.017421253 0.02841536 -0.038813975
0001e0 a9 e5 88 bc 96 16 9c 3c ab 00 b2 3c 20 c9 97 3c
       -0.016711073 0.019053739 0.021728834 0.018528521
0001f0 f6 7d ba 3c ac 7b b8 3c 1b 9c 58 3c ca 05 0f ba
       0.022765141 0.022519909 0.013220812 -0.000545588
000200 30 74 4e bc bb f3 d6 3b 8f a1 62 3c 10 0e bb 3c
       -0.012600943 0.0065598167 0.013832464 0.022833854
000210 d5 5e eb 3b f9 f5 90 ba 00 c0 c3 bb 5c ff 82 bc
       0.0071829357 -0.0011059634 -0.005973816 -0.015990905
000220 ae 45 b7 3b 5f 30 52 bc 67 19 1d 3c 18 b9 cd 3b
       0.0055930233 -0.012828915 0.009588576 0.0062781684
000230 1d b7 94 bb fd 86 87 bc 66 72 bc 3c 90 cc 8c bc
       -0.0045384304 -0.01654386 0.023003768 -0.017187387
000240 da c8 0a bc 4c 33 de 3c cd 3e 1a 3c 9c c7 e6 bc
       -0.008470738 0.02712407 0.009414387 -0.028171353
000250 d6 43 2e bb 13 08 24 3d 6e 02 94 bc 37 83 a1 3b
       -0.0026590726 0.040046763 -0.018067565 0.004928972
000260 4e 0e e3 bc b1 fb 03 bc d2 d9 85 bc c5 45 f5 3c
       -0.027716782 -0.008055613 -0.016339216 0.029940495
000270 31 18 13 bd 53 83 40 3c 4c 9b 99 3b 2a 3f 90 bc
       -0.035911743 0.01175006 0.0046877023 -0.017608244
000280 60 28 c6 bc 58 16 84 bc a5 f4 27 bc e3 57 97 bc
       -0.024189174 -0.016123936 -0.010251199 -0.018474525
000290 e3 8b ff bb a3 e0 6e bc 28 a1 9a 3c 32 f8 f1 bc
       -0.007798658 -0.014579925 0.018875673 -0.029537294
0002a0 04 b1 c6 39 06 78 98 bc a4 81 4e 3c c4 69 ec 3b
       0.0003789739 -0.01861192 0.012604151 0.0072147567
0002b0 21 4e 0f bb b7 67 96 3c 04 cb cf bc 27 cf b8 bb
       -0.0021866637 0.018360002 -0.02536536 -0.005639929
0002c0 c1 9a 1a 3c f6 8f 83 ba 40 6d 56 bd bb 17 0e bc
       0.00943631 -0.001003741 -0.052350283 -0.00867265
0002d0 50 bc 55 bc 88 36 a9 bc 03 a0 25 bc 36 16 bf 3b
       -0.0130453855 -0.020655885 -0.010108951 0.005831505
0002e0 40 a0 cc 3b 9a e7 9c 3a 10 05 b8 3c 00 ad 2c bc
       0.006244689 0.0011970878 0.022463351 -0.010539293
0002f0 80 3d b0 bc 87 60 17 3c c2 e3 66 bc 6e 99 51 bc
       -0.0215137 0.0092393225 -0.014092388 -0.012792928
000300 55 93 87 bc 75 69 b9 bb 22 a0 de 3a 85 71 8a bc
       -0.016549746 -0.0056583234 0.0016984979 -0.016899833
000310 eb 84 73 3d b2 30 30 3c 7a ff 32 bc 33 e9 25 ba
       0.059452932 0.010753797 -0.010925168 -0.0006329
000320 36 ea 5a 3b fb d7 9d bc 50 a2 5a 3c 16 47 2d 3d
       0.003340376 -0.019268027 0.013344362 0.04230412
000330 d0 c5 1a bd 69 db d8 bb f7 74 57 3c a6 75 a3 3b
       -0.037786305 -0.0066179526 0.013150445 0.00498839
000340 99 3a e4 ba e2 84 4b 3d 03 72 ee b8 a1 5c cb 3a
       -0.0017412483 0.049687274 -0.00011369961 0.0015515276
000350 69 c6 0c bd 85 43 e0 3b c6 20 c1 3c a8 c0 48 3c
       -0.034368906 0.0068439865 0.023575198 0.012252964
000360 d3 58 ff 3b 02 ff 3b 3b c7 c4 e3 3a 5a 0c 2d bc
       0.007792571 0.0028685932 0.001737737 -0.010562027
000370 ed 78 79 bc 85 55 49 bc d8 3c 02 3b 30 66 13 bc
       -0.015226585 -0.012288456 0.0019872691 -0.008996531
000380 9a f3 ce 3b 7f f6 7f 3c 2a 45 9d 3b ba 56 9a 3b
       0.0063156607 0.015622734 0.0047995048 0.0047100456
000390 93 6b a2 3b a1 e0 72 3c 67 2d 68 3c d5 31 a2 bc
       0.0049566715 0.0148240635 0.014170981 -0.019799152
0003a0 98 c1 a5 bc 0b 43 9a 3c 6d 02 6e bb 96 ab d7 bc
       -0.020233914 0.018830797 -0.0036317364 -0.026326936
0003b0 23 2c 33 3b de 98 fa bc 25 e7 6f bc 7e af 85 bc
       0.002733954 -0.03059047 -0.0146425115 -0.016319033
0003c0 ab e9 0a 3c d1 4f 80 bc 3b c4 26 bd dc d1 b4 3c
       0.008478562 -0.01566306 -0.040714484 0.022072725
0003d0 e7 22 e2 bc a7 2c dd bc 69 f7 f0 3c 32 c4 4c bc
       -0.027604533 -0.026998831 0.02941485 -0.0124979485
0003e0 87 bf c2 bb 6e cb 7d bc d3 68 9e 3b a3 13 72 bc
       -0.005943242 -0.015490396 0.0048342734 -0.01477519
0003f0 3e 67 bc 3b c9 b0 1e ba b9 8e 13 3c 6b 93 66 bc
       0.005749612 -0.0006053565 0.009006196 -0.014073233

action_model._continuous_distribution.mu.bias f4 [2]
000000 30 55 8a bb 1a 87 12 ba
       -0.004221581 -0.000558959

action_model._discrete_distribution.branches.0.weight f4 [1, 128]
000000 9d e7 91 bb 6d 70 19 3b 5f aa 34 bc b8 fb 48 3c
       -0.0044526593 0.0023412958 -0.011026948 0.012267046
000010 cc 04 43 3c 4c 5c 26 bb 20 b8 9d 3c 75 9f 4e bc
       0.011902999 -0.0025384603 0.019252837 -0.01261126
000020 d5 c8 7c 3c c4 7b 39 bc fb 67 98 bb 15 2d 77 3a
       0.015428741 -0.011321012 -0.0046510673 0.000942902
000030 ac 0e 99 3c e0 d4 10 3c 3f bd 2d ba 1f 89 f3 39
       0.018683754 0.008839816 -0.0006627626 0.00046450735
000040 ba c7 8c bb 7a 30 00 3c 97 94 ae 39 21 30 3d 3b
       -0.00429627 0.007824058 0.00033298574 0.0028867798
000050 0d 68 e2 39 fb d7 8e bb 43 94 0d bc 1a 99 5b bc
       0.00043183603 -0.004359243 -0.008641305 -0.0134032015
000060 22 d8 82 3b dd a1 cd ba ac 15 b7 bb 50 49 1f 3c
       0.00399305 -0.0015688498 -0.0055873003 0.009722069
000070 ef 8b 78 ba 29 4a 8f 3a d5 3e c9 3b 0d 8a 6b 3a
       -0.0009481301 0.0010932136 0.0061415234 0.000898511
000080 09 ee 8d 3a 98 57 98 38 e3 b7 1e 3a 41 b5 21 3b
       0.0010828386 7.2642404e-05 0.0006054623 0.0024674686
000090 db 30 04 bc 78 d4 ca b9 ac d8 aa ba 3a ce 72 bb
       -0.008068289 -0.00038686744 -0.0013034544 -0.003704919
0000a0 a4 f8 8c 3b 16 bc 2d bb 13 38 61 bc 40 5b 6c bc
       0.004302101 -0.0026509813 -0.013746279 -0.014426053
0000b0 42 72 2c bb 37 dd d7 bb d2 c9 e0 3a cb 75 83 3a
       -0.002631322 -0.00658765 0.0017149991 0.0010029612
0000c0 85 35 b3 3a 8e 13 87 3c 2b ef 27 bc 9c 7e 8e bb
       0.0013672566 0.016488817 -0.010249893 -0.004348589
0000d0 4f 0e 94 bb 42 b6 b0 bb f7 4f 91 3c 12 f6 d0 bb
       -0.0045183073 -0.0053928206 0.017738326 -0.00637699
0000e0 54 9b 88 bc b3 05 1c 3c e0 bd d7 b9 8b 27 b3 3c
       -0.016675629 0.009522843 -0.00041149464 0.021869441
0000f0 ab 49 b0 bb 07 ff 82 3a 70 cf 6c 3a 8a 97 24 bc
       -0.0053798757 0.0009994217 0.0009033596 -0.010045895
000100 4a 08 8d ba 3b 5a 85 b9 6d 0f a3 38 42 10 91 3a
       -0.0010759917 -0.00025434964 7.775319e-05 0.0011067467
000110 43 c5 a5 3c a8 e2 ab bb 1f a9 92 3b 60 3c 0a bc
       0.020235663 -0.0052455254 0.004475727 -0.008437246
000120 e3 04 5c 3b 63 1a 7e bb 01 3a 21 3c 23 29 00 3c
       0.0033572249 -0.0038773052 0.009840489 0.007822308
000130 ed 29 70 ba 9a 8d df 3b 40 bc df b8 3f f7 23 bc
       -0.0009161521 0.0068223 -0.00010668533 -0.0100076785
000140 16 f5 aa bb 08 e2 e6 3a 90 58 ff ba bd 15 52 3b
       -0.005217205 0.001761497 -0.001948135 0.0032056414
000150 50 2b 8b bb 2a 41 db bb 8b 29 03 bc 14 c2 c6 bc
       -0.0042471066 -0.006691118 -0.00800551 -0.024262466
000160 e7 a5 b9 3c e8 6d 25 bc 2c 49 19 bc 8b 12 15 3c
       0.022662116 -0.0100970045 -0.009355824 0.009098659
000170 7f 37 01 ba ff 9a 63 3b 40 b1 5c 3b 60 a3 57 bb
       -0.0004929229 0.0034729836 0.0033674985 -0.0032903776
000180 e8 57 66 3a 92 af ce ba 62 83 ba 3c 59 5f 23 3c
       0.0008786903 -0.0015768877 0.022767726 0.009971463
000190 95 8a 73 ba 62 cd 73 ba f0 5e 40 3c 08 fe 36 bc
       -0.00092903647 -0.0009300319 0.011741385 -0.011168964
0001a0 7f 29 47 3b 1f 84 e7 3b 43 57 b2 ba 08 e9 30 3c
       0.0030389724 0.0070653106 -0.0013606328 0.0107977465
0001b0 77 ca e6 bb 94 7d 08 3b 2d a8 ed 3a 42 95 a5 3a
       -0.0070431787 0.0020826804 0.0018131785 0.0012632983
0001c0 55 30 b8 3b 42 06 70 3b 16 c5 10 bc fe c9 a2 b9
       0.005620996 0.0036624824 -0.008836051 -0.00031049544
0001d0 f5 f0 6b ba 38 00 7e bb 22 c2 a9 3b 72 2d 4d ba
       -0.0009000444 -0.0038757455 0.005180613 -0.0007826901
0001e0 db c8 b0 bb 80 89 56 bc ab f4 00 3c 07 c8 38 bb
       -0.0053950376 -0.013094306 0.007870833 -0.0028195397
0001f0 91 c9 49 bc f7 ca d4 3c df 78 61 bc 3f 39 0c 3a
       -0.012316124 0.025975687 -0.013761728 0.00053491065

exp_avg f4 [128, 186]
000000 53 73 3b 35 5f 86 22 b4 32 fe da b5 03 c5 8e b4
       6.983075e-07 -1.513631e-07 -1.6316246e-06 -2.6592906e-07
000010 00 00 00 00 ba 45 8c b4 3d 1e ee 34 2f 86 22 b4
       0.0 -2.6127765e-07 4.4352956e-07 -1.5136241e-07
000020 3f dc bb b5 a0 ee 5f b4 00 00 00 00 f5 40 8e b4
       -1.3996686e-06 -2.0855305e-07 0.0 -2.6496824e-07
000030 01 f8 9a b5 89 85 22 b4 be 7f 64 b5 93 61 3e 34
       -1.1546073e-06 -1.5136006e-07 -8.512251e-07 1.7730626e-07
000040 00 00 00 00 b4 e2 93 b4 07 86 34 b4 ac 85 22 b4
       0.0 -2.7545832e-07 -1.6812565e-07 -1.5136055e-07
000050 5f dc 9d b5 26 dd 6f b3 00 00 00 00 bf ed 91 b4
       -1.1761548e-06 -5.5847657e-08 0.0 -2.7181338e-07
000060 07 ea f0 35 89 85 22 b4 8d 6c fe b5 5d 31 0d b5
       1.7949504e-06 -1.5136006e-07 -1.8956067e-06 -5.2598426e-07
000070 00 00 00 00 2f 9e 8e b4 c1 7a dd 35 89 85 22 b4
       0.0 -2.6564655e-07 1.6501509e-06 -1.5136006e-07
000080 cc db 00 b6 ff da 07 b5 00 00 00 00 05 85 95 b4
       -1.9201425e-06 -5.06101e-07 0.0 -2.7850197e-07
000090 c7 74 93 35 fc 85 22 b4 44 99 e2 b5 3e 39 c7 b4
       1.098634e-06 -1.5136169e-07 -1.6882918e-06 -3.7108288e-07
0000a0 00 00 00 00 b9 7a 92 b4 2c 47 7a 34 fc 85 22 b4
       0.0 -2.7283912e-07 2.3308957e-07 -1.5136169e-07
0000b0 dc 03 b1 b5 7f e8 1f b4 00 00 00 00 a9 17 8d b4
       -1.3188651e-06 -1.489261e-07 0.0 -2.6280512e-07
0000c0 a7 04 13 b4 fc 85 22 b4 92 3a a7 b5 27 ef 79 b3
       -1.3692134e-07 -1.5136169e-07 -1.2459516e-06 -5.8192338e-08
0000d0 00 00 00 00 82 8d 8b b4 4e e8 fd b3 bc 85 22 b4
       0.0 -2.5993728e-07 -1.18234865e-07 -1.5136078e-07
0000e0 3f a2 b6 b5 64 ff 9f b3 00 00 00 00 ba ae 95 b4
       -1.3607277e-06 -7.45047e-08 0.0 -2.7880543e-07
0000f0 2a 5e 3b 35 79 85 22 b4 59 01 d0 b5 0b 17 90 b4
       6.9799955e-07 -1.5135983e-07 -1.54976e-06 -2.6838856e-07
000100 00 00 00 00 ec c1 91 b4 99 bd a7 34 89 85 22 b4
       0.0 -2.714945e-07 3.1244124e-07 -1.5136006e-07
000110 6c c4 c4 b5 46 cd 41 b4 00 00 00 00 47 a7 8e b4
       -1.4660304e-06 -1.8049204e-07 0.0 -2.657127e-07
000120 96 01 af 35 89 85 22 b4 1f b2 f9 b5 84 a5 e1 b4
       1.3038978e-06 -1.5136006e-07 -1.8603786e-06 -4.2029944e-07
000130 00 00 00 00 e4 9f 95 b4 9e de 75 35 3f 86 22 b4
       0.0 -2.7869748e-07 9.1593563e-07 -1.5136264e-07
000140 3f 5b e9 b5 d4 6f ab b4 00 00 00 00 fd 5a 91 b4
       -1.7386409e-06 -3.1932598e-07 0.0 -2.7074557e-07
000150 c6 7f 2c 34 2f 86 22 b4 af f4 be b5 35 11 09 b4
       1.6065232e-07 -1.5136241e-07 -1.4227315e-06 -1.2765379e-07
000160 00 00 00 00 ca e8 8a b4 76 bc 9d 34 fc 85 22 b4
       0.0 -2.587388e-07 2.9380652e-07 -1.5136169e-07
000170 71 e0 c5 b5 1d 2e 2e b4 00 00 00 00 49 e7 8e b4
       -1.4742965e-06 -1.6221789e-07 0.0 -2.6617843e-07
000180 00 99 9b b5 f2 86 22 b4 b1 11 49 b5 8d f9 40 34
       -1.1592929e-06 -1.5136519e-07 -7.490408e-07 1.797218e-07
000190 00 00 00 00 f5 55 8f b4 77 6b 15 b5 8f 86 22 b4
       0.0 -2.6698368e-07 -5.566321e-07 -1.5136378e-07
0001a0 b1 e7 68 b5 d6 9d 22 33 00 00 00 00 dc 9e 8f b4
       -8.676389e-07 3.7862115e-08 0.0 -2.675141e-07
0001b0 60 00 38 b6 5f 86 22 b4 c5 b1 53 b4 a2 cc 16 35
       -2.7418355e-06 -1.513631e-07 -1.9715579e-07 5.6177134e-07
0001c0 00 00 00 00 9c 18 8e b4 ea ce d9 b5 3f 86 22 b4
       0.0 -2.6467467e-07 -1.622798e-06 -1.5136264e-07
0001d0 5e 4a 38 b5 5d 04 9e 34 00 00 00 00 ca 92 90 b4
       -6.865356e-07 2.9432968e-07 0.0 -2.6928893e-07
0001e0 aa 88 e6 b4 fc 85 22 b4 15 64 89 b5 39 64 6a 32
       -4.2940275e-07 -1.5136169e-07 -1.0236423e-06 1.3643381e-08
0001f0 00 00 00 00 0c d7 8d b4 d8 59 97 b5 fc 85 22 b4
       0.0 -2.6419764e-07 -1.1276525e-06 -1.5136169e-07
000200 a4 65 38 b5 dd bc 3c 34 00 00 00 00 d9 b2 90 b4
       -6.869325e-07 1.7577572e-07 0.0 -2.695222e-07
000210 cd f8 b8 b5 1f 86 22 b4 d8 51 37 b5 f8 7e 7f 34
       -1.3781479e-06 -1.5136219e-07 -6.829191e-07 2.3794917e-07
000220 00 00 00 00 75 3c 90 b4 ee d2 7f b5 fc 85 22 b4
       0.0 -2.6866078e-07 -9.5301846e-07 -1.5136169e-07
000230 78 2b 60 b5 b3 70 0e 34 00 00 00 00 9d 9f 8e b4
       -8.350976e-07 1.326578e-07 0.0 -2.6565695e-07
000240 80 4a 88 33 3f 86 22 b4 a2 66 96 b5 29 e9 ff b3
       6.346545e-08 -1.5136264e-07 -1.1205741e-06 -1.19167744e-07
000250 00 00 00 00 51 85 8e b4 ed 94 f3 34 dc 85 22 b4
       0.0 -2.6546562e-07 4.5370635e-07 -1.5136123e-07
000260 c5 8a b4 b5 cd 84 5a b4 00 00 00 00 8f 65 87 b4
       -1.3451432e-06 -2.0351145e-07 0.0 -2.5219603e-07
000270 f8 b0 35 35 bc 85 22 b4 19 06 c3 b5 28 0c 8d b4
       6.768528e-07 -1.5136078e-07 -1.4530407e-06 -2.6272141e-07
000280 00 00 00 00 e5 92 8b b4 c6 90 7f 35 89 85 22 b4
       0.0 -2.5997647e-07 9.5205576e-07 -1.5136006e-07
000290 ec 7e cf b5 4b 90 b4 b4 00 00 00 00 2c 1a 90 b4
       -1.5459641e-06 -3.36326e-07 0.0 -2.6841133e-07
0002a0 42 c0 ac 35 89 85 22 b4 8c 7f e8 b5 e7 fe de b4
       1.2870953e-06 -1.5136006e-07 -1.7322468e-06 -4.1536188e-07
0002b0 00 00 00 00 35 c7 8d b4 b6 55 01 36 89 85 22 b4
       0.0 -2.640824e-07 1.9272388e-06 -1.5136006e-07
0002c0 94 b2 03 b6 ab b3 18 b5 00 00 00 00 41 3b 8a b4
       -1.9624467e-06 -5.6885864e-07 0.0 -2.5747616e-07
0002d0 61 be f6 35 2f 86 22 b4 50 c1 04 b6 94 b1 10 b5
       1.8383836e-06 -1.5136241e-07 -1.9782055e-06 -5.390259e-07
0002e0 00 00 00 00 ba a4 87 b4 e6 ed 62 36 73 59 8c 35
       0.0 -2.5265564e-07 3.38151e-06 1.0456846e-06
0002f0 fe 39 00 37 94 b7 ce b3 00 00 00 00 59 f6 fa 35
       7.642897e-06 -9.626015e-08 0.0 1.8698148e-06
000300 e2 e2 57 36 70 59 8c 35 ad c3 01 37 81 6a 72 b3
       3.216956e-06 1.0456843e-06 7.7345585e-06 -5.644188e-08
000310 00 00 00 00 a8 fb fa 35 19 cb 4f 36 70 59 8c 35
       0.0 1.8699693e-06 3.0963622e-06 1.0456843e-06
000320 f1 28 02 37 49 29 fc b2 00 00 00 00 a5 b7 fa 35
       7.758136e-06 -2.9355435e-08 0.0 1.8679899e-06
000330 88 aa 74 36 73 59 8c 35 76 e9 fc 36 d5 c0 2e b4
       3.6458096e-06 1.0456846e-06 7.5373637e-06 -1.6275165e-07
000340 00 00 00 00 bf 46 fa 35 16 c7 67 36 71 59 8c 35
       0.0 1.8647041e-06 3.4537566e-06 1.0456844e-06
000350 42 36 ff 36 c2 bd f4 b3 00 00 00 00 40 a4 fa 35
       7.6059086e-06 -1.1396652e-07 0.0 1.8674255e-06
000360 60 31 56 36 73 59 8c 35 f5 56 01 37 63 51 5d b3
       3.1917225e-06 1.0456846e-06 7.709245e-06 -5.1529593e-08
000370 00 00 00 00 dd 97 fa 35 70 43 4d 36 73 59 8c 35
       0.0 1.867065e-06 3.0586634e-06 1.0456846e-06
000380 66 f4 01 37 1b 01 95 b2 00 00 00 00 a6 bb fa 35
       7.745903e-06 -1.7346386e-08 0.0 1.8681064e-06
000390 4e 7c 41 36 73 59 8c 35 a3 fd 02 37 4a 39 d8 32
       2.8831596e-06 1.0456846e-06 7.807658e-06 2.5171762e-08
0003a0 00 00 00 00 89 b7 fa 35 a1 02 43 36 74 59 8c 35
       0.0 1.8679867e-06 2.9058795e-06 1.0456847e-06
0003b0 8e bc 02 37 7b ad 93 32 00 00 00 00 45 47 fa 35
       7.792505e-06 1.7191942e-08 0.0 1.8647194e-06
0003c0 e7 f0 34 36 74 59 8c 35 a1 49 04 37 a9 f0 93 33
       2.6962314e-06 1.0456847e-06 7.884956e-06 6.888997e-08
0003d0 00 00 00 00 b4 58 fa 35 f0 83 36 36 73 59 8c 35
       0.0 1.8652267e-06 2.719691e-06 1.0456846e-06
0003e0 76 65 04 37 aa ac 8a 33 00 00 00 00 91 7a fa 35
       7.891436e-06 6.457533e-08 0.0 1.8662123e-06
0003f0 35 6d 40 36 71 59 8c 35 54 d6 03 37 f4 9d ee 32
       2.8673796e-06 1.0456844e-06 7.858111e-06 2.7778675e-08

exp_avg_sq f4 [128, 186]
000000 98 fa 20 32 d1 ab 58 30 03 35 5f 33 d9 67 c9 2f
       9.370204e-09 7.882451e-10 5.1969447e-08 3.6635475e-10
000010 00 00 00 00 18 05 8b 31 a5 99 23 32 15 a2 58 30
       0.0 4.0460115e-09 9.5227835e-09 7.8810675e-10
000020 5a 2c 5f 33 4c 21 c9 2f 00 00 00 00 68 ee 8b 31
       5.196157e-08 3.6585346e-10 0.0 4.072536e-09
000030 c7 f5 23 32 ed 1f 59 30 0a 3f 60 33 8f ef cb 2f
       9.543732e-09 7.898951e-10 5.2211398e-08 3.7095702e-10
000040 00 00 00 00 9e 2f 8d 31 15 44 23 32 63 f0 58 30
       0.0 4.1090535e-09 9.503329e-09 7.892195e-10
000050 72 27 5f 33 76 e5 c5 2f 00 00 00 00 ed 3e 8c 31
       5.195711e-08 3.5997133e-10 0.0 4.08169e-09
000060 3a 06 23 32 19 1c 59 30 bc 3a 60 33 cf dd c8 2f
       9.4892645e-09 7.898407e-10 5.2207483e-08 3.6537393e-10
000070 00 00 00 00 8d fd 8c 31 2c ed 24 32 22 76 59 30
       0.0 4.1033617e-09 9.599983e-09 7.9112017e-10
000080 b3 3b 61 33 7a db cc 2f 00 00 00 00 03 50 8e 31
       5.244119e-08 3.726333e-10 0.0 4.14184e-09
000090 cb 1d 23 32 4f 7d 59 30 cc dd 61 33 13 54 cf 2f
       9.494623e-09 7.9122214e-10 5.2588618e-08 3.771282e-10
0000a0 00 00 00 00 b2 34 8e 31 a5 00 24 32 a5 f0 59 30
       0.0 4.1387347e-09 9.546203e-09 7.9286117e-10
0000b0 dc d6 62 33 99 93 d2 2f 00 00 00 00 d7 47 8f 31
       5.281514e-08 3.8303652e-10 0.0 4.170015e-09
0000c0 63 12 24 32 b1 5c 5a 30 82 cc 62 33 25 c0 d4 2f
       9.550237e-09 7.943966e-10 5.2805724e-08 3.8699102e-10
0000d0 00 00 00 00 aa ff 8e 31 6b 04 23 32 2a bf 5a 30
       0.0 4.1618096e-09 9.488853e-09 7.95796e-10
0000e0 5b 3f 63 33 11 e6 d9 2f 00 00 00 00 6e bd 8e 31
       5.2910178e-08 3.9635542e-10 0.0 4.1542796e-09
0000f0 b5 64 22 32 f9 e1 5a 30 0e f5 62 33 0d 84 d9 2f
       9.452539e-09 7.9629064e-10 5.28426e-08 3.9565898e-10
000100 00 00 00 00 78 50 8e 31 60 8f 22 32 b5 24 5b 30
       0.0 4.141892e-09 9.462241e-09 7.97239e-10
000110 78 17 63 33 e4 ff dc 2f 00 00 00 00 a1 61 8e 31
       5.28739e-08 4.0199588e-10 0.0 4.143843e-09
000120 79 b8 22 32 e5 9a 5b 30 d6 92 63 33 64 d4 dd 2f
       9.471585e-09 7.9891854e-10 5.2986103e-08 4.0350578e-10
000130 00 00 00 00 7a dc 8e 31 bf e6 22 32 69 e4 5b 30
       0.0 4.157809e-09 9.482107e-09 7.9996326e-10
000140 af 7d 63 33 b7 e1 de 2f 00 00 00 00 4f d7 8e 31
       5.2966865e-08 4.0541945e-10 0.0 4.1572217e-09
000150 68 25 23 32 f9 24 5c 30 cd d9 63 33 1b 27 e2 2f
       9.496354e-09 8.0088075e-10 5.3050645e-08 4.1136947e-10
000160 00 00 00 00 14 01 8f 31 e7 bc 21 32 2e 24 5c 30
       0.0 4.1619703e-09 9.414385e-09 8.008695e-10
000170 96 6a 63 33 c0 d7 dd 2f 00 00 00 00 d3 0c 8e 31
       5.2949495e-08 4.0352965e-10 0.0 4.134202e-09
000180 2b a1 21 32 24 6d 5d 30 80 52 63 33 1d 88 db 2f
       9.408079e-09 8.055443e-10 5.292759e-08 3.9932582e-10
000190 00 00 00 00 a1 15 8e 31 4e 89 22 32 94 91 5d 30
       0.0 4.135203e-09 9.4608605e-09 8.060621e-10
0001a0 c3 83 63 33 56 f6 db 2f 00 00 00 00 82 79 8e 31
       5.2972393e-08 4.00109e-10 0.0 4.1465578e-09
0001b0 f2 b4 23 32 c7 88 5d 30 a2 09 65 33 e4 2c d8 2f
       9.528991e-09 8.0593704e-10 5.332698e-08 3.9322068e-10
0001c0 00 00 00 00 dc d8 90 31 c9 e1 22 32 41 9a 5d 30
       0.0 4.2156056e-09 9.480979e-09 8.061854e-10
0001d0 33 93 64 33 e6 4f d7 2f 00 00 00 00 d7 e9 8f 31
       5.3219264e-08 3.9165043e-10 0.0 4.1884323e-09
0001e0 d1 6e 23 32 f8 b3 5d 30 f7 ec 65 33 42 fa dd 2f
       9.5130455e-09 8.065508e-10 5.3533736e-08 4.0377485e-10
0001f0 00 00 00 00 5d 5f 91 31 f0 16 22 32 c9 15 5e 30
       0.0 4.230897e-09 9.4348565e-09 8.079409e-10
000200 fe 10 66 33 90 7c e2 2f 00 00 00 00 9e 32 91 31
       5.3566502e-08 4.1197667e-10 0.0 4.22581e-09
000210 d4 19 23 32 13 2c 5e 30 a1 cf 64 33 6f 4c df 2f
       9.493721e-09 8.082576e-10 5.3274224e-08 4.0617773e-10
000220 00 00 00 00 08 60 90 31 c7 ff 22 32 4d 33 5e 30
       0.0 4.201869e-09 9.487798e-09 8.083603e-10
000230 b9 35 65 33 8a 41 e0 2f 00 00 00 00 5b 05 91 31
       5.3367078e-08 4.079193e-10 0.0 4.2206643e-09
000240 36 f5 24 32 47 19 5e 30 48 5c 64 33 8c 8f d7 2f
       9.601811e-09 8.079905e-10 5.3169316e-08 3.9210268e-10
000250 00 00 00 00 3e 59 91 31 4c ea 24 32 f7 93 5e 30
       0.0 4.230201e-09 9.599329e-09 8.09734e-10
000260 8a 6b 65 33 c7 d2 dc 2f 00 00 00 00 f4 42 92 31
       5.3416024e-08 4.0167533e-10 0.0 4.256771e-09
000270 c0 cf 23 32 d8 52 5f 30 69 0b 65 33 0d 78 d3 2f
       9.535086e-09 8.1244655e-10 5.3328595e-08 3.8465978e-10
000280 00 00 00 00 7f c1 91 31 12 91 24 32 df 55 5f 30
       0.0 4.2420534e-09 9.579042e-09 8.124896e-10
000290 93 e7 65 33 11 6c d1 2f 00 00 00 00 16 fd 92 31
       5.3528833e-08 3.8093664e-10 0.0 4.277932e-09
0002a0 a8 62 25 32 6f 2a 5f 30 ab d4 65 33 38 be ce 2f
       9.626696e-09 8.118723e-10 5.3511638e-08 3.760634e-10
0002b0 00 00 00 00 af 49 93 31 d6 0c 25 32 a2 35 5f 30
       0.0 4.28664e-09 9.607183e-09 8.1203144e-10
0002c0 bb 23 65 33 4e a6 c7 2f 00 00 00 00 95 c8 92 31
       5.3350714e-08 3.6316056e-10 0.0 4.271963e-09
0002d0 13 63 24 32 70 7a 5f 30 5c 70 65 33 c3 bf c7 2f
       9.568583e-09 8.130092e-10 5.3420408e-08 3.6334144e-10
0002e0 00 00 00 00 9a c0 92 31 86 e3 85 2f 36 88 ed 2d
       0.0 4.2710555e-09 2.4354224e-10 2.700427e-11
0002f0 c8 08 fa 30 0c 3b e1 2d 00 00 00 00 fb 43 f3 2e
       1.819239e-09 2.560576e-11 0.0 1.10624364e-10
000300 f7 49 84 2f 98 13 ed 2d 9b 56 fd 30 37 02 e5 2d
       2.4063215e-10 2.6952482e-11 1.8432788e-09 2.603527e-11
000310 00 00 00 00 90 b4 f8 2e 2d 26 84 2f 50 ce ec 2d
       0.0 1.13098086e-10 2.4037786e-10 2.6921715e-11
000320 a8 c5 fa 30 a5 2b df 2d 00 00 00 00 2c 1e f5 2e
       1.8246071e-09 2.5371547e-11 0.0 1.114667e-10
000330 f1 c4 83 2f 01 71 ec 2d 22 9b 03 31 04 9b 08 2e
       2.3968696e-10 2.6880278e-11 1.9151192e-09 3.10605e-11
000340 00 00 00 00 18 a4 00 2f 29 43 85 2f df e3 ec 2d
       0.0 1.169983e-10 2.424028e-10 2.6931289e-11
000350 3f cf 02 31 d7 c0 08 2e 00 00 00 00 df 46 fe 2e
       1.9035296e-09 3.1094096e-11 0.0 1.1563172e-10
000360 fb 76 84 2f 6f 20 ed 2d d4 4b 05 31 39 9a 0c 2e
       2.40952e-10 2.6958184e-11 1.939715e-09 3.1969292e-11
000370 00 00 00 00 d5 35 03 2f 3c f6 84 2f 63 5d ed 2d
       0.0 1.1933506e-10 2.418562e-10 2.6985253e-11
000380 8c 8d 06 31 c8 ad 15 2e 00 00 00 00 5e 2b 03 2f
       1.9580026e-09 3.4033026e-11 0.0 1.1929788e-10
000390 bb 4a 87 2f ac 7d ed 2d bb 2d 05 31 95 c7 13 2e
       2.4609456e-10 2.699959e-11 1.9380042e-09 3.3601195e-11
0003a0 00 00 00 00 b2 24 01 2f e5 63 85 2f 48 c3 ed 2d
       0.0 1.1745518e-10 2.4263538e-10 2.7030503e-11
0003b0 dd 1e 07 31 48 96 16 2e 00 00 00 00 1f 5c 04 2f
       1.966263e-09 3.4239528e-11 0.0 1.2038058e-10
0003c0 d7 c6 82 2f b6 9d ed 2d e1 c9 06 31 62 f2 13 2e
       2.3788146e-10 2.7013818e-11 1.9614321e-09 3.363921e-11
0003d0 00 00 00 00 ce 53 03 2f 36 af 82 2f 98 0c ee 2d
       0.0 1.1944154e-10 2.3771357e-10 2.706306e-11
0003e0 75 b8 06 31 1e a2 11 2e 00 00 00 00 b7 9d 03 2f
       1.9604418e-09 3.3113172e-11 0.0 1.1970412e-10
0003f0 1b 65 83 2f 0d b2 ed 2d c6 7d 07 31 b7 9f 14 2e
       2.39006e-10 2.7022851e-11 1.971658e-09 3.379316e-11
