results/run1/MazeBrain/MazeBrain-1587339.pt (torch, 999827 bytes, 39 tensors)

network_body._body_endoder.seq_layers.0.weight f4 [128, 186]
000000 17 ab 5a 3e db 82 69 3d 86 c1 40 bd 07 67 f1 3c
       0.21354328 0.05700956 -0.04705956 0.029468073
000010 66 9c 2d bd 58 09 30 bb 28 ee 9d 3d bb 4c 84 3d
       -0.04238548 -0.0026861038 0.0771144 0.06459948
000020 ef 66 a2 bd f3 54 47 3d 9f 38 b5 bb 0f eb 2a 3d
       -0.07929789 0.048665 -0.0055304314 0.041728076
000030 b9 4d e7 bd 22 5f f2 3c 89 b5 08 3d c0 25 bd bd
       -0.11294121 0.029586378 0.03337625 -0.09235716
000040 3a 59 a3 3c d4 10 a2 3d 7d 49 45 bd 87 bf d7 3c
       0.019940007 0.07913366 -0.048165787 0.026336445
000050 e0 1c 39 3c fb df f7 bc 6f 54 bf 3c 5b b5 13 bd
       0.011298388 -0.03025817 0.02335569 -0.036061626
000060 11 00 b5 3d 59 2e dd 3d 96 55 4e 3d 99 56 9f 3c
       0.08837903 0.10799856 0.05037459 0.019450473
000070 d9 1f d3 3c b0 ea b0 bd b8 8b 47 bd 41 52 4d 3a
       0.025772022 -0.08638513 -0.04871723 0.0007832386
000080 cc 8c d8 bd 2d 46 27 3e a1 98 f8 bc 13 28 c8 bc
       -0.1057373 0.16335364 -0.030346217 -0.024433171
000090 25 e5 ff bc 71 76 55 3c 1f 8a b1 3d 5b b4 5b bd
       -0.031237194 0.013028727 0.08668923 -0.053638797
0000a0 bc 45 8d 3d 9e a5 b8 3c 6d 36 5f be 48 a9 be bc
       0.068980664 0.02253991 -0.21798106 -0.023274079
0000b0 9a ab e5 bd fc 64 07 3e db 3c 9b 3d 2d 7a 7f bc
       -0.11214371 0.13222116 0.07579967 -0.015593094
0000c0 65 f1 b0 bd ff a4 07 3d ea fa cd 3d 49 0b 4e 3d
       -0.08639792 0.033116337 0.10057624 0.05030373
0000d0 b5 4c f7 bc 24 1c 06 be 8e 87 aa bd a7 e5 9e bd
       -0.030187944 -0.13096672 -0.08326636 -0.077586465
0000e0 82 5a 2e bd ee 63 0c 3e 09 7c 8e 3d fd 34 a0 bd
       -0.042566784 0.13709995 0.069572516 -0.07822607
0000f0 07 ad b7 bd 28 e7 03 3c 37 0c e6 bc fc e8 9e bd
       -0.08968549 0.008050717 -0.028081996 -0.07759282
000100 95 c9 94 bd b4 3b 07 be 5f a9 4e 3c 74 8c dd 3c
       -0.07265011 -0.13206369 0.012613623 0.027044512
000110 cb 3b 36 bd ec 32 44 bb 39 96 8d bd 39 ac a5 bd
       -0.044490617 -0.0029937578 -0.06913418 -0.080894895
000120 05 11 33 3d 34 90 01 3e a5 91 2f bd 98 af 02 bb
       0.043717403 0.12652665 -0.042863507 -0.0019941088
000130 04 ed 3d 3d 02 55 37 3d cf 6b fe 3b 1b dc 80 bd
       0.046368614 0.044758804 0.0077643166 -0.06291982
000140 18 30 de bd a2 3f 5c bc b0 b4 b4 3d d5 80 f0 bd
       -0.10849017 -0.013442906 0.08823526 -0.11743323
000150 2f 70 f4 3d 86 c6 83 3d 49 d6 8a bd ba f9 c5 bc
       0.1193546 0.0643435 -0.06779153 -0.02416693
000160 f3 39 77 bd 35 41 86 3c 50 4a 07 be a6 f5 6c bd
       -0.060358 0.016388515 -0.13211942 -0.057851456
000170 24 e7 c1 3d 9a 1d b3 3c e8 1a 52 3d 74 05 15 3c
       0.09467915 0.021864701 0.05129519 0.009095538
000180 1a 43 8b 3d 98 83 1f 3e 62 33 dc bd 3e d2 67 3d
       0.06799908 0.15577543 -0.10751988 0.056596987
000190 87 7d e6 3d b5 f1 ce bb 83 44 94 bd 10 f3 02 3e
       0.11254411 -0.006315435 -0.0723963 0.12788033
0001a0 f7 6f c0 bd a3 76 2e 3d 1d e6 56 3d 4f 17 c7 bc
       -0.093963556 0.04259361 0.052465547 -0.024303107
0001b0 98 50 74 3d f4 cf ae bc 71 dc 76 bd 22 a4 32 3c
       0.059647173 -0.021339394 -0.060268823 0.01090339
0001c0 4f 77 00 3e 46 23 02 bd 97 9e 03 be 60 6a 26 bd
       0.12545513 -0.03177192 -0.12853466 -0.04062879
0001d0 06 ee 39 be 2e a9 82 bd 1e b7 59 3d 6d 25 b8 bd
       -0.18157205 -0.06379925 0.05315315 -0.089915134
0001e0 c5 5d a0 bd 22 54 51 bd 19 66 16 be 6a 93 db 3c
       -0.07830385 -0.051105626 -0.14687385 0.026803691
0001f0 75 bb a0 bc 64 4f 9f bc 21 13 85 3d ff c3 8d ba
       -0.019620636 -0.019447036 0.06497789 -0.0010815858
000200 d5 7e e3 bc 4e 7e c6 3d 39 64 10 be 8c 24 cc bd
       -0.02777044 0.096920595 -0.14100732 -0.09967908
000210 39 6f 2a bd 24 ea b0 bd b4 5c d9 3c ca 11 1d 3d
       -0.041609976 -0.08638409 0.026533462 0.038347043
000220 e1 90 c4 3c 59 64 3f 3d ef 59 8f 3d df 74 84 bc
       0.023994865 0.04672656 0.06999575 -0.01616901
000230 99 4a 3e 3d 8e d2 5e bb 69 b1 27 bc 3c 28 0a bc
       0.04645786 -0.0034000012 -0.010235169 -0.008432444
000240 ea a6 be 3c 2e 68 0c bd 18 c7 28 bd c4 29 30 3d
       0.02327295 -0.03427904 -0.041205496 0.04300858
000250 ca 92 3c bc d5 64 60 3d 96 69 4c 3c 18 30 93 bd
       -0.011509607 0.05478366 0.0124763455 -0.071869075
000260 f5 c0 25 3c 7e 86 bf 3c 64 87 87 bd 1c 86 04 3c
       0.010116805 0.02337956 -0.066176206 0.008088615
000270 bf 3b d2 bd 80 c6 40 3b 93 2a 6c bc 67 bd 64 bd
       -0.10265302 0.002941519 -0.014414447 -0.05584469
000280 58 6c a4 bd b3 9d c8 bd 95 d5 80 bd ba 11 06 3e
       -0.080284774 -0.09795704 -0.062907375 0.130927
000290 14 7f a6 bd 26 3d 82 3c 53 48 4b 3d 59 65 4c 3d
       -0.08129707 0.015898298 0.04962952 0.04990134
0002a0 7f 21 bb 3d fc cc cf ba 03 a2 f0 bc 48 67 e4 3d
       0.09137248 -0.0015853937 -0.029374128 0.11152512
0002b0 4e c2 b6 3c 41 49 af bc 2f d0 9f bd 80 05 d6 3d
       0.022309449 -0.021397235 -0.0780338 0.10450268
0002c0 51 96 95 bc 8c 38 b6 3b fd 5c 3a be c2 31 98 3d
       -0.018260153 0.00556094 -0.18199535 0.074313655
0002d0 2b eb 9b bc 6c 22 6f bd c7 7f f4 bd 8f 3e 1c 3e
       -0.019033035 -0.058382437 -0.11938434 0.15258239
0002e0 98 38 33 3c 9c 38 9e bc ff a7 2b 3d 57 46 24 bd
       0.010938786 -0.019314103 0.04190826 -0.040106144
0002f0 83 e2 4f 3d 89 73 51 3e e9 9b a5 3d c8 22 71 3d
       0.050753128 0.2045423 0.08086378 0.05887106
000300 c8 c7 5d bd 49 e6 c6 bc c8 11 75 bd 63 62 45 bd
       -0.054145604 -0.02427973 -0.05983141 -0.048189532
000310 05 4e 15 3d f1 47 ff 3d 54 d4 22 bd 5d 23 16 be
       0.03645136 0.124648936 -0.039753273 -0.14661928
000320 5d f8 17 bc 1f cb 25 bc eb f0 8a bc 7d f7 46 3e
       -0.009275523 -0.010119229 -0.016960582 0.19430347
000330 7d 18 a0 3c 91 bb fd bd ed 14 5b 3c 20 d8 a2 bc
       0.019542927 -0.12389291 0.013371688 -0.019878447
000340 e5 7b 96 bc a1 99 ae 3d 32 a1 5f bd 64 3f 02 bd
       -0.018369624 0.08525396 -0.054597087 -0.031798735
000350 b1 c5 e0 3c 9c aa 73 3d c6 2e 86 3d 35 87 f9 3d
       0.027438017 0.059488878 0.0655189 0.12183992
000360 0e 1d 28 bd 13 c4 96 bd 95 67 15 bd d8 44 09 be
       -0.041043334 -0.07361617 -0.036475737 -0.13405168
000370 44 b3 20 be b7 7a bf bc 39 eb cb 3c 8b 4e 96 3a
       -0.15693384 -0.023373945 0.024892436 0.00114675
000380 0a 8e 70 bd c6 46 66 bd 5c 3a 0b 3e d0 d3 2b bb
       -0.05872921 -0.05621984 0.13596481 -0.002621878
000390 eb d3 46 3a 55 ba 47 3d 47 07 89 bd 05 ce 0c 3b
       0.0007584679 0.048761684 -0.06690841 0.0021485102
0003a0 d3 24 d9 3c e3 c9 13 bd ac b1 25 bd e9 6a d6 3b
       0.026506817 -0.036081206 -0.040452644 0.0065435064
0003b0 f8 e2 5c 3c 29 25 b7 bd 44 53 81 bd 49 a0 65 bd
       0.013481848 -0.089426346 -0.0631471 -0.056061063
0003c0 7b 72 25 be 44 fe ef 3d a6 d6 54 3b 67 84 2b bc
       -0.16156952 0.11718419 0.0032476573 -0.010468579
0003d0 ca 18 bc bd ca fc 20 3c 77 2b 0f 3d 0b e4 55 bc
       -0.09184416 0.009825895 0.03495356 -0.013054858
0003e0 d4 0d 59 3c 44 22 b3 3d 1d a3 71 bd a1 f5 3b 39
       0.013247926 0.0874677 -0.058993448 0.00017925214
0003f0 a7 66 eb 3c 8b fc 53 3d 50 da 20 bc 6e b2 cb 3c
       0.028735472 0.051754516 -0.009817675 0.024865355

network_body._body_endoder.seq_layers.0.bias f4 [128]
000000 cb 2d 76 3c ea 31 15 bd 52 e2 30 bb 6d 2c 10 3d
       0.015025566 -0.036424555 -0.0026990366 0.035198618
000010 fb b0 41 bd 97 75 c6 3b d8 0e 7c bc 6b a0 6f bc
       -0.047287922 0.0060564983 -0.015384398 -0.014625649
000020 98 9c 6a bc 52 06 85 bc e0 5a 69 bc 14 82 c7 bc
       -0.014319561 -0.016238365 -0.014242858 -0.024354018
000030 85 15 d3 bb 0d e8 ad 3c d5 cc bb bc 19 50 cd bc
       -0.0064417743 0.021228814 -0.02292482 -0.025062608
000040 65 5d 88 3c 7b 40 08 bc 91 5f 02 bd 1a 4c 19 bc
       0.016646096 -0.008316155 -0.03182942 -0.009356523
000050 82 2f 0e bd cc a7 2a bc cb ea 57 bc 82 45 83 3c
       -0.034713276 -0.010415982 -0.013178538 0.016024355
000060 7d d9 be 3c e3 b9 18 bd ca 11 e2 3c 47 26 76 bc
       0.023297066 -0.03728665 0.027596373 -0.0150237745
000070 6e c3 ab 3c b6 7b f6 3b ea 3d 8c 3c a3 6f e3 bc
       0.020967212 0.0075220717 0.017119367 -0.027763193
000080 39 dd 07 3c 25 dd 13 bc 55 ba 24 bd 2a c4 d8 3c
       0.00829249 -0.009024893 -0.040216763 0.026460726
000090 06 df d0 ba d1 e7 b8 bc 9e a5 10 3c d1 c1 83 bc
       -0.0015935607 -0.022571476 0.008828549 -0.01608363
0000a0 e0 81 19 bc 0b 6e 7d bb 74 d5 32 bc b8 11 cd 3c
       -0.0093693435 -0.0038670327 -0.010915149 0.025032863
0000b0 05 6c f4 3c f8 69 24 bc 3e d7 ad 3c 7f 9e 7a 3c
       0.029836664 -0.010035031 0.0212208 0.0152965775
0000c0 2e b7 9c 39 d1 df 03 bd de f6 52 3b 70 a8 f7 3c
       0.00029891118 -0.03219587 0.0032190601 0.030231684
0000d0 0e 97 4e bb af 42 9c 3c cc 11 bd 3c 3a 34 df 3c
       -0.003152314 0.019074766 0.023079775 0.027246583
0000e0 62 c2 0a bc 44 2d f4 bc f1 6e 2c bd fa bb 26 3d
       -0.008469196 -0.02980674 -0.04209799 0.040706612
0000f0 ce d8 10 3c 48 0b 93 3c 16 e0 06 3d 2b f3 03 bd
       0.008840753 0.017949715 0.03292855 -0.032214325
000100 ab 9c 0f 3c 53 b2 72 3c b2 b9 3a 3d a3 d4 77 bc
       0.00876538 0.014813024 0.04558725 -0.01512638
000110 7d 70 fd 3c 6b ca 35 bc 1e 63 bb bc f3 23 3d 3c
       0.030937428 -0.0110956235 -0.022874411 0.0115442155
000120 9d a6 85 3c b5 df b9 3c 44 e4 e8 3c 33 b3 51 bd
       0.016314799 0.02268968 0.028429158 -0.05119629
000130 bf ab 18 bd df dc b4 3c 1c d0 5c bc 6c cc b5 bb
       -0.037273165 0.022077976 -0.0134773515 -0.0055480506
000140 a4 4d 60 3c 9d 17 17 3d 83 e1 98 bc 3b ae d5 3b
       0.013690386 0.036887754 -0.01866222 0.006521014
000150 05 c2 a7 3c 8f ea 6c bb 55 fa 58 3a 2f c0 fd 3b
       0.020478258 -0.003615055 0.00082770485 0.0077438573
000160 dd 44 d9 bc de 45 9c bc 96 47 a7 3c 8d bd c1 bc
       -0.026522094 -0.019076284 0.020419877 -0.023649955
000170 a1 45 51 3b 78 77 88 bc 7c c6 a5 3c 63 c5 32 3c
       0.0031932371 -0.01665853 0.020236246 0.0109113185
000180 34 54 0a 3c aa 7d d3 bc cb 25 3c bb 38 34 81 bb
       0.008442927 -0.025816757 -0.002870905 -0.0039429925
000190 3b c5 87 3c 89 36 a0 3c 22 da c2 b8 ad b4 6d bb
       0.016573539 0.019557254 -9.291271e-05 -0.0036271021
0001a0 0c a4 4e 3d b9 83 4d 3c 5b 8f 51 3a 1a f6 1f bc
       0.050449416 0.012543612 0.0007994079 -0.009763265
0001b0 bf 9f 65 3c b1 2a 38 3a 12 47 8c bd 8b cd 49 bd
       0.014015137 0.00070254045 -0.06849493 -0.049268287
0001c0 17 ae 91 bc 30 74 27 bc f1 a9 43 bd 0c 58 24 bd
       -0.017783208 -0.010220572 -0.04776949 -0.04012303
0001d0 5b a1 f2 3b b1 2e 29 3d ba d1 40 bc e7 38 bc 3c
       0.007404489 0.041304294 -0.011768753 0.022976352
0001e0 19 63 73 bd 1b 6e 90 3c a6 a8 25 bd 5d f0 d7 3a
       -0.05942068 0.017630627 -0.04044404 0.0016474832
0001f0 3f fd 4b 3c 9c c6 ad 3c c7 71 2f 3b f1 6c 8b bc
       0.012450515 0.021212868 0.0026770697 -0.01701972

network_body._body_endoder.seq_layers.2.weight f4 [128, 128]
000000 12 30 31 3b b8 08 96 3d 16 3f 9d bd 19 78 63 bd
       0.0027036709 0.07325882 -0.07678048 -0.055534456
000010 39 0c 53 3d 23 ca 25 3d e6 42 11 3e 42 01 01 bd
       0.05152533 0.040475976 0.14185676 -0.03149534
000020 5a f1 98 bc 08 9c cb 3d 71 45 1c bd 2f 82 e8 bd
       -0.018669773 0.0994187 -0.038152162 -0.113529555
000030 11 cf af bd 1b 92 5e bb 9f 11 c3 bb 81 22 71 bd
       -0.08584417 -0.0033961597 -0.0059530283 -0.058870796
000040 9e 5d f3 bc 54 e1 e5 3d 29 33 c4 3d da eb 00 bd
       -0.029707726 0.112246186 0.095800705 -0.031474926
000050 d2 ee 01 be 65 ea 88 bd 1a dd 31 3d a4 25 a4 3d
       -0.12688759 -0.06685332 0.04342375 0.08014992
000060 69 b3 b1 3d a0 37 93 bd c4 a8 e3 3d a0 6a 2b 3e
       0.08676798 -0.07188344 0.11116174 0.16739893
000070 22 df db bd a2 cd 60 3c 5a 1f f2 bd 00 73 12 3d
       -0.107359186 0.013720902 -0.11822386 0.035754204
000080 c9 6b a2 bd e6 3e 11 bd c8 a0 d3 bc 97 ec b1 3d
       -0.07930715 -0.035460375 -0.025833502 0.08687704
000090 0d f0 2f be 6c 38 b2 3c a5 2f 06 be a6 61 0c 3d
       -0.17181416 0.02175542 -0.13104112 0.034272812
0000a0 c8 17 e8 3d 91 79 50 bd e2 1b 80 3b 87 fd cf 3b
       0.11332661 -0.050897185 0.003909574 0.0063473615
0000b0 5f f8 ad bc d9 78 e3 bc 41 88 3c be 12 b9 10 3e
       -0.021236597 -0.027767586 -0.18411352 0.14133099
0000c0 05 ef ba 3b 12 d6 d8 bc fc aa 0f 3e 32 e5 ed 3d
       0.005704763 -0.026469264 0.14030069 0.11615981
0000d0 74 66 02 be 88 11 28 3d c3 0f 09 be 13 53 2a bc
       -0.12734395 0.041032344 -0.13384919 -0.010395783
0000e0 72 6c 90 37 f6 dc dd bc 9b 47 4f 3d 2f 68 ed bd
       1.7216636e-05 -0.027082901 0.050605398 -0.11592137
0000f0 2a 8e 7c bc 3a 02 4e 3c 44 cd 55 bd 73 96 06 bd
       -0.015414754 0.012573773 -0.05219771 -0.032858323
000100 17 67 b6 3c ff 90 c8 3d 5f 67 e0 3c 82 bc 2e 3d
       0.022265954 0.09793281 0.027393041 0.042660244
000110 85 c5 ab 3b 05 bd 36 be 3d 10 b6 3c 5e fa 60 bd
       0.005242052 -0.17845543 0.02222454 -0.05492627
000120 39 6d e2 bd b2 90 09 3e b0 01 f9 3c 1b 5b b5 bd
       -0.11055989 0.13434103 0.030396312 -0.088552676
000130 00 7c 25 bd 81 d4 54 be b9 af 49 3c 58 e1 13 3e
       -0.04040146 -0.20784189 0.012309962 0.1444143
000140 2f 9d 3d bc 95 d3 da 3c 92 5c 9c 3d 25 f0 8d 3c
       -0.01157312 0.026712218 0.07634844 0.017326424
000150 f0 74 1f bd 56 e8 7b 3e 49 9c 5f 3e 21 a0 43 be
       -0.03892988 0.24600348 0.21836962 -0.19104053
000160 a8 29 70 3c f9 f5 de bc 86 7f 74 bc 5e e1 35 bb
       0.014658369 -0.027216898 -0.014922982 -0.0027752738
000170 70 9b 92 3c 21 b7 8c 3d 05 f1 95 bc 70 e6 27 3e
       0.017896384 0.068708666 -0.018303404 0.16396499
000180 78 7f ae be 42 53 a0 bd 83 5f 1d 3e e7 17 f3 3d
       -0.34081626 -0.0782838 0.15368466 0.118697934
000190 d6 ac c4 bd 46 b9 58 bd 05 87 86 3d 24 1d 2c 3e
       -0.09603278 -0.052911066 0.06568722 0.16807991
0001a0 fe 35 00 3e 88 78 0a 3d a3 59 34 3c db 4b 2f 3e
       0.12520596 0.033806354 0.011007699 0.1711878
0001b0 22 7a 97 3b 09 2a ca bd d9 e1 1c be 29 80 7c bd
       0.0046227137 -0.09871299 -0.15320529 -0.06164566
0001c0 79 39 a2 bd a7 23 3b 3d 1e fc c4 3d 91 5d 23 be
       -0.07921118 0.045688298 0.096184 -0.15953662
0001d0 ec 22 d7 bd c5 8f 93 3e 7e 08 7a bc 3c 60 6e bd
       -0.10504708 0.28820625 -0.015260814 -0.058197245
0001e0 b7 18 63 bd 66 a5 cd bc ec 4c e1 bd 20 3d 2f bd
       -0.05544349 -0.025103282 -0.11001 -0.042782903
0001f0 48 73 f0 3d c3 e1 22 bc 42 ce e9 bc 8d ce c2 bc
       0.11740738 -0.009941521 -0.028540734 -0.023780132
000200 9f 3a 92 bc e8 fc e0 bd e8 ef 74 3d 62 d6 16 bd
       -0.017850218 -0.10985738 0.059799105 -0.036825545
000210 f8 fb 08 be 93 cd b4 3d 2e f2 31 be a3 54 2c 3e
       -0.13377368 0.08828273 -0.1737754 0.16829161
000220 1e b3 52 3d ad e6 04 be 95 e8 0f 3e 34 d7 8f bd
       0.05144035 -0.12978621 0.14053567 -0.070234686
000230 c8 6f 1e be 03 c7 cd 3d 6e ea dc 3c 20 12 27 be
       -0.15472329 0.10047724 0.026967254 -0.16315508
000240 e9 fc 74 3e 70 d0 4d 3d a3 fc 83 bd 75 76 83 bd
       0.23924603 0.05024761 -0.06444671 -0.06419078
000250 ae fa f7 bc a8 46 df ba b3 85 b1 3c 97 52 c5 bc
       -0.0302709 -0.0017034607 0.021670198 -0.024087233
000260 93 91 d4 3b 4c 6f 90 bd e6 a9 94 3d f7 67 6b 3d
       0.0064870804 -0.07052478 0.07258968 0.057472195
000270 67 2a 06 bd 11 a8 c9 bd 45 ba dc bb 9a 0e e6 3d
       -0.03275528 -0.09846509 -0.0067360722 0.11233254
000280 e0 e5 84 bd 25 00 3d 3d 78 30 f1 bd ea 8a 01 bd
       -0.06489158 0.046142716 -0.11776823 -0.03162662
000290 2d f9 33 be e6 16 40 bd 11 c3 28 bd 67 08 05 3e
       -0.17575522 -0.046896838 -0.041201655 0.12991486
0002a0 c7 3b 12 3c f5 a3 ac 3d 73 34 47 3d f1 ce e2 3d
       0.008925385 0.0842971 0.048634004 0.11074627
0002b0 c3 d2 16 3d 4e 32 c4 bb e1 5f 48 bc 68 23 37 3d
       0.03682209 -0.005987442 -0.012229891 0.0447115
0002c0 90 a7 95 b9 ba b0 5c 3d 1a 15 f9 bc 45 a9 88 3d
       -0.00028544338 0.053879477 -0.03040557 0.066729106
0002d0 bc 00 a1 3c 89 28 1e be 8b fd c7 3c 6d 7e a5 3c
       0.01965367 -0.1544515 0.02441289 0.020201886
0002e0 a4 4f e0 bc d5 fa 30 3d 2f a4 bb 3d d0 ef c8 bc
       -0.027381726 0.043207962 0.09162175 -0.024528414
0002f0 4d d0 a0 3d ea 82 8b bd 80 2c e7 bd 0e 5a d0 bd
       0.0785223 -0.06812079 -0.112877846 -0.101734266
000300 e4 a7 01 be bc cc c4 bc ae ad db bd 25 e8 81 bd
       -0.12661701 -0.024023406 -0.10726486 -0.06343106
000310 1f 15 ca 3d e4 f1 65 3e 72 94 fe bc 39 b0 8d bd
       0.0986731 0.22455555 -0.031076644 -0.069183774
000320 c1 d7 7d 3e 90 06 ef bb d6 31 33 3a 75 00 1e 3e
       0.24789335 -0.0072944835 0.0006835734 0.15429862
000330 05 be 9d bd 3a b7 5d bd be f8 cc 3b 91 df 14 be
       -0.07702259 -0.054129817 0.0062552383 -0.14538409
000340 77 da f1 bd ff c7 bc bd 80 08 be 3c 75 62 ae 3d
       -0.11809247 -0.09217834 0.023197412 0.08514873
000350 5e 77 2f 3e d8 40 2b be 61 ec f1 bd 4a 8c 62 3c
       0.17135379 -0.16723955 -0.11812664 0.013827393
000360 19 4c 87 3c 1e 63 cc bb 1e 02 3f 3d 34 9e ab bd
       0.016515778 -0.0062374016 0.04663288 -0.08379784
000370 63 21 28 bd 6c 2e cc bd b1 09 91 bd ae fa 0b 3e
       -0.041047465 -0.09969792 -0.070819266 0.13669845
000380 4d ec 88 bd 3f 44 2b 3c 1f f2 da 3d bf 90 b9 bd
       -0.06685696 0.010453283 0.10690712 -0.09060811
000390 d6 f1 14 be 6a f1 0d be d1 a7 70 3c 59 82 91 3d
       -0.14545378 -0.13861623 0.014688448 0.0710494
0003a0 00 71 99 bd 17 98 9b 3d 47 0e 1b 3e cf 4e 9a bd
       -0.07492256 0.07597368 0.15142165 -0.07534563
0003b0 e1 c5 d3 3d 3d 4c 85 bd 34 5c af 3d f7 51 b0 3d
       0.10340477 -0.06508682 0.08562508 0.086093836
0003c0 e0 fb b1 3d 78 b8 f7 3c 84 75 49 3d 0c b8 26 be
       0.086906195 0.030239329 0.049184337 -0.16281146
0003d0 c4 1a a2 bd dd 2c 2c bd 05 51 1e be 64 53 68 bd
       -0.079152614 -0.042034972 -0.15460594 -0.056720152
0003e0 58 21 44 3d bf 55 bd 3d f2 5e f3 bc 30 ff d3 bd
       0.04788336 0.092448704 -0.02970836 -0.103514075
0003f0 24 f4 9c 3e 63 58 8a bd 3b 27 9e 3c 20 e6 01 3e
       0.30655015 -0.0675514 0.019305816 0.12685442

network_body._body_endoder.seq_layers.2.bias f4 [128]
000000 9b ad ce bb 69 6b 3e bd 3c c6 76 bd df dc 17 3d
       -0.0063073165 -0.046489153 -0.060247645 0.037075873
000010 03 55 2e bd 88 07 94 bd 67 03 87 bb dc 80 41 bb
       -0.042561542 -0.07227999 -0.0041202786 -0.002952627
000020 09 87 75 bd 49 57 17 3d 7e ca 26 bc 8d 1d 0e 3d
       -0.059943233 0.036948476 -0.010180114 0.03469615
000030 2e d3 47 3d 1a 4e 36 3d 3d a3 8a bc 30 ad 0b 3d
       0.04878538 0.044508077 -0.016923541 0.03410071
000040 e4 12 08 bc 6d 50 ca bb af d1 92 bb 98 7c a0 bc
       -0.008305285 -0.0061741383 -0.0044805626 -0.01959066
000050 dd 42 4e 3d 00 9b 08 3d ec 1a 92 3c af 00 05 bc
       0.050356735 0.033350945 0.017835103 -0.008117839
000060 13 f5 a2 3c 74 d8 b8 ba 06 b5 70 bc bb 47 4a 3b
       0.019892251 -0.0014102594 -0.014691597 0.0030865509
000070 d6 c6 1e bd 87 c2 5d bd fe 0a 08 bd fd 4d de bc
       -0.038763843 -0.054140594 -0.033213608 -0.027136797
000080 5f 2f fd bc e2 27 23 3d 50 ea 25 3d 09 72 c2 3c
       -0.030906377 0.039832957 0.04050666 0.023736017
000090 13 86 83 3c b8 42 91 3b 21 62 30 bc 58 e5 20 bd
       0.016055143 0.0044330023 -0.010765583 -0.03928122
0000a0 26 94 11 bd 5b 20 9c 3c 3f d7 08 3c 5f e2 38 bd
       -0.035541676 0.019058397 0.0083521 -0.04513776
0000b0 fb ce 51 bd aa d5 ca 3c 60 2d ef 3c aa e9 02 bd
       -0.051222783 0.024760086 0.029196441 -0.03196112
0000c0 12 78 95 bc e7 11 83 bc a7 ea a5 ba 1d 2b 7f 3d
       -0.01824573 -0.015999747 -0.0012658433 0.062296975
0000d0 11 8b 76 3c ab 96 02 bd 0a 63 21 3d 13 8d 60 3d
       0.015047804 -0.03188197 0.03940109 0.05482204
0000e0 ff da 27 bd 06 2e d4 3c 1a be 54 3c ae f7 f0 3a
       -0.040980335 0.025900852 0.012984777 0.0018384361
0000f0 ff 07 24 bd d7 15 c6 3b 6e fb 31 3b 0c a6 52 3c
       -0.04004669 0.006045084 0.002715792 0.0128569715
000100 20 cb 22 3d fb c2 c4 3b f5 62 fd bc 6f 86 54 bc
       0.039744496 0.006004689 -0.030930975 -0.012971505
000110 e6 35 45 bd dc 4b ac bd 8f c8 fd bc 68 7e 77 bd
       -0.048147105 -0.084129065 -0.030979423 -0.060423285
000120 51 fe 1d bd d7 fe ca 3c 99 3e 52 3c 23 2c 98 bc
       -0.038572613 0.02477972 0.012832307 -0.018575734
000130 c8 51 b1 bc 0b 48 fa 3c fc 60 80 bc a2 c6 3b bc
       -0.021645442 0.03055193 -0.015671246 -0.011460932
000140 7b 37 ae bc 35 c4 e9 3c 85 28 84 3c 86 70 3d bc
       -0.02126669 0.028535942 0.016132602 -0.011562472
000150 68 91 9b bd 66 e1 5e bd 42 f3 db 3b bd 6e cc 3c
       -0.075960934 -0.054414175 0.006712348 0.024955148
000160 16 29 93 3a 12 00 0b 3d 77 45 66 bd 6b 54 35 bd
       0.0011227455 0.033935614 -0.05621859 -0.04426996
000170 29 91 99 bd b1 63 38 bd 23 3a de bc 23 27 8a bd
       -0.0749839 -0.045016948 -0.027127331 -0.06745746
000180 bb 5f b8 3c 4e 01 ea 3c 0f 35 86 bc b9 8b 0f bd
       0.022506585 0.028565075 -0.016382722 -0.03504536
000190 48 11 20 bb 53 e4 f0 3c eb d6 a8 bb 27 a8 7f bb
       -0.0024424363 0.029405748 -0.0051525733 -0.0039010139
0001a0 d9 b4 a7 bc c6 f1 00 bd 89 40 11 3d f7 94 1d 3b
       -0.020471977 -0.031480573 0.035461936 0.0024045089
0001b0 73 8e 8b bc cf e0 8a 3b 0f f0 67 3d 79 90 bd 3a
       -0.017035699 0.004238225 0.056625422 0.0014462612
0001c0 2e 85 4c bc e6 42 2c bd b6 6b 4d bb 52 a0 07 3d
       -0.012482924 -0.042055987 -0.0031344718 0.033111878
0001d0 08 4d 2d 3d 1d 3b cc 3c a6 73 28 bd bb d4 33 3c
       0.04230979 0.024930531 -0.041125916 0.010976012
0001e0 cc d6 3f 3c 31 0b d9 3c 1a fc 02 bd 71 a3 1a 3c
       0.011708926 0.026494594 -0.031978704 0.0094383815
0001f0 2e d2 91 3c 9e 61 a4 3c a6 22 56 3a 96 22 fd bc
       0.017800417 0.020066079 0.0008168615 -0.03090028

action_model._continuous_distribution.log_sigma f4 [1, 2]
000000 c3 8b aa bd 52 4c 60 3c
       -0.08327439 0.013690071

action_model._continuous_distribution.mu.weight f4 [2, 128]
000000 c0 f8 06 3c 52 13 a7 3c e8 c5 73 3d 64 20 5f bb
       0.008238018 0.020394955 0.05951491 -0.0034046406
000010 e9 23 8f 3d 86 fc 49 3d 59 4b 0c 3c 7c 4d 35 3d
       0.06989271 0.04931309 0.008562886 0.044263348
000020 d5 9d c4 3c 24 c5 83 b9 7d 1c 08 3c 66 15 bb bb
       0.024001041 -0.00025133148 0.008307573 -0.005709338
000030 e2 af 58 bd 3e 00 c7 bc 1c 4f 36 ba bb de 2f bc
       -0.05290211 -0.024292108 -0.0006954537 -0.010734255
000040 6c fb 06 3b 00 03 84 3c a4 eb fe 3c d3 6f 4f 3d
       0.0020596636 0.016114712 0.031118222 0.050643753
000050 a6 54 78 bc b2 e6 bc bc 51 b4 3c bc ee c0 10 3a
       -0.0151569005 -0.023059223 -0.0115176 0.0005521913
000060 d3 de 98 bc 89 a9 8f 3b 23 20 01 bc 05 47 9d b9
       -0.018660938 0.004384224 -0.007881197 -0.00029998287
000070 7e 74 9f 3c 49 57 37 3c 06 c4 0d 3d c6 8b be 3c
       0.019464727 0.011190244 0.03461077 0.023260009
000080 a9 b9 05 3d 17 d0 c1 bb 21 a0 b7 bc 3d 67 43 bc
       0.032647762 -0.005914699 -0.022415223 -0.011926469
000090 a3 b6 44 bb a3 53 90 bb 79 bc 92 3c ca 89 48 3d
       -0.0030016087 -0.0044045015 0.017912136 0.04895953
0000a0 ab a9 d4 3c 89 2a 48 3c 39 df c1 ba 15 9f 47 3d
       0.02595981 0.012217172 -0.0014791257 0.048735697
0000b0 a3 19 84 3c e8 0a fd bc ff 00 c4 bc c0 6f 95 3c
       0.016125506 -0.03088899 -0.023926256 0.018241763
0000c0 ca 00 fb 3b ac 3a 18 bc 79 af 17 3d ee 69 30 bd
       0.007660006 -0.009291332 0.03703258 -0.043069772
0000d0 3e 7f 8c 3a 56 99 40 3c 92 96 c0 bb e0 7d d0 bc
       0.0010719073 0.011755308 -0.0058773244 -0.025450647
0000e0 f1 21 76 bb 48 90 34 bc 0e b7 15 bc 2a a9 31 3b
       -0.0037556852 -0.011020727 -0.009137882 0.0027108886
0000f0 37 ed 82 3d 29 52 8a bb 5e d7 96 bc 61 b5 11 bc
       0.063929014 -0.00422122 -0.018413242 -0.008893342
000100 06 3e eb bb ba 09 fa bb 12 0a ef 3a 71 6c 43 ba
       -0.0071790246 -0.007630554 0.0018237254 -0.00074548187
000110 fe f3 f6 3c 2e 3e 61 3c a5 3d e2 3c a6 96 5d 3d
       0.030145641 0.013747735 0.027617285 0.054098748
000120 6c 04 40 3d 71 9e 14 bd 05 cf a9 bc 54 b9 b9 3c
       0.046879217 -0.036283914 -0.020728597 0.02267138
000130 90 83 8f 3c 55 c5 19 bc 39 71 dd 3b 35 a8 c5 3b
       0.017518789 -0.0093854265 0.006757882 0.0060320147
000140 33 c6 4b 3c 27 89 79 ba a8 32 44 bc 56 15 2f 3c
       0.012437391 -0.00095190335 -0.011974968 0.010686239
000150 36 d3 91 3c 0b fc a0 3c e8 23 36 bc bb c3 14 bc
       0.017800909 0.019651433 -0.011116959 -0.009079869
000160 d9 30 3d bb e1 39 24 bd b9 d0 8a 3c a5 7e 59 3c
       -0.0028868227 -0.04009426 0.01694523 0.013274823
000170 d6 67 07 3d 8c e0 57 3c 11 8d 81 3b ee 13 8b 3d
       0.03305801 0.013176095 0.003953584 0.06790911
000180 0f 2c 22 bc 4b f0 dd bc 5f 30 8e bb 21 1c 21 3c
       -0.0098982 -0.02709212 -0.0043392624 0.009833367
000190 63 c2 c7 bb 29 ec d5 3a 02 54 4e 3c b0 91 6b 3c
       -0.0060961707 0.0016320992 0.012593271 0.014377996
0001a0 85 8b f7 3c 7a a5 5b bb ba 15 75 bc aa 96 6b 3b
       0.030217895 -0.003351538 -0.014958793 0.0035947957
0001b0 d0 01 09 3d b5 c4 ed 3b 15 a5 bc bc 1e 90 7c 3c
       0.033448994 0.0072561153 -0.023027936 0.01541522
0001c0 c6 cf d0 3c 28 3d 01 3b 68 d7 40 3c b6 1a a7 bc
       0.0254897 0.001972029 0.011770107 -0.020398479
0001d0 9f da 26 bd c9 b8 14 bb d1 a8 18 3c 33 51 65 bc
       -0.040735837 -0.0022693148 0.009317593 -0.01399641
0001e0 2e 9d b0 bc b6 bf 18 bd 7d 39 a9 3b 13 07 27 ba
       -0.021559324 -0.037292205 0.005164324 -0.00063715986
0001f0 e8 bb 86 3b 5d 9d 04 bd a3 05 da bb ad a8 02 3d
       0.0041117556 -0.032376636 -0.006653504 0.031899143
000200 48 65 c9 3c ba 0d 74 bb 4e 14 e4 bc 45 d3 d6 bb
       0.024584427 -0.0037239627 -0.027841713 -0.006555947
000210 e5 62 57 bd 85 df 40 bd d5 ec cd bc 81 39 0f 3d
       -0.052584548 -0.047088165 -0.025137344 0.03496695
000220 ed 76 fc 3a 14 d1 29 3d f8 dd dc bc d8 ab a0 ba
       0.0019261517 0.041459158 -0.026961312 -0.0012258245
000230 9d 85 96 3c e7 5f eb 3c f7 89 ed bc ec 3a 6f 3c
       0.018374259 0.028732253 -0.02899645 0.01460145
000240 98 0e 24 bc 7f 66 a7 3b 50 4f 4b bd 2a 94 15 3c
       -0.010013245 0.005108654 -0.049636185 0.009129563
000250 3c 78 ee 3c 94 7b d4 bc f2 0f 97 bc 9b 5f 91 3c
       0.029110067 -0.025937833 -0.01844022 0.017745784
000260 5f ac b8 bc f0 71 38 bd af d8 93 bb b2 b2 56 bc
       -0.02254313 -0.045030534 -0.0045119147 -0.013104128
000270 f5 31 dc bc fb f6 2c 3c e5 c1 d0 3b 8f f6 06 bc
       -0.02687929 0.010556932 0.0063707703 -0.008237495
000280 ef 59 04 3c 13 59 ae 3c ea 50 2d 3c 6a e8 23 bc
       0.008078082 0.021282708 0.010578373 -0.010004142
000290 a6 2f 1c bd 1c 93 9c bc 8a ae e5 3c 7a 89 51 bc
       -0.03813138 -0.019113116 0.028037328 -0.012789125
0002a0 6c 65 17 bd 44 05 ff 3c 77 e8 8a 3b f0 93 99 bb
       -0.036961958 0.03113044 0.0042391378 -0.004686825
0002b0 de f8 9d bc 16 98 f3 bb 0f 88 03 bc 8e 49 91 3b
       -0.019283708 -0.0074339015 -0.008028044 0.004433817
0002c0 64 6b 13 bd 6f 7e 51 bb 17 11 b9 3c 5f 73 db 3c
       -0.035991088 -0.003196623 0.022591157 0.026788412
0002d0 82 bc bf 3c ba c4 ea 3b 7c 40 70 3c fb 65 25 3d
       0.023405317 0.007164565 0.014663812 0.04038046
0002e0 73 53 81 bc bc 70 90 bd 1c 1f 8c bc 3f 16 80 bc
       -0.015786862 -0.070527524 -0.017104678 -0.015635608
0002f0 d7 98 89 3c 3a 19 37 bd b9 0d 1b bd f8 b1 c0 bc
       0.016796513 -0.044701792 -0.037854884 -0.023522362
000300 bc 4e 89 3c 31 02 4d bd 16 75 2a 3c 56 5f a5 bb
       0.016761176 -0.050050918 0.010403892 -0.0050467653
000310 dd 23 f9 bc 1e 22 24 bc d2 36 0d bc 57 7a 4d bc
       -0.030412609 -0.0100179 -0.008619027 -0.012541375
000320 13 18 56 3a 20 e2 d9 bc 76 70 50 bd 90 c5 fb 3b
       0.00081670395 -0.026597083 -0.0508885 0.0076834634
000330 e5 0c cb 3b 08 f4 86 3c cf 9f c8 bc ec 14 bd bc
       0.0061966055 0.016473785 -0.024490265 -0.023081265
000340 f5 61 0a bd b0 b1 dc 3c 40 c8 d7 bb c3 bc 15 3c
       -0.033784825 0.026940197 -0.006585151 0.009139243
000350 e6 50 81 bc 76 33 20 bc d1 ee 08 bd c7 5c 6d 3d
       -0.015785646 -0.009777894 -0.033430878 0.057949807
000360 c0 ef 4d bd 1d 5d 82 bc 8d d0 d6 bc 32 de 26 bc
       -0.05027747 -0.01591354 -0.026222492 -0.010184811
000370 40 ef df bc 9b 97 fa ba bf 35 9a bc 64 b3 65 bc
       -0.027335763 -0.0019118668 -0.018824456 -0.014019821
000380 e5 c7 cf bb 3a ae 74 3c 42 5b 93 3a 96 fa 84 bb
       -0.006340968 0.014934117 0.0011242407 -0.0040581925
000390 5e 45 d9 bc a4 06 f9 bc eb cf 3c 3c 0a 11 87 3b
       -0.026522335 -0.030398674 0.011524181 0.0041219043
0003a0 30 57 11 bd f4 87 01 bd 44 5f 8a 3b 23 60 03 bd
       -0.03548354 -0.031623796 0.0042227823 -0.032074105
0003b0 6c f0 64 bd aa c3 2e bd d6 71 30 3d 74 cb fa 3c
       -0.055893347 -0.04266707 0.043077312 0.030614592
0003c0 67 75 c7 3c 73 bc de 39 0a 3a 9a 3c 0e e0 df bc
       0.024347974 0.00042483545 0.018826503 -0.027328517
0003d0 c5 56 1f 3d c8 ad b4 3c d0 a8 25 bc 6a 4f f9 bc
       0.03890111 0.022055522 -0.010111049 -0.030433375
0003e0 e5 41 cf bc 39 42 58 bd 3f 04 e4 bc 0c 9a 09 bd
       -0.025299976 -0.05279753 -0.027834056 -0.033594176
0003f0 9e 7d ec ba fb 35 4d bd c4 53 18 bc 61 60 b5 ba
       -0.0018042808 -0.050100308 -0.009297315 -0.0013837927

action_model._continuous_distribution.mu.bias f4 [2]
000000 9f 41 44 bd 40 8c a9 3c
       -0.047914144 0.02069676

action_model._discrete_distribution.branches.0.weight f4 [1, 128]
000000 9a a9 86 3a 03 12 07 ba df ed 32 3c da f8 56 bc
       0.0010273934 -0.0005152525 0.010920971 -0.013120854
000010 8f 1e 5f 3b 0f e5 d8 3b f1 0b a1 3a 28 6a e0 39
       0.0034045314 0.006619103 0.0012286884 0.00042803702
000020 bf 77 91 3b 87 89 5b 3a 2d 5e 55 bc eb 02 46 bc
       0.0044393237 0.000837468 -0.013022942 -0.012085657
000030 30 b9 29 3b 70 53 0d b9 54 d1 8a 3b 34 93 4c bc
       0.0025897734 -0.00013477891 0.0042363796 -0.012486268
000040 18 67 04 bc 08 cd ff b9 ec 85 b8 bb af 15 ae bb
       -0.00808122 -0.0004879015 -0.005631199 -0.0053126435
000050 76 b9 08 3c 2f 49 bd 3c 10 eb 9b 3c 79 f2 82 3a
       0.008344999 0.023106186 0.019032985 0.0009990475
000060 c4 da ba 3a d4 8a 35 3c 0b c6 0c 3b 96 31 1a 3b
       0.0014255871 0.0110804625 0.0021480347 0.002352809
000070 ef 59 89 3c 57 ad 4f 3c 20 4f 57 bb fd aa 95 bc
       0.016766516 0.012675605 -0.0032853559 -0.01827001
000080 8c 01 0e 3c 1e 3c 20 bc 77 7c 74 3c d4 60 af bb
       0.008667361 -0.009779958 0.014922253 -0.005352119
000090 b2 ac 22 3c 80 9e a6 3b 24 61 0d 3b dd ea ee bb
       0.009928869 0.0050848126 0.0021572793 -0.0072911815
0000a0 ad b2 d7 bb e5 f2 11 bc 01 d1 14 3c b7 ad 0c 3b
       -0.006582579 -0.008908008 0.009083034 0.0021465847
0000b0 47 85 cf ba ca 1f f3 3b b0 e3 24 3b 57 7e 8e 3b
       -0.0015832566 0.007419561 0.0025160126 0.004348557
0000c0 8a 19 9b 3b 82 0f 52 3c 9f bd 2c ba 1c 03 28 3c
       0.004733269 0.01282108 -0.0006589535 0.010254648
0000d0 b5 4c 61 bc 62 65 a4 3b 43 c1 20 3b e3 26 1e bc
       -0.013751199 0.0050169686 0.0024529255 -0.009652826
0000e0 8d a0 f6 3b 89 65 83 b8 35 eb d8 bb c1 09 17 3b
       0.0075264634 -6.265479e-05 -0.0066198357 0.0023046585
0000f0 22 31 6c 3b 52 2b 31 bc 23 f4 91 bc d5 6b 5a bc
       0.0036040028 -0.010813551 -0.017816609 -0.013331373
000100 f8 84 7b 3a 0a 84 05 bb 7b 2d 5f bc aa f6 fd 3b
       0.0009594704 -0.002037289 -0.013621683 0.007750352
000110 05 e4 b6 bc 03 bd 3a bb 92 f1 db 3b b7 5c e8 3b
       -0.022325525 -0.0028494007 0.006712147 0.0070911306
000120 21 ed 0e bb 00 4f 61 bc e8 24 67 3c 96 82 4c bb
       -0.002180882 -0.013751745 0.01410792 -0.0031205765
000130 43 0e 6a 3c f5 4f ab bb 01 a5 0d bc 00 a4 36 3b
       0.014285627 -0.0052280375 -0.008645297 0.0027868748
000140 38 28 1d bc 5d da 20 3c 08 b3 fb ba 43 19 c7 3b
       -0.009592108 0.009817687 -0.0019203136 0.0060760095
000150 84 73 8f 3b 45 af 3b bc fa c3 6a 3b a2 b9 b6 bc
       0.004377784 -0.011455362 0.0035822378 -0.022305313
000160 9d 95 ea 3b 67 6d 5b bc 06 c9 af 3b a2 1f 60 3c
       0.0071589486 -0.013392783 0.00536454 0.013679417
000170 c7 70 ae 3b ec 1a b6 b7 8c e2 32 bb c7 78 83 3c
       0.0053235027 -2.1708627e-05 -0.0027295677 0.016048802
000180 54 ac 2e 3c 31 fb 0c bb a5 ec 19 3c 9e d7 12 3c
       0.010661203 -0.0021512026 0.009394799 0.00896254
000190 15 1a 77 bb d2 b5 86 3b 86 35 32 b8 c8 e6 73 bb
       -0.0037704755 0.00411103 -4.2488355e-05 -0.0037216414
0001a0 af 5b 60 bb e3 ee 29 bc 3a e0 be bb d8 12 58 bb
       -0.0034234335 -0.010371896 -0.0058250697 -0.0032970216
0001b0 8f bc c3 ba e0 1e 22 3b e7 cb f0 3b 0f 38 95 bb
       -0.0014933514 0.0024737641 0.007348526 -0.004553802
0001c0 15 94 54 bb c7 92 4f 3b 6f b6 ea b9 72 f3 a0 bc
       -0.0032436897 0.003167318 -0.00044767882 -0.019647334
0001d0 b8 90 9f bb 1b b4 a4 3a 59 07 18 bc cf 1a 96 3c
       -0.0048695467 0.0012565883 -0.009279096 0.01832333
0001e0 9b e5 0c bc 3a 8b 5d bc 57 44 32 bc c3 5b 68 3b
       -0.008599664 -0.013521964 -0.010880551 0.0035455085
0001f0 73 47 49 3c eb 08 b9 bb f7 c6 ba 3b f4 82 44 bc
       0.012285101 -0.005646815 0.005699988 -0.011994112

exp_avg f4 [128, 186]
000000 d9 84 6b b8 c7 da 1b 98 ed 41 c9 37 3d e4 20 b7
       -5.615209e-05 -2.0143735e-24 2.3991766e-05 -9.589884e-06
000010 00 00 00 00 6d 57 9b b7 05 9d 68 b8 a0 10 2f 98
       0.0 -1.851815e-05 -5.5459346e-05 -2.2626613e-24
000020 72 3f 88 37 bb 9b 30 b7 00 00 00 00 92 8d 82 b7
       1.6242007e-05 -1.0526676e-05 0.0 -1.5563131e-05
000030 37 0a 6a b8 5e 3a 25 98 bb 68 99 37 ba 80 2a b7
       -5.579946e-05 -2.1355218e-24 1.828779e-05 -1.0162761e-05
000040 00 00 00 00 2a 03 8c b7 3f 66 64 b8 1b c9 34 98
       0.0 -1.6690774e-05 -5.445466e-05 -2.3365987e-24
000050 b6 76 86 37 b5 c0 27 b7 00 00 00 00 48 56 82 b7
       1.6029324e-05 -9.998844e-06 0.0 -1.5537385e-05
000060 4a 4c 6d b8 20 c3 3b 98 29 b9 9e 37 f9 b0 2e b7
       -5.6576253e-05 -2.4267696e-24 1.892129e-05 -1.0412413e-05
000070 00 00 00 00 bf 80 8e b7 95 52 6c b8 58 7b 2d 98
       0.0 -1.6987671e-05 -5.6343695e-05 -2.2421999e-24
000080 25 aa 75 37 d9 db 3c b7 00 00 00 00 d5 87 7a b7
       1.4642753e-05 -1.12568605e-05 0.0 -1.4932787e-05
000090 46 75 72 b8 7f c7 27 98 b4 c7 49 37 7d 48 4f b7
       -5.7806516e-05 -2.1684964e-24 1.2027031e-05 -1.2355039e-05
0000a0 00 00 00 00 4b c3 6d b7 8d c1 74 b8 12 dc 22 98
       0.0 -1.4171771e-05 -5.835439e-05 -2.1049116e-24
0000b0 cf 4d 55 37 0f 18 51 b7 00 00 00 00 a7 60 73 b7
       1.2713906e-05 -1.2462972e-05 0.0 -1.4506432e-05
0000c0 3b bb 78 b8 cc d9 05 98 6c 6c 67 37 3a 32 54 b7
       -5.930218e-05 -1.7299806e-24 1.3793917e-05 -1.2647879e-05
0000d0 00 00 00 00 6b a2 80 b7 7d f1 77 b8 84 8a 05 98
       0.0 -1.533442e-05 -5.9114293e-05 -1.725978e-24
0000e0 6f 78 2e 37 ef 47 5e b7 00 00 00 00 d9 4a 65 b7
       1.0399249e-05 -1.32489795e-05 0.0 -1.36668905e-05
0000f0 cb 82 81 b8 b2 47 07 98 f2 35 3b 37 45 97 6e b7
       -6.1755614e-05 -1.7484538e-24 1.1158629e-05 -1.4221126e-05
000100 00 00 00 00 c4 11 73 b7 95 67 80 b8 f3 b9 f5 97
       0.0 -1.4488065e-05 -6.122809e-05 -1.5879694e-24
000110 dd d1 9a 37 d3 41 53 b7 00 00 00 00 eb b1 92 b7
       1.8455956e-05 -1.2591906e-05 0.0 -1.7487406e-05
000120 02 ae 86 b8 92 b4 dc 97 0d 79 b0 37 32 bb 5e b7
       -6.4220294e-05 -1.4262749e-24 2.1037204e-05 -1.3275816e-05
000130 00 00 00 00 04 bf a0 b7 5d ff 81 b8 3f eb 06 98
       0.0 -1.9162435e-05 -6.1987645e-05 -1.7437863e-24
000140 52 4a a0 37 3c f0 53 b7 00 00 00 00 45 00 98 b7
       1.9108094e-05 -1.2632514e-05 0.0 -1.8119938e-05
000150 28 01 81 b8 6f 8d 0d 98 6b 13 80 37 91 7f 5b b7
       -6.151415e-05 -1.8295229e-24 1.5267831e-05 -1.3083119e-05
000160 00 00 00 00 54 fa 8a b7 80 30 76 b8 a0 14 36 98
       0.0 -1.656745e-05 -5.869614e-05 -2.3533362e-24
000170 d2 3b ef 36 6c 1a 60 b7 00 00 00 00 2d c8 55 b7
       7.129719e-06 -1.3357592e-05 0.0 -1.2742396e-05
000180 b4 19 72 b8 8e 7d 34 98 bd 78 cc 36 c9 c4 5b b7
       -5.7721234e-05 -2.3327844e-24 6.0937296e-06 -1.3099235e-05
000190 00 00 00 00 7f 85 4c b7 da d3 68 b8 81 fe 4e 98
       0.0 -1.21904295e-05 -5.5510412e-05 -2.6753368e-24
0001a0 98 7a a9 36 a2 bc 50 b7 00 00 00 00 65 8c 3b b7
       5.0508643e-06 -1.2441686e-05 0.0 -1.1178757e-05
0001b0 d4 ef 62 b8 8a 4c 57 98 42 d8 74 36 61 ff 4b b7
       -5.4105956e-05 -2.7826741e-24 3.6484712e-06 -1.2159203e-05
0001c0 00 00 00 00 14 7e 2a b7 78 c3 60 b8 c0 19 47 98
       0.0 -1.01621445e-05 -5.3587806e-05 -2.5733148e-24
0001d0 fc dd 86 36 2f db 47 b7 00 00 00 00 75 f6 27 b7
       4.0193536e-06 -1.1912357e-05 0.0 -1.0011358e-05
0001e0 9d f8 4d b8 cd 9f 40 98 97 8e ca 35 94 74 2e b7
       -4.9107348e-05 -2.4896097e-24 1.5091672e-06 -1.0398351e-05
0001f0 00 00 00 00 e1 9b 0c b7 9f 62 55 b8 3f b2 47 98
       0.0 -8.380944e-06 -5.0875005e-05 -2.5810138e-24
000200 42 ef e5 36 5f 27 2b b7 00 00 00 00 45 c1 32 b7
       6.852585e-06 -1.0201561e-05 0.0 -1.0654626e-05
000210 cb 99 4f b8 f6 a0 6a 98 69 c4 9b b5 36 c5 38 b7
       -4.9495877e-05 -3.0325056e-24 -1.1605563e-06 -1.1013171e-05
000220 00 00 00 00 2a d9 ec b6 85 c1 42 b8 28 c7 6f 98
       0.0 -7.0586293e-06 -4.6433433e-05 -3.0990574e-24
000230 f7 ee c4 b6 d4 f1 30 b7 00 00 00 00 5b 4a 9e b6
       -5.8690744e-06 -1.05467225e-05 0.0 -4.717423e-06
000240 28 7d 34 b8 34 38 78 98 2b e7 2c b7 7f 4c 26 b7
       -4.3031905e-05 -3.2081624e-24 -1.0305822e-05 -9.912182e-06
000250 00 00 00 00 65 7a 12 b6 e1 54 2a b8 7b b4 6d 98
       0.0 -2.1826938e-06 -4.0610208e-05 -3.0722651e-24
000260 87 3f 21 b7 aa 03 11 b7 00 00 00 00 88 f0 15 b6
       -9.611139e-06 -8.643527e-06 0.0 -2.2342738e-06
000270 78 77 1e b8 86 45 69 98 28 6a 6f b7 ff 30 0b b7
       -3.77814e-05 -3.0149645e-24 -1.42702265e-05 -8.296453e-06
000280 00 00 00 00 4d 83 7e 34 ea bc 17 b8 15 c3 4d 98
       0.0 2.370336e-07 -3.6177145e-05 -2.659412e-24
000290 36 ec 9d b7 f5 f0 0d b7 00 00 00 00 0a aa 22 36
       -1.8825853e-05 -8.460357e-06 0.0 2.4238857e-06
0002a0 e7 82 0b b8 d3 cd 30 98 a7 c4 b4 b7 60 c5 fc b6
       -3.3262095e-05 -2.2851382e-24 -2.1549246e-05 -7.5331627e-06
0002b0 00 00 00 00 5e 0f 81 36 1f 62 fb b7 96 74 16 98
       0.0 3.8462886e-06 -2.9967223e-05 -1.9445906e-24
0002c0 07 3e c9 b7 77 47 dd b6 00 00 00 00 3d e7 b9 36
       -2.3989951e-05 -6.594633e-06 0.0 5.5403493e-06
0002d0 35 52 da b7 7d f9 1e 98 a5 48 f0 b7 02 6f c4 b6
       -2.6025906e-05 -2.054698e-24 -2.8644057e-05 -5.854178e-06
0002e0 00 00 00 00 34 d6 0c 37 03 e1 66 b7 31 02 83 98
       0.0 8.394523e-06 -1.3761458e-05 -3.386492e-24
0002f0 86 2f 7c 37 b0 e7 ed b5 00 00 00 00 cf 48 08 b7
       1.5031435e-05 -1.7725306e-06 0.0 -8.123184e-06
000300 71 3b 68 b7 35 62 4b 98 29 b3 6a 37 40 42 04 b6
       -1.3842117e-05 -2.6286717e-24 1.3989201e-05 -1.9708095e-06
000310 00 00 00 00 28 01 02 b7 42 52 6f b7 9c ee 36 98
       0.0 -7.748873e-06 -1.4264662e-05 -2.3643416e-24
000320 11 f7 72 37 99 c8 07 b6 00 00 00 00 2b 34 07 b7
       1.4481849e-05 -2.023333e-06 0.0 -8.058773e-06
000330 2d a7 6a b7 56 8b 30 98 83 17 6b 37 0d 07 05 b6
       -1.39864105e-05 -2.2817814e-24 1.4012566e-05 -1.9822648e-06
000340 00 00 00 00 e0 e9 02 b7 36 19 72 b7 06 df 38 98
       0.0 -7.803057e-06 -1.4430194e-05 -2.389404e-24
000350 06 e9 78 37 27 82 06 b6 00 00 00 00 94 96 09 b7
       1.4836207e-05 -2.0043315e-06 0.0 -8.2008955e-06
000360 72 ba 75 b7 40 9c 2a 98 2d 17 72 37 3e 07 11 b6
       -1.4646548e-05 -2.2050871e-24 1.442972e-05 -2.16109e-06
000370 00 00 00 00 72 f4 06 b7 eb 89 7f b7 21 5a 1c 98
       0.0 -8.043937e-06 -1.5231296e-05 -2.020803e-24
000380 f8 02 71 37 df 2d 21 b6 00 00 00 00 f1 31 08 b7
       1.4365411e-05 -2.401757e-06 0.0 -8.11786e-06
000390 7b 3a 83 b7 81 06 18 98 bb 42 77 37 d1 7c 28 b6
       -1.5643649e-05 -1.9648823e-24 1.4737884e-05 -2.5106604e-06
0003a0 00 00 00 00 65 62 0b b7 17 09 87 b7 95 86 f9 97
       0.0 -8.307955e-06 -1.6097487e-05 -1.6125221e-24
0003b0 f8 cc 7e 37 8e 84 2d b6 00 00 00 00 7e 88 10 b7
       1.5187303e-05 -2.5856166e-06 0.0 -8.614848e-06
0003c0 9c f3 87 b7 21 cb 04 98 22 04 73 37 8d fb 38 b6
       -1.6206694e-05 -1.7163154e-24 1.4484891e-05 -2.7564558e-06
0003d0 00 00 00 00 ef 76 0b b7 ee 81 8d b7 4f e8 de 96
       0.0 -8.312737e-06 -1.6869013e-05 -3.6012642e-25
0003e0 e4 1e 81 37 38 b3 3e b6 00 00 00 00 8d c8 13 b7
       1.5392383e-05 -2.8416525e-06 0.0 -8.808577e-06
0003f0 b0 18 90 b7 a7 1d 46 96 a1 e3 8a 37 35 eb 36 b6
       -1.7177634e-05 -1.6003669e-25 1.655688e-05 -2.7257022e-06

exp_avg_sq f4 [128, 186]
000000 1d 95 7a 35 55 9e 8d 34 e3 21 0f 34 ed fc 60 33
       9.3349246e-07 2.6378498e-07 1.3330241e-07 5.23841e-08
000010 00 00 00 00 81 7a cd 32 1d e4 7b 35 a9 56 8e 34
       0.0 2.392085e-08 9.3836735e-07 2.6512615e-07
000020 5e fe 11 34 ae 07 62 33 00 00 00 00 9f 66 ce 32
       1.3596716e-07 5.262671e-08 0.0 2.4028223e-08
000030 0f eb 7d 35 1b 20 8d 34 2e 76 14 34 78 33 62 33
       9.45919e-07 2.6286656e-07 1.3826568e-07 5.2666536e-08
000040 00 00 00 00 f4 2f cf 32 d1 c0 7e 35 df c0 8d 34
       0.0 2.4119778e-08 9.490296e-07 2.640363e-07
000050 2a 82 18 34 65 90 62 33 00 00 00 00 5d 3b cf 32
       1.4203457e-07 5.275105e-08 0.0 2.4124967e-08
000060 53 6e 80 35 c4 6d 8c 34 17 f6 1d 34 2b fe 62 33
       9.568852e-07 2.6156897e-07 1.4711291e-07 5.285089e-08
000070 00 00 00 00 5d 3a d1 32 9c 5f 81 35 4e 5b 8b 34
       0.0 2.4357343e-08 9.639075e-07 2.59572e-07
000080 14 5e 20 34 a1 fe 62 33 00 00 00 00 31 32 d2 32
       1.4935387e-07 5.285131e-08 0.0 2.4470042e-08
000090 4e 05 83 35 b5 3c 8b 34 1f e6 1f 34 d8 49 63 33
       9.761804e-07 2.5934938e-07 1.4891747e-07 5.2919717e-08
0000a0 00 00 00 00 65 86 d3 32 3e f3 84 35 63 14 8c 34
       0.0 2.4624748e-08 9.905559e-07 2.6091865e-07
0000b0 10 63 29 34 02 4d 64 33 00 00 00 00 7f de d4 32
       1.577539e-07 5.3155425e-08 0.0 2.4781228e-08
0000c0 2f 77 86 35 02 cf 8b 34 ca a8 29 34 3a c6 64 33
       1.0018465e-06 2.6041386e-07 1.5800757e-07 5.3265673e-08
0000d0 00 00 00 00 cc e1 d6 32 0b 9a 89 35 68 c4 8a 34
       0.0 2.501556e-08 1.0252128e-06 2.5847407e-07
0000e0 6f 61 2a 34 42 de 64 33 00 00 00 00 12 20 d8 32
       1.586793e-07 5.328753e-08 0.0 2.5160293e-08
0000f0 4f b1 8a 35 92 ef 86 34 fd 0d 28 34 eb 9b 65 33
       1.0333405e-06 2.5133755e-07 1.5651308e-07 5.3460024e-08
000100 00 00 00 00 d3 42 d9 32 e7 ea 8b 35 c1 e1 85 34
       0.0 2.5292513e-08 1.0424673e-06 2.4937438e-07
000110 31 f9 29 34 a8 4f 66 33 00 00 00 00 36 61 da 32
       1.5830007e-07 5.3623495e-08 0.0 2.5422747e-08
000120 03 b6 8d 35 79 8c 86 34 cb 1f 2c 34 17 d5 66 33
       1.0558291e-06 2.5061652e-07 1.6030314e-07 5.3744852e-08
000130 00 00 00 00 58 52 dc 32 7f 9e 8e 35 e5 21 86 34
       0.0 2.5648816e-08 1.0625953e-06 2.4984107e-07
000140 96 11 31 34 5b b7 67 33 00 00 00 00 c6 b5 dd 32
       1.6490807e-07 5.395064e-08 0.0 2.5810447e-08
000150 31 ef 8e 35 41 69 86 34 0e ff 38 34 8a 73 68 33
       1.0649438e-06 2.5036027e-07 1.7229124e-07 5.412179e-08
000160 00 00 00 00 f6 91 de 32 02 c3 8e 35 ad 10 89 34
       0.0 2.5910577e-08 1.0636579e-06 2.5530372e-07
000170 31 a9 40 34 c4 28 69 33 00 00 00 00 c0 0d df 32
       1.7942945e-07 5.4286616e-08 0.0 2.596687e-08
000180 93 c4 8e 35 7f 38 89 34 98 59 45 34 a7 dc 68 33
       1.0637035e-06 2.5559345e-07 1.8379649e-07 5.421739e-08
000190 00 00 00 00 c8 52 df 32 a5 a6 8e 35 95 1b 89 34
       0.0 2.5998261e-08 1.0628324e-06 2.5538307e-07
0001a0 91 5d 4a 34 55 ad 69 33 00 00 00 00 17 94 e0 32
       1.8846755e-07 5.4407185e-08 0.0 2.6144376e-08
0001b0 df bf 8d 35 94 bc 88 34 33 7f 4f 34 af 17 6a 33
       1.056116e-06 2.5469183e-07 1.9324652e-07 5.450391e-08
0001c0 00 00 00 00 f5 96 e0 32 38 4b 8d 35 ec 8c 88 34
       0.0 2.614568e-08 1.052721e-06 2.5434508e-07
0001d0 46 22 55 34 4f 31 6a 33 00 00 00 00 5f 2e e1 32
       1.984964e-07 5.4527217e-08 0.0 2.6214535e-08
0001e0 96 2d 8e 35 7f 83 89 34 a5 6b 59 34 50 aa 6a 33
       1.0593092e-06 2.5613915e-07 2.0248861e-07 5.463727e-08
0001f0 00 00 00 00 39 17 e1 32 3c 8f 8d 35 3e 48 94 34
       0.0 2.6204008e-08 1.0547005e-06 2.761971e-07
000200 1a f5 5c 34 56 ce 6a 33 00 00 00 00 cd 18 e1 32
       2.0578264e-07 5.4670032e-08 0.0 2.6204726e-08
000210 bf 1d 8d 35 25 64 93 34 bd 57 5f 34 1e 48 6b 33
       1.0513976e-06 2.7453748e-07 2.0800412e-07 5.478079e-08
000220 00 00 00 00 36 24 e0 32 a6 2e 8f 35 89 2f 93 34
       0.0 2.6093499e-08 1.0667907e-06 2.741547e-07
000230 47 b2 61 34 b9 78 6b 33 00 00 00 00 76 09 e0 32
       2.1019615e-07 5.4824998e-08 0.0 2.6081334e-08
000240 6a fa 8e 35 d4 b3 93 34 81 07 62 34 63 c9 6b 33
       1.0652705e-06 2.7511726e-07 2.105062e-07 5.489836e-08
000250 00 00 00 00 b4 f2 e0 32 5e 64 8e 35 22 d4 92 34
       0.0 2.61874e-08 1.0609035e-06 2.7348966e-07
000260 8c 00 63 34 90 50 6c 33 00 00 00 00 eb 8f e1 32
       2.1141221e-07 5.5021303e-08 0.0 2.6258894e-08
000270 3e a5 8c 35 ed 69 93 34 04 09 65 34 3e 3d 6d 33
       1.0478905e-06 2.7457955e-07 2.1330567e-07 5.5236562e-08
000280 00 00 00 00 ab 08 e2 32 9b 71 8c 35 ce 21 93 34
       0.0 2.6313804e-08 1.0463876e-06 2.740548e-07
000290 27 37 64 34 47 d7 6c 33 00 00 00 00 39 45 e1 32
       2.1254219e-07 5.5143826e-08 0.0 2.6224926e-08
0002a0 26 33 8e 35 67 57 93 34 01 7b 63 34 64 60 6d 33
       1.0594711e-06 2.7444477e-07 2.1185771e-07 5.526853e-08
0002b0 00 00 00 00 c5 5a e1 32 dd 3f 8e 35 f4 48 93 34
       0.0 2.6234725e-08 1.0598411e-06 2.7433964e-07
0002c0 29 41 63 34 35 a3 6d 33 00 00 00 00 48 e4 e1 32
       2.1164728e-07 5.53293e-08 0.0 2.6297258e-08
0002d0 0a 5a 8e 35 6b 61 94 34 76 e0 63 34 e3 2d 6f 33
       1.0606029e-06 2.763803e-07 2.1222681e-07 5.5688258e-08
0002e0 00 00 00 00 42 ce e2 32 c3 94 7d 33 5d c7 75 35
       0.0 2.6403658e-08 5.904145e-08 9.1559724e-07
0002f0 f7 ff ff 32 25 29 97 31 00 00 00 00 7e de c5 30
       2.9802306e-08 4.399356e-09 0.0 1.4396873e-09
000300 cd be 80 33 2e 91 77 35 0a 10 02 33 2d 62 98 31
       5.995171e-08 9.2225935e-07 3.028257e-08 4.4349435e-09
000310 00 00 00 00 a0 d2 c7 30 bd 3a 82 33 e9 a3 77 35
       0.0 1.4539019e-09 6.064281e-08 9.225319e-07
000320 aa 60 03 33 8a 1b 99 31 00 00 00 00 75 f3 c8 30
       3.058873e-08 4.456017e-09 0.0 1.462111e-09
000330 0a 98 83 33 70 4b 79 35 05 36 06 33 19 87 99 31
       6.1278186e-08 9.2869504e-07 3.1248437e-08 4.468245e-09
000340 00 00 00 00 0f 3d c9 30 6b 54 87 33 90 7f 7c 35
       0.0 1.4642029e-09 6.301783e-08 9.4062943e-07
000350 92 76 0c 33 2a 15 9a 31 00 00 00 00 f3 f4 ca 30
       3.270413e-08 4.484396e-09 0.0 1.4767053e-09
000360 38 c5 88 33 dd 98 7f 35 31 13 0e 33 2b d4 99 31
       6.3688674e-08 9.521735e-07 3.3079406e-08 4.4770068e-09
000370 00 00 00 00 32 ac cc 30 f5 33 8a 33 de 00 7f 35
       0.0 1.4891894e-09 6.435577e-08 9.4996165e-07
000380 23 1f 0e 33 12 bc 99 31 00 00 00 00 c5 9a cd 30
       3.309027e-08 4.474267e-09 0.0 1.4959701e-09
000390 6e 82 90 33 08 79 80 35 ea 3a 1c 33 27 e0 99 31
       6.7292476e-08 9.571968e-07 3.6375162e-08 4.4783692e-09
0003a0 00 00 00 00 e1 8c ce 30 bd 8f 92 33 34 39 7b 35
       0.0 1.5028513e-09 6.8248006e-08 9.358803e-07
0003b0 82 ce 17 33 9f 9d 9a 31 00 00 00 00 49 ca d0 30
       3.5345245e-08 4.4999093e-09 0.0 1.5191485e-09
0003c0 46 58 95 33 2a af 7b 35 ae 27 16 33 ec f5 9a 31
       6.95441e-08 9.3759684e-07 3.4960685e-08 4.509948e-09
0003d0 00 00 00 00 02 76 d1 30 71 24 97 33 0d 19 7f 35
       0.0 1.5240291e-09 7.038114e-08 9.5031356e-07
0003e0 78 c1 15 33 84 ff 9a 31 00 00 00 00 95 0d d3 30
       3.4867725e-08 4.5110387e-09 0.0 1.5356131e-09
0003f0 04 76 99 33 35 89 7c 35 1a bc 13 33 74 9a 9b 31
       7.1460846e-08 9.407698e-07 3.4397182e-08 4.528653e-09
