results/run1/MazeBrain/MazeBrain-1438859.pt (torch, 999827 bytes, 39 tensors)

network_body._body_endoder.seq_layers.0.weight f4 [128, 186]
00000000: f98a 5a3e d319 693d 47bc 3abd 1765 d23c
00000010: 669c 2dbd a787 b0bb 5db4 9d3d e611 843d
00000020: 50e7 9fbd 8dae 373d 9f38 b5bb 83eb 213d
00000030: 08f2 e7bd 0280 f13c 6253 0f3d f576 c5bd
00000040: 3a59 a33c b6c3 9c3d df12 47bd edcb d63c
00000050: b01b 593c f1d2 0cbd 6f54 bf3c 6e84 1fbd
00000060: 42f3 b33d d0ee dc3d 7aba 553d 5ca0 783c
00000070: d91f d33c f68c b6bd bd65 49bd 5fd9 2f3a
00000080: 1041 d4bd 8f07 233e a198 f8bc bd35 e0bc
00000090: 688d 01bd 3aae 533c e04f b63d ae14 6cbd
000000a0: bc45 8d3d 59ad a03c b8c3 5fbe 0a86 bfbc
000000b0: 805e e1bd 3e01 033e db3c 9b3d 51d6 96bc
000000c0: 7f73 b2bd 314a 073d 3f79 d23d 5e4a 3c3d
000000d0: b54c f7bc ea3e 09be ed63 acbd 1a13 9fbd
000000e0: db01 25bd a1b4 073e 097c 8e3d 711c a7bd
000000f0: d670 b9bd 7b71 023c 1b5c cdbc 48ad a7bd
00000100: 95c9 94bd d939 0bbe 37a6 403c 1ce2 dc3c
00000110: b013 29bd e916 efbb 3996 8dbd 25e0 adbd
00000120: c5dc 2e3d 247d 013e 259e 20bd 2618 d0bb
00000130: 04ed 3d3d 3949 243d cc09 da3b d20a 81bd
00000140: 1438 d6bd fff8 90bc b0b4 b43d 52e0 fabd
00000150: 5b3b f23d 8f95 833d 5360 83bd ef6c e8bc
00000160: f339 77bd cc35 3e3c 2a7c 08be 6972 6dbd
00000170: 1b12 ca3d 9316 913c e81a 523d 566a 833b
00000180: 5bec 883d b364 1f3e c2f4 d3bd f06e 573d
00000190: 877d e63d 6b83 39bc 965e 97bd 9dcf 023e
000001a0: 66c5 b8bd 5d32 1b3d 1de6 563d be7b f0bc
000001b0: 7df2 6d3d 54f7 afbc 26bb 68bd 1132 c63b
000001c0: 4f77 003e dd09 16bd 3952 05be 09f3 26bd
000001d0: 4984 36be 200d 8dbd 1eb7 593d 6513 c2bd
000001e0: 65a0 a3bd e2d7 51bd 94b0 12be b418 b43c
000001f0: 75bb a0bc e1b0 c8bc d4c5 813d c135 9eba
00000200: c586 c3bc 92c2 bc3d 3964 10be 6cbd d6bd
00000210: 3d73 31bd a637 b1bd a04f fd3c 70a6 093d
00000220: e190 c43c fb43 283d 44a9 8b3d f2b1 85bc
00000230: de52 503d 5359 06bc 69b1 27bc f081 65bc
00000240: c6e2 af3c 040c 0dbd 5e6f 15bd 1090 1d3d
00000250: ca92 3cbc 6935 483d 860a 2f3c c57e 93bd
00000260: b66e 693c 5501 983c 6487 87bd 3fb2 2c3b
00000270: c904 d6bd 7d24 373b f7b1 24bc 0921 78bd
00000280: 586c a4bd 6c0f d4bd 26b3 84bd b8ef 053e
00000290: 2fb6 9dbd 1272 343c 5348 4b3d 012a 363d
000002a0: cc44 b73d 0468 deba 05e8 c8bc 20d9 da3d
000002b0: 4ec2 b63c 2e05 e0bc 5e87 a3bd cbd3 d53d
000002c0: 21ed 5dbc 812c 6e3a fd5c 3abe 2a61 8c3d
000002d0: 3cf2 a9bc 188b 6fbd 4030 eabd 8ab8 173e
000002e0: 9838 333c 60b1 cebc 7349 2a3d 1fa5 24bd
000002f0: d208 463d 01ac 503e e99b a53d 4f28 7e3d
00000300: 9c3b 5fbd ea78 c7bc 04a3 7fbd 0eb9 48bd
00000310: 054e 153d c218 033e 6d58 24bd da33 16be
00000320: 1430 42bc 86da 32bc ebf0 8abc b035 4a3e
00000330: 8a78 9c3c 42db fdbd a00e 313c b38a a9bc
00000340: e57b 96bc fab6 b43d d2d0 61bd 6081 02bd
00000350: b629 cc3c a0ae 6f3d c62e 863d 3169 ff3d
00000360: 0605 2abd 52e2 96bd 16b2 1fbd 7344 0abe
00000370: 44b3 20be 650d a8bc 897d c83c 535d 8f3a
00000380: a472 7abd 1334 6abd 5c3a 0b3e bd98 2a38
00000390: 5001 ba39 8684 473d 10b9 8dbd 60c8 973a
000003a0: d324 d93c 1154 09bd daa1 27bd b705 d53b
000003b0: 01ec 363c 3974 b9bd 4453 81bd ebc2 5bbd
000003c0: 4ac6 25be 89e6 ef3d b11d 573a 11e7 3cbc
000003d0: ca18 bcbd e49d 4f3c a2a3 0d3d 9c0b 56bc
000003e0: 5feb 303c dc9b b03d 1da3 71bd 256d 4b3b
000003f0: 7ea1 e73c 24f8 533d b6e5 46bc dc7f c03c
0.21342076 0.056909394 -0.04558971 0.025682969 -0.04238548 -0.005387265 0.07700417 0.06448726
-0.07807791 0.0448442 -0.0055304314 0.039531242 -0.11325461 0.029479984 0.03499163 -0.0964183
0.019940007 0.076545164 -0.04860198 0.026220286 0.01325123 -0.034380857 0.02335569 -0.038944654
0.08786632 0.10787737 0.05217979 0.015174951 0.025772022 -0.08913605 -0.04916929 0.0006708111
-0.10363972 0.15920852 -0.030346217 -0.027369374 -0.031628996 0.012919957 0.08901954 -0.05763691
0.068980664 0.019613909 -0.21852005 -0.023379344 -0.110043526 0.12793443 0.07579967 -0.01841274
-0.087134354 0.03302974 0.10277032 0.04596936 -0.030187944 -0.13402906 -0.08417497 -0.07767315
-0.040284973 0.13252498 0.069572516 -0.08159722 -0.09054725 0.007961626 -0.025068333 -0.08187348
-0.07265011 -0.13596286 0.011758379 0.026963286 -0.04127854 -0.0072964323 -0.06913418 -0.08490018
0.04269101 0.12645394 -0.03921332 -0.006350535 0.046368614 0.040108893 0.006654 -0.06300892
-0.10459915 -0.017696856 0.08823526 -0.12249817 0.118277274 0.064250104 -0.06414857 -0.028372256
-0.060358 0.011609506 -0.13328615 -0.05797044 0.098667346 0.01771096 0.05129519 0.004010479
0.06685706 0.15565757 -0.10349418 0.052596033 0.11254411 -0.011322836 -0.07391088 0.1277451
-0.09022026 0.037889827 0.052465547 -0.02935588 0.058092583 -0.02148024 -0.056819104 0.006048449
0.12545513 -0.0366305 -0.13019647 -0.04075912 -0.178239 -0.06887269 0.05315315 -0.094763555
-0.07989577 -0.051231273 -0.14325172 0.021984436 -0.019620636 -0.024498405 0.06336561 -0.0012070463
-0.023867974 0.09216799 -0.14100732 -0.10485348 -0.04332279 -0.08653192 0.030921757 0.033605993
0.023994865 0.041080456 0.06819394 -0.016320202 0.05086028 -0.0082000075 -0.010235169 -0.01400803
0.021470439 -0.034435287 -0.03648316 0.038467467 -0.011509607 0.04887906 0.010683661 -0.07201914
0.014247587 0.018555323 -0.066176206 0.002635136 -0.104501314 0.0027945333 -0.010052196 -0.06057838
-0.080284774 -0.10354504 -0.06479482 0.13079727 -0.077007644 0.011013525 0.04962952 0.04447365
0.08948669 -0.0016968255 -0.024524698 0.106859446 0.022309449 -0.02734622 -0.079848036 0.10440787
-0.0135453055 0.0009085611 -0.18199535 0.0685447 -0.02074539 -0.05848226 -0.11434984 0.1481649
0.010938786 -0.025231063 0.041573953 -0.040196534 0.048348255 0.20378114 0.08086378 0.06205016
-0.054500207 -0.024349649 -0.062411323 -0.049004607 0.03645136 0.12802413 -0.040123392 -0.14668217
-0.011852283 -0.010916358 -0.016960582 0.19747043 0.019100446 -0.12395336 0.0108067095 -0.02069602
-0.018369624 0.088239625 -0.055130787 -0.031861663 0.024922233 0.058516145 0.0655189 0.124712355
-0.041508697 -0.07367386 -0.038988195 -0.13502674 -0.15693384 -0.0205142 0.024473922 0.0010937847
-0.061144486 -0.057178568 0.13596481 4.0673407e-05 0.00035477662 0.04871037 -0.069200635 0.0011580102
0.026506817 -0.033527438 -0.040925838 0.0065009254 0.011164666 -0.09055371 -0.0631471 -0.053652685
-0.16188923 0.11713893 0.00082060235 -0.0115297 -0.09184416 0.012671921 0.03457988 -0.013064291
0.010798304 0.08623478 -0.058993448 0.0031040397 0.028275248 0.051750317 -0.012139728 0.023498468

network_body._body_endoder.seq_layers.0.bias f4 [128]
00000000: 38d0 943c 51eb 10bd bb72 b3ba 0232 1b3d
00000010: 8178 3abd 7bc5 003c 6a3d 64bc 7cdd 6cbc
00000020: ba59 93bc efed 8ebc 673a 99bc d06b d0bc
00000030: bd53 1fbc 6e9c cb3c fbd2 b9bc daa8 d7bc
00000040: 18e1 3d3c f0a5 35bc 98c6 eabc 82bf 8abc
00000050: dc4d 25bd 0a1f e7bb 8945 82bc b400 983c
00000060: 08ab 983c f83f 11bd ea4c b73c 030f 4cbc
00000070: c0d1 e33c 0ae7 b73b 6585 8a3c 324e cabc
00000080: a09e f13b be83 2dbc 0c30 25bd 79c7 e93c
00000090: c817 5b3b 4f4d c8bc f84c 383c f227 98bc
000000a0: 457d 3dbc f62d 5e3a 90b3 2abb 3bb5 9b3c
000000b0: f507 013d ef56 17bc 571e b83c 129a 8d3c
000000c0: 6b31 88ba ac85 16bd 3ee2 063b 199a 033d
000000d0: 9aa0 bebb 8244 903c 5bc1 b43c fd5c f63c
000000e0: 88ae 46bc 09e2 0ebd 8277 3ebd a63c 133d
000000f0: bc18 963b 28e3 b33c 1c63 113d 81ab 1ebd
00000100: 4f16 7c3b 1694 b53c 688e 2c3d 4bcd abbc
00000110: 7758 e93c 06e0 4bbc e729 9abc 4c5a 113c
00000120: 17bc 753c 437c a93c 5016 f83c 8949 46bd
00000130: cc11 23bd ed40 cc3c 2bd4 85bc 36fe e7ba
00000140: b74c b13c 246c 133d c04a bfbc 84bc 0a3c
00000150: 0430 b53c 1082 c438 eac8 293b e5d9 cf3b
00000160: eb27 eebc 277d 8ebc 4a1e 9f3c f804 cabc
00000170: 062a 0e3c 7a50 3fbc b541 883c 8ef2 0f3c
00000180: 0b61 283c fef5 e4bc 6bc1 713a 65f2 cbbb
00000190: b4c3 7c3c ecc5 bd3c 4913 1dbb 3b69 0fbb
000001a0: a116 2a3d ee5b 2a3c a370 d8bb a64e 1bbc
000001b0: ccce 3d3c a943 01bb d4a2 88bd c3f7 49bd
000001c0: c752 7cbc f4c0 cdbb c5af 4cbd f831 21bd
000001d0: 182d 683c 9352 173d b852 8cbc d04c 8d3c
000001e0: 9f38 5fbd a4e7 573c 7c07 25bd 5443 aebb
000001f0: d8d0 493c d4fd b63c 59a1 ba3b c331 8ebc
0.018165693 -0.035380665 -0.0013690809 0.037889488 -0.045525078 0.007859583 -0.013930658 -0.014457103
-0.01798712 -0.01744744 -0.018704606 -0.025442034 -0.009724555 0.024854865 -0.022683611 -0.026325632
0.011589311 -0.011086926 -0.02865915 -0.016937021 -0.040357456 -0.0070532607 -0.015902298 0.018555023
0.018636242 -0.035461396 0.022375543 -0.012454751 0.027809978 0.005612259 0.01690931 -0.02469549
0.007373646 -0.010590492 -0.040329024 0.028537499 0.0033430923 -0.024450926 0.0112488195 -0.018573735
-0.011565511 0.00084754766 -0.002604697 0.019007316 0.03150173 -0.009237035 0.022475405 0.01728538
-0.0010390704 -0.036748573 0.0020581628 0.03212938 -0.005817485 0.017610792 0.022064855 0.030073637
-0.012126572 -0.034883533 -0.04650069 0.03594651 0.0045805853 0.021958902 0.03549491 -0.038737778
0.0038465445 0.02216534 0.042127997 -0.020971915 0.028484566 -0.012443548 -0.018818809 0.008871626
0.014998457 0.020689135 0.030284077 -0.048409972 -0.039811894 0.024933303 -0.016336521 -0.0017699662
0.021643026 0.035991803 -0.023351073 0.008467797 0.022117622 9.370234e-05 0.0025907108 0.0063431137
-0.029071769 -0.017393662 0.019423623 -0.024660572 0.008677011 -0.011676902 0.016632894 0.008785857
0.010277043 -0.02794933 0.0009222242 -0.006223964 0.015427519 0.023165666 -0.0023967794 -0.002188279
0.041525487 0.010397894 -0.006605224 -0.0094792005 0.011584949 -0.0019724166 -0.06671682 -0.04930855
-0.015400595 -0.0062791053 -0.049972314 -0.039354295 0.014170907 0.036943983 -0.017129287 0.017248541
-0.054497357 0.013177786 -0.04029034 -0.0053180847 0.012317859 0.022337832 0.0056955037 -0.017357713

network_body._body_endoder.seq_layers.2.weight f4 [128, 128]
00000000: bbf8 aa3a d16d 973d c42f a1bd 7759 61bd
00000010: ce30 453d 51ef 293d ed56 123e cf79 f8bc
00000020: 5740 9bbc 6082 cc3d 0761 1bbd 514c ebbd
00000030: 9e59 b5bd 7f18 46bb 7a9a 57bb 574a 5ebd
00000040: 0478 dbbc 2b96 e73d c84d c73d 7b74 06bd
00000050: 90ee 02be 43f1 84bd 7c5a 353d 3104 a23d
00000060: ab32 b63d 8e86 91bd cbc1 e83d a84a 2a3e
00000070: 93ba d7bd 1a5f 743c 0001 f1bd 6037 0f3d
00000080: 01d5 9fbd a2d2 24bd cd77 cabc a6f5 aa3d
00000090: a020 2ebe 1cc6 a53c c9ca 05be dfb0 1a3d
000000a0: bc72 e93d 6d2d 4fbd ad4a c23b 4755 343c
000000b0: 956f a9bc 1d48 e6bc 64b8 3ebe fbf7 113e
000000c0: a983 933b a3f6 d3bc 4dbe 0f3e 75f5 ef3d
000000d0: ae6c 03be eaf6 283d aca8 0abe 9f9f 46bc
000000e0: 2806 663a 8256 d2bc 981c 4e3d 5cc0 e7bd
000000f0: cfac 4fbc 3793 523c 1e44 5fbd ae2e 02bd
00000100: d885 ad3c 3233 cc3d 9e90 ef3c f7b7 213d
00000110: d8b8 d23b cf9c 36be ee4e c03c 56f8 56bd
00000120: d907 e2bd 55cb 0a3e 92c2 ee3c b5b0 b3bd
00000130: f3e5 20bd 9d11 56be 3e01 143c e0fa 143e
00000140: 8204 2abc de1c e73c f260 9a3d 30fd 803c
00000150: 4e24 1fbd ce0c 803e 26ee 593e fa81 42be
00000160: f1c1 553c 6097 dbbc 9c31 99bc 7478 edba
00000170: 6673 9d3c d50d 8f3d 1036 82bc bc4b 2b3e
00000180: 38e1 adbe d4d4 9ebd f7ac 1c3e 4109 f63d
00000190: d9e7 d3bd f792 59bd 643c 883d 1b2c 2f3e
000001a0: 2ee3 053e 7d5e 0a3d 560f 2e3c 2846 303e
000001b0: 319c 113c baed c9bd 4e97 1dbe aa20 7cbd
000001c0: e6ab a4bd a749 413d 83dd c53d e76f 26be
000001d0: 7c24 ccbd b21e 953e 3268 71bc 2d37 68bd
000001e0: 9a3a 65bd e150 c4bc 63c9 dfbd 3fa3 35bd
000001f0: a950 f23d 8c84 d6ba 6a1e e2bc a3b6 bbbc
00000200: c531 89bc 8ebe debd 864d 733d cce5 18bd
00000210: 1200 0bbe 199e b63d ddf8 31be 9886 2f3e
00000220: 639c 553d 9c1f 05be 9325 113e fe8d 8ebd
00000230: 27a0 1ebe d1f8 d03d e5b4 d43c 66c7 22be
00000240: a080 733e e6b2 4c3d 492f 7fbd 8536 83bd
00000250: dc9e fabc 3e9d aeba b621 bc3c 552f f4bc
00000260: 0d20 833b 3748 8fbd b1dd 903d 6e06 633d
00000270: 2018 0fbd 8e10 cabd fe1a f0bb f9ea e53d
00000280: 2d4a 88bd 7b5c 3d3d 8af7 efbd d8b7 02bd
00000290: fcaf 31be 6cbb 44bd 99ed 35bd 9966 043e
000002a0: 6e9a 053c 0813 a93d ee64 423d 039f eb3d
000002b0: 12a6 133d fc01 7dbb e731 51bc e448 383d
000002c0: 0b79 053b db54 663d 41e2 00bd b28e 853d
000002d0: 1cd3 8e3c 8cf2 1ebe 17bd ac3c 0708 973c
000002e0: 2618 debc 99f5 373d a45e bd3d b636 c9bc
000002f0: 002b a23d 52ac 90bd d13d e4bd 12f8 d1bd
00000300: 21fd 02be 042a d3bc cbeb d6bd 9362 83bd
00000310: 49e4 c53d 3a4b 663e a9fb fabc 8d97 89bd
00000320: 268f 7b3e 97ae cebb 3f72 a9bb ad5d 203e
00000330: 0ded 9fbd d082 62bd fcf2 5d3b 63be 16be
00000340: 9aa1 edbd 19b1 c1bd 038c b33c e80e b33d
00000350: 7116 2d3e 4b7a 27be 8801 f2bd 0ab1 3e3c
00000360: ac23 7b3c 4593 a6bb b8c3 353d aa01 a9bd
00000370: 2992 19bd 6363 c6bd 8cba 90bd 6f95 0b3e
00000380: 2698 86bd 47db 4a3c be3b d33d abed b9bd
00000390: f1e8 15be b23d 0dbe a0c5 823c 6cef 8e3d
000003a0: e350 94bd a11e 893d 03c8 143e c095 97bd
000003b0: c559 d83d 1e3c 88bd eac2 b43d d131 b23d
000003c0: dae0 ab3d bdb7 fe3c f8ed 5a3d a07f 24be
000003d0: 4cf0 9cbd 29c9 26bd bfd8 1cbe 030c 74bd
000003e0: e455 463d c371 c43d a37c 04bd fb79 cbbd
000003f0: e10b 9d3e c898 75bd a066 913c aa42 003e
0.0013044098 0.07393993 -0.07870439 -0.05501696 0.048142247 0.041487996 0.14290972 -0.03033152
-0.018951578 0.099858046 -0.03793433 -0.114891656 -0.08854984 -0.0030227003 -0.0032898472 -0.054270115
-0.026790626 0.11307939 0.097316325 -0.03282593 -0.12786317 -0.064913295 0.044275746 0.07910956
0.08896383 -0.071057424 0.11365088 0.16630042 -0.10533633 0.014915252 -0.11767769 0.03496492
-0.07804299 -0.040239938 -0.024715329 0.08347635 -0.17004633 0.020236067 -0.13065638 0.037766334
0.11398837 -0.05058043 0.005929312 0.01100666 -0.02068309 -0.028110558 -0.18625027 0.14254753
0.004501779 -0.025874441 0.14037438 0.11716739 -0.12834427 0.0412511 -0.13540906 -0.012123018
0.0008774721 -0.025676016 0.050320238 -0.113159865 -0.012675478 0.012852482 -0.05450832 -0.0317828
0.021181986 0.09970702 0.029243764 0.039482083 0.0064307265 -0.17833255 0.023475137 -0.052482925
-0.11036653 0.13554128 0.029145513 -0.087739386 -0.039281797 -0.20905156 0.009033499 0.14548826
-0.010377051 0.028212007 0.07538022 0.01574573 -0.038852982 0.2500977 0.21282253 -0.18994895
0.0130467275 -0.02680558 -0.018700413 -0.0018117563 0.019220065 0.0698506 -0.01589492 0.16728109
-0.3396089 -0.077554375 0.15300356 0.12013484 -0.10346956 -0.053118672 0.066521436 0.17106669
0.13074943 0.033781517 0.010623774 0.17214262 0.008887337 -0.09859796 -0.1538975 -0.06155459
-0.080405995 0.04718938 0.09661391 -0.16253625 -0.09967896 0.2912498 -0.014734315 -0.056693245
-0.05596409 -0.023964347 -0.10927083 -0.044345137 0.11831791 -0.0016366406 -0.027602393 -0.022914236
-0.016747365 -0.10876189 0.059400104 -0.037328526 -0.13574246 0.089168735 -0.1738009 0.17141187
0.052151095 -0.1300034 0.1417449 -0.069606766 -0.15490781 0.10203708 0.025965163 -0.15896377
0.23779535 0.0499753 -0.062300954 -0.06406883 -0.030593328 -0.0013322008 0.022965293 -0.029807726
0.0040016235 -0.06996196 0.07073534 0.055426054 -0.034935117 -0.09866439 -0.0073274365 0.11226458
-0.06654773 0.046230774 -0.11717136 -0.03191361 -0.17352289 -0.048030302 -0.044416044 0.12929763
0.008154495 0.08255583 0.047459535 0.115049385 0.03604705 -0.003860592 -0.012768245 0.04499139
0.0020366337 0.05623327 -0.031465773 0.065213576 0.01743465 -0.15522212 0.021086259 0.018436445
-0.027111124 0.044911955 0.09246567 -0.024562221 0.07918358 -0.070641175 -0.11144603 -0.10252394
-0.12791874 -0.02577687 -0.10494193 -0.06415286 0.096626826 0.22489634 -0.030637579 -0.06718359
0.24566326 -0.006307434 -0.00517109 0.15660734 -0.07808886 -0.055300534 0.0033866754 -0.14721064
-0.11603089 -0.09457607 0.021917349 0.087430775 0.16903092 -0.16355245 -0.11816698 0.011638889
0.015328329 -0.005083474 0.044376105 -0.082522705 -0.037492905 -0.09686925 -0.07066831 0.13631223
-0.06571989 0.012381381 0.10314129 -0.09078535 -0.14639641 -0.13793066 0.015963376 0.0697926
-0.072419904 0.06695295 0.14529423 -0.074016094 0.10563997 -0.066520914 0.088262394 0.08700908
0.083924964 0.031093473 0.0534496 -0.1606431 -0.076630205 -0.040719185 -0.15317057 -0.059581768
0.048421755 0.09592011 -0.032345425 -0.09935375 0.30673125 -0.059960157 0.01774913 0.1252543

network_body._body_endoder.seq_layers.2.bias f4 [128]
00000000: b60b a7bb 1f90 3dbd 22e2 6ebd 4a9a 283d
00000010: c0fb 20bd 8f84 7dbd cc17 15b9 e3e5 6abb
00000020: 44ac 6dbd 0ae6 183d 8a22 baba 6e46 103d
00000030: 4c77 3a3d 448c 1d3d 143a 52bc a49a 043d
00000040: 3cf0 cabb b64a aabb 504e 70ba c591 9cbc
00000050: 38c1 3c3d e72e 063d 603d ab3c 76ea 21bc
00000060: 3a1c b43c 450f 673b ab57 58bc 1aaf e73b
00000070: 042c 0ebd 2c5e 5ebd 8e87 0cbd 037d d6bc
00000080: 7efb 04bd 575e 223d f853 1c3d 7104 d83c
00000090: b2ba 8c3c f0df e33b 3bfa 5ebc c224 23bd
000000a0: 7026 07bd 521f 9a3c a240 f53b e133 34bd
000000b0: 4e48 3bbd 625f e13c 686d eb3c 2e52 03bd
000000c0: 44a1 85bc 3bf8 77bc 2366 03bb 4e7d 693d
000000d0: b3b9 543c a63d 0ebd 07fa 123d 9918 4f3d
000000e0: 8598 13bd d15c e33c 31db 613c e682 dc3b
000000f0: f9ee 34bd 06e5 1c3c c229 be3b 490e 7c3c
00000100: 8b95 133d 4aa7 1e3c e17d 08bd 63ef 1cbc
00000110: 834c 36bd d286 a0bd 4eae 05bd cd3e 5ebd
00000120: ef90 06bd 89f2 e63c c13c 8c3c a161 96bc
00000130: cd19 b3bc 9006 f33c 8e43 53bc dceb efbb
00000140: 5ca3 98bc 81f4 d53c f3df 8d3c 7ab8 2cbc
00000150: 5ef5 9bbd 8e57 5bbd 8563 3c3c 63f6 bf3c
00000160: 2904 a33b 6403 143d 83c6 55bd e7ea 32bd
00000170: 2aca 9abd fcdb 2cbd 899a b2bc bc09 90bd
00000180: e39a b93c b701 dc3c 6d5f 89bc 47e3 01bd
00000190: 1872 323a f9ae 023d 8bb9 cebb 577e a0bb
000001a0: 8cad 49bc 70bb e1bc 5389 043d f2d3 d63b
000001b0: 9fd8 58bc 59fb e03b 4eb3 503d 35a2 e93a
000001c0: 3b9e 62bc 92cc 24bd bc5c 8dbb dda8 093d
000001d0: cde6 203d 49e1 ac3c b8bf 15bd 2782 683c
000001e0: ba07 843c cc04 f73c 0e87 dcbc 6a55 443c
000001f0: 56dd 993c 561f be3c 1f71 563b 384d bdbc
-0.0050978316 -0.046280023 -0.058321126 0.041162767 -0.039302588 -0.061893996 -0.00014218612 -0.003584259
-0.058025613 0.037328757 -0.0014200967 0.035223417 0.045523927 0.038463846 -0.01283123 0.03237404
-0.006193189 -0.0051968945 -0.0009166943 -0.019112477 0.046082705 0.032759573 0.02090329 -0.00988256
0.021986116 0.0035256904 -0.013204495 0.0070704343 -0.034709945 -0.054289028 -0.034308963 -0.026182657
-0.032466404 0.03964075 0.038166016 0.026369305 0.017178867 0.0069541857 -0.013609464 -0.039829977
-0.03299564 0.018813763 0.0074845115 -0.043994788 -0.045723252 0.027511302 0.028738692 -0.032060795
-0.016312249 -0.015134866 -0.0020049892 0.057004265 0.012983727 -0.03472676 0.035882976 0.050560568
-0.036034126 0.02775422 0.013785169 0.0067294715 -0.044173215 0.009576088 0.0058033178 0.015384265
0.036031287 0.0096834395 -0.033323172 -0.009578559 -0.04450656 -0.07838215 -0.032636933 -0.05425911
-0.032853063 0.028191822 0.017118813 -0.0183571 -0.021862889 0.029666215 -0.012894524 -0.007321818
-0.018632583 0.026117565 0.017318701 -0.0105420295 -0.076151595 -0.053550296 0.011498337 0.023432916
0.004974861 0.036136046 -0.05219127 -0.04368105 -0.07558091 -0.04220198 -0.021802204 -0.07033107
0.022656864 0.026856286 -0.016769135 -0.03171089 0.00068071624 0.03190515 -0.0063087395 -0.0048978734
-0.012309443 -0.027555197 0.032357525 0.0065560276 -0.01323524 0.0068659005 0.05095225 0.0017824831
-0.01383167 -0.040234156 -0.0043140333 0.033608306 0.03928261 0.021103518 -0.03655979 0.014191187
0.016116966 0.030153655 -0.026919868 0.011983255 0.018782299 0.023208302 0.0032721234 -0.02310811

action_model._continuous_distribution.log_sigma f4 [1, 2]
00000000: 4514 96bd b2c9 de3b
-0.07328085 0.0067989463

action_model._continuous_distribution.mu.weight f4 [2, 128]
00000000: f5c1 713c f3c8 973c b045 643d f580 b7bb
00000010: d3ad 893d d7d8 493d 6377 fa3b 4b9a 303d
00000020: 7686 cb3c d0a0 9cba 0e87 403c a2eb dabb
00000030: c363 46bd 9e26 a8bc 9af2 10bb 8ff1 36bc
00000040: b817 383a 016a 813c d717 fa3c 989b 4c3d
00000050: dd08 6cbc f85f 83bc d4d9 4dbc ba96 4a3b
00000060: 2773 a5bc 1c3c 733b 5740 13bc 5bfc 91ba
00000070: d03f a03c 5df4 373c e087 0b3d 17d7 b83c
00000080: 77ba 023d a15c b5bb 4e02 bfbc 0979 28bc
00000090: 7e3e 90bb d8d6 bfbb 2423 8a3c ffe1 473d
000000a0: 8c4e e43c e053 6c3c 9a92 22bb 6570 463d
000000b0: 68c9 8c3c dc5a 02bd c4f1 bebc d133 913c
000000c0: efa3 9d3b 78ad 23bc 4375 113d 8a4b 25bd
000000d0: cbd2 083a fcf2 353c f835 89bb fedd dfbc
000000e0: ede4 82bb 5aae 42bc 80d5 1ebc 6a41 013b
000000f0: 8bd4 803d 617e a5bb 4b12 a6bc 4114 39bc
00000100: 58b5 15bc 3216 13bc 10f8 003b f56c b43a
00000110: 9918 e83c 0548 683c d8ac da3c bffc 573d
00000120: 5cf7 413d da61 22bd f8f2 cdbc c73e ac3c
00000130: 4116 8b3c 1665 26bc 990f c93b 0f72 ab3b
00000140: cb40 413c cfff bfba c013 4abc 46de 2e3c
00000150: faed 7f3c e8d6 993c 34a8 47bc 0ddb 60bc
00000160: 216a 7cbb 47ce 2abd e7b1 693c 374f 4c3c
00000170: 2892 f43c 42f9 6d3c 4ac0 5f3b ef2e 823d
00000180: a5ab 1cbc edd0 ecbc 8501 c2bb c6ec 183c
00000190: 6b94 e2bb 5d92 393a 4d69 443c ce1f 3f3c
000001a0: afe4 0f3d 3157 8abb a72b 50bc 0f36 343b
000001b0: 38e9 fe3c 8d12 d53b 74e4 8abc f1b0 773c
000001c0: a516 ce3c f7ba a338 bc1d 383c ddd0 9abc
000001d0: aebd 26bd a549 d4ba 6ff4 143c 0447 69bc
000001e0: 16e8 b8bc 39f4 27bd 59b2 2c3b 9abc 56bb
000001f0: 24c1 10ba 6a1b 09bd 33ad 08bc 0c5a 1f3d
00000200: 078d f43c 00e9 8cbb b60e cebc 8879 eebb
00000210: 1ca2 4ebd be82 34bd 00cf cabc 425a 0d3d
00000220: 68a6 17ba 0ba1 313d 5788 edbc a79b 823a
00000230: a5b4 b93c 4b92 c83c ae5b eabc 85af 8e3c
00000240: 115a e5bb 1f58 b83b 97aa 48bd 175f 1f3c
00000250: af24 fb3c baf9 b4bc 6c50 94bc e1ff 8f3c
00000260: b7a4 acbc 7bd7 35bd 9b18 b2bb d494 3bbc
00000270: 6ba1 d8bc 39b9 813c 489e e03b d7f0 e9bb
00000280: eb73 033c fe81 c53c 4af8 2c3c 1a47 23bc
00000290: 447f 15bd 23de 82bc 8e51 e43c 0127 5abc
000002a0: 71ca 0fbd 26da 173d c850 903b 0280 dbbb
000002b0: 7b7d 93bc e637 cfbb df27 05bc 44d6 a13b
000002c0: cbe0 0abd 7574 56bb 524d cd3c ae16 bc3c
000002d0: 8746 c43c 4ccb fc3b 37a2 9a3c c796 183d
000002e0: 5493 8bbc ddb8 8ebd 2271 84bc 835d 77bc
000002f0: d6c3 443c 7ad1 34bd 371b 1abd 38dd a1bc
00000300: d022 843c cccf 4bbd 9107 223c b139 d5bb
00000310: 37bd 03bd 639a f7bb 9e22 0bbc e406 fcbb
00000320: 7826 023c 3d54 dbbc 9d42 42bd f8fe d63b
00000330: 4c33 e33b 0c84 8d3c d2dd c2bc f1de b7bc
00000340: 881b 07bd fd4e eb3c 506f b4bb 9b04 203c
00000350: dc80 54bc 56db 13bc 9440 09bd 3946 6a3d
00000360: 46e6 4abd 4475 7abc e478 c0bc 97b4 19bc
00000370: d1ba babc dea6 c5b9 97de 95bc e2d6 3bbc
00000380: 5a95 a2bb f575 7d3c 4965 663b f287 5cbb
00000390: f6c9 d2bc 47c1 f5bc 678f 463c 3dc8 073c
000003a0: e000 12bd 985f 03bd 1841 543b fe6e 00bd
000003b0: 1def 5fbd 2a68 2bbd 7a61 343d 11f3 fe3c
000003c0: 7241 c63c 2c9d 88bb 085d 9f3c 68d5 c1bc
000003d0: 74fc 333d b253 b73c 4517 18bc d24f fabc
000003e0: 85e6 cabc c76b 4fbd e4e3 e2bc 3a23 01bd
000003f0: b28a 003b 5f2e 4abd 8493 04bc 6f63 a03b
0.014755716 0.018528437 0.05573052 -0.0056000897 0.067226075 0.04927906 0.0076436265 0.043115895
0.02484439 -0.0011949781 0.01175095 -0.0066809217 -0.048434984 -0.020526227 -0.0022117258 -0.0111659905
0.00070225773 0.015797617 0.030528946 0.049953073 -0.01440641 -0.016036972 -0.012564141 0.0030912594
-0.02019651 0.0037114685 -0.008987508 -0.001113783 0.019561678 0.011227694 0.034065127 0.0225635
0.031916108 -0.005534724 -0.023316529 -0.010282763 -0.004401981 -0.005854469 0.01686246 0.04879951
0.027869485 0.014424294 -0.002480662 0.04844703 0.017185882 -0.03182493 -0.023308642 0.017724903
0.004810802 -0.009990089 0.03551222 -0.040355243 0.0005219399 0.011105295 -0.004187342 -0.027327534
-0.0039945752 -0.011882389 -0.009694457 0.0019722828 0.06290539 -0.005050466 -0.020272395 -0.011296333
-0.009137474 -0.00897746 0.0019679107 0.0013765382 0.028332042 0.014177327 0.026693746 0.05273127
0.04735504 -0.0396441 -0.02514027 0.021026028 0.016978385 -0.010155937 0.0061358926 0.0052321027
0.011795233 -0.001464838 -0.01233381 0.010673111 0.015620703 0.018779233 -0.012186099 -0.013724101
-0.0038515406 -0.041700628 0.014263607 0.012470058 0.029854849 0.01452476 0.0034141713 0.06356608
-0.009562408 -0.028908217 -0.0059205913 0.009333795 -0.0069146655 0.0007079 0.011987996 0.011665298
0.0351302 -0.00422182 -0.01270572 0.0027498042 0.031117067 0.0065024556 -0.016954638 0.01511787
0.025157282 7.8072706e-05 0.011237558 -0.018898422 -0.040708236 -0.0016196264 0.009091481 -0.014238123
-0.022571605 -0.041004393 0.002635142 -0.0032766224 -0.0005521944 -0.03347341 -0.008342075 0.038904235
0.029852403 -0.0043002367 -0.0251535 -0.0072776712 -0.05044757 -0.044069998 -0.024756908 0.034509905
-0.00057849893 0.043366473 -0.028995676 0.0009964601 0.022669146 0.02448382 -0.02860817 0.017417679
-0.006999262 0.005625739 -0.048990812 0.009727261 0.03065714 -0.022091735 -0.018104754 0.017578067
-0.021074636 -0.04439495 -0.005435062 -0.011449058 -0.026444158 0.015835391 0.006854806 -0.007139306
0.0080232425 0.024109837 0.010557244 -0.009965682 -0.036498323 -0.015975064 0.02787092 -0.013314963
-0.035105173 0.037073277 0.004404161 -0.0066986093 -0.01800417 -0.0063238023 -0.008127182 0.0049388725
-0.033905786 -0.0032723222 0.025061283 0.022960033 0.023959411 0.0077146646 0.018876178 0.037253167
-0.017038025 -0.069688536 -0.016167227 -0.0150979785 0.012009582 -0.044145085 -0.03762361 -0.019758806
0.016129881 -0.049758717 0.009889499 -0.0065071215 -0.03216287 -0.007556246 -0.00849214 -0.007691251
0.007943742 -0.026773566 -0.04742681 0.0065611564 0.0069336053 0.017274879 -0.023787413 -0.022445174
-0.03298524 0.028724188 -0.0055064335 0.009766723 -0.012970176 -0.009024462 -0.033508852 0.057195876
-0.049536012 -0.015286747 -0.023495145 -0.009381435 -0.02279416 -0.00037699094 -0.018294616 -0.011464806
-0.0049616517 0.015470018 0.0035155586 -0.0033650366 -0.025731068 -0.029999388 0.012119151 0.008287487
-0.035645366 -0.032073587 0.0032387432 -0.03135585 -0.054671396 -0.041847385 0.044038273 0.031121762
0.024201129 -0.004169127 0.01945354 -0.02366133 0.04394193 0.022378776 -0.009282892 -0.03055564
-0.024768123 -0.050639894 -0.027696557 -0.031527735 0.001961392 -0.04936063 -0.008091811 0.004894666

action_model._continuous_distribution.mu.bias f4 [2]
00000000: fba0 42bd a0d3 8b3c
-0.047516804 0.017068684

action_model._discrete_distribution.branches.0.weight f4 [1, 128]
00000000: 9aa9 863a 0312 07ba dfed 323c daf8 56bc
00000010: 8f1e 5f3b 0fe5 d83b f10b a13a 286a e039
00000020: bf77 913b 8789 5b3a 2d5e 55bc eb02 46bc
00000030: 30b9 293b 7053 0db9 54d1 8a3b 3493 4cbc
00000040: 1867 04bc 08cd ffb9 ec85 b8bb af15 aebb
00000050: 76b9 083c 2f49 bd3c 10eb 9b3c 79f2 823a
00000060: c4da ba3a d48a 353c 0bc6 0c3b 9631 1a3b
00000070: ef59 893c 57ad 4f3c 204f 57bb fdaa 95bc
00000080: 8c01 0e3c 1e3c 20bc 777c 743c d460 afbb
00000090: b2ac 223c 809e a63b 2461 0d3b ddea eebb
000000a0: adb2 d7bb e5f2 11bc 01d1 143c b7ad 0c3b
000000b0: 4785 cfba ca1f f33b b0e3 243b 577e 8e3b
000000c0: 8a19 9b3b 820f 523c 9fbd 2cba 1c03 283c
000000d0: b54c 61bc 6265 a43b 43c1 203b e326 1ebc
000000e0: 8da0 f63b 8965 83b8 35eb d8bb c109 173b
000000f0: 2231 6c3b 522b 31bc 23f4 91bc d56b 5abc
00000100: f884 7b3a 0a84 05bb 7b2d 5fbc aaf6 fd3b
00000110: 05e4 b6bc 03bd 3abb 92f1 db3b b75c e83b
00000120: 21ed 0ebb 004f 61bc e824 673c 9682 4cbb
00000130: 430e 6a3c f54f abbb 01a5 0dbc 00a4 363b
00000140: 3828 1dbc 5dda 203c 08b3 fbba 4319 c73b
00000150: 8473 8f3b 45af 3bbc fac3 6a3b a2b9 b6bc
00000160: 9d95 ea3b 676d 5bbc 06c9 af3b a21f 603c
00000170: c770 ae3b ec1a b6b7 8ce2 32bb c778 833c
00000180: 54ac 2e3c 31fb 0cbb a5ec 193c 9ed7 123c
00000190: 151a 77bb d2b5 863b 8635 32b8 c8e6 73bb
000001a0: af5b 60bb e3ee 29bc 3ae0 bebb d812 58bb
000001b0: 8fbc c3ba e01e 223b e7cb f03b 0f38 95bb
000001c0: 1594 54bb c792 4f3b 6fb6 eab9 72f3 a0bc
000001d0: b890 9fbb 1bb4 a43a 5907 18bc cf1a 963c
000001e0: 9be5 0cbc 3a8b 5dbc 5744 32bc c35b 683b
000001f0: 7347 493c eb08 b9bb f7c6 ba3b f482 44bc
0.0010273934 -0.0005152525 0.010920971 -0.013120854 0.0034045314 0.006619103 0.0012286884 0.00042803702
0.0044393237 0.000837468 -0.013022942 -0.012085657 0.0025897734 -0.00013477891 0.0042363796 -0.012486268
-0.00808122 -0.0004879015 -0.005631199 -0.0053126435 0.008344999 0.023106186 0.019032985 0.0009990475
0.0014255871 0.0110804625 0.0021480347 0.002352809 0.016766516 0.012675605 -0.0032853559 -0.01827001
0.008667361 -0.009779958 0.014922253 -0.005352119 0.009928869 0.0050848126 0.0021572793 -0.0072911815
-0.006582579 -0.008908008 0.009083034 0.0021465847 -0.0015832566 0.007419561 0.0025160126 0.004348557
0.004733269 0.01282108 -0.0006589535 0.010254648 -0.013751199 0.0050169686 0.0024529255 -0.009652826
0.0075264634 -6.265479e-05 -0.0066198357 0.0023046585 0.0036040028 -0.010813551 -0.017816609 -0.013331373
0.0009594704 -0.002037289 -0.013621683 0.007750352 -0.022325525 -0.0028494007 0.006712147 0.0070911306
-0.002180882 -0.013751745 0.01410792 -0.0031205765 0.014285627 -0.0052280375 -0.008645297 0.0027868748
-0.009592108 0.009817687 -0.0019203136 0.0060760095 0.004377784 -0.011455362 0.0035822378 -0.022305313
0.0071589486 -0.013392783 0.00536454 0.013679417 0.0053235027 -2.1708627e-05 -0.0027295677 0.016048802
0.010661203 -0.0021512026 0.009394799 0.00896254 -0.0037704755 0.00411103 -4.2488355e-05 -0.0037216414
-0.0034234335 -0.010371896 -0.0058250697 -0.0032970216 -0.0014933514 0.0024737641 0.007348526 -0.004553802
-0.0032436897 0.003167318 -0.00044767882 -0.019647334 -0.0048695467 0.0012565883 -0.009279096 0.01832333
-0.008599664 -0.013521964 -0.010880551 0.0035455085 0.012285101 -0.005646815 0.005699988 -0.011994112

exp_avg f4 [128, 186]
00000000: 5170 3b3a a29e 0bb8 502a 1a3a 860d 88b8
00000010: 0000 0000 45f2 aab8 f8cd 393a 33d4 1cb8
00000020: d636 203a 459b 8cb8 0000 0000 7f44 a9b8
00000030: b02c 363a 3e04 14b8 7832 273a 2372 92b8
00000040: 0000 0000 3ad2 a2b8 e024 323a 27f4 21b8
00000050: 5779 2b3a b430 94b8 0000 0000 8030 a5b8
00000060: 2277 2d3a 0e34 28b8 0ec8 2a3a 8bff 95b8
00000070: 0000 0000 051a a7b8 66ac 283a 2069 1bb8
00000080: ec50 2a3a a620 98b8 0000 0000 a63c 9fb8
00000090: 2610 243a 5f4d 16b8 5429 2a3a 01b1 9bb8
000000a0: 0000 0000 6dce 95b8 83b7 1e3a 1ee5 11b8
000000b0: 21b3 2c3a a87e 9db8 0000 0000 eb11 92b8
000000c0: 3e8f 193a e0d0 efb7 624a 273a a832 97b8
000000d0: 0000 0000 ee50 92b8 4e41 143a d742 efb7
000000e0: 25a9 223a 1ed1 96b8 0000 0000 54e2 8bb8
000000f0: d45b 0f3a 6a60 f2b7 6e25 223a 483a 9ab8
00000100: 0000 0000 63fb 87b8 b879 083a 4021 dcb7
00000110: 4b48 213a 3f41 99b8 0000 0000 b029 80b8
00000120: cfe0 033a 19b7 c5b7 7088 1c3a 34c3 9ab8
00000130: 0000 0000 9e8d 76b8 376a fe39 ceba f1b7
00000140: 544e 183a cf0c 97b8 0000 0000 7494 7bb8
00000150: 6522 f139 589d fdb7 a625 1a3a 04eb 99b8
00000160: 0000 0000 6567 77b8 2963 de39 1f1d 23b8
00000170: cb37 1d3a 2a6b a1b8 0000 0000 e270 5cb8
00000180: 2860 d239 6fb0 21b8 1aac 1c3a 4060 a6b8
00000190: 0000 0000 459c 46b8 94a5 ca39 af6e 39b8
000001a0: 8dcd 193a 7b1a a9b8 0000 0000 c0ec 36b8
000001b0: 610b c439 37df 40b8 3856 163a 8fb0 afb8
000001c0: 0000 0000 af30 2eb8 0c92 b839 6f5c 32b8
000001d0: 061e 153a c852 b4b8 0000 0000 23f7 1eb8
000001e0: 2610 af39 1e8f 2cb8 2c7d 143a e28d b3b8
000001f0: 0000 0000 73c4 14b8 d284 a639 03e5 32b8
00000200: fc1f 143a d3a0 b6b8 0000 0000 3226 04b8
00000210: 7ecd 9b39 2330 52b8 cabc 163a 75b5 bdb8
00000220: 0000 0000 6c06 ebb7 3d82 9439 06cd 56b8
00000230: 3e36 133a 1727 beb8 0000 0000 ed67 dab7
00000240: fd8a 8e39 fa5c 5eb8 5214 0c3a 64a7 b9b8
00000250: 0000 0000 cc98 dfb7 521d 8839 b0f1 54b8
00000260: 5c33 063a 13bd b9b8 0000 0000 2b17 cdb7
00000270: 3c8a 7a39 eaf8 50b8 3be7 093a d45b bfb8
00000280: 0000 0000 18f9 a3b7 3163 6e39 1854 38b8
00000290: 3ba2 093a 2118 c0b8 0000 0000 6d8e 91b7
000002a0: f474 6139 0763 1eb8 d72d 0a3a 6bc4 c1b8
000002b0: 0000 0000 9652 a1b7 ff86 5839 6ec8 06b8
000002c0: 5316 093a bde1 c1b8 0000 0000 8c1a 9cb7
000002d0: a9ed 5939 236a 0eb8 fcbd 093a 04f1 c5b8
000002e0: 0000 0000 43ad a4b7 e09d a4b7 3cb9 6ab8
000002f0: 9894 c9b7 a5a8 1736 0000 0000 a608 0136
00000300: 3b15 abb7 9532 36b8 c602 04b8 9890 3b36
00000310: 0000 0000 0605 0c36 e6c3 b0b7 6ce0 23b8
00000320: 38b4 26b8 8e40 7936 0000 0000 b096 ed35
00000330: 09e1 aeb7 7327 1eb8 276b 3db8 3dca 8436
00000340: 0000 0000 5e6b 1036 607b 90b7 149d 25b8
00000350: 6d76 41b8 7d76 9036 0000 0000 50b4 1a36
00000360: 3f3b 43b7 98d6 18b8 8017 38b8 12c5 9136
00000370: 0000 0000 b9cb c735 528f a1b6 ba10 0cb8
00000380: 370a 33b8 a84f a336 0000 0000 f9d3 9934
00000390: b7c0 1136 7a30 08b8 2857 36b8 1e66 a736
000003a0: 0000 0000 0186 42b4 f415 1c37 8688 dfb7
000003b0: ca47 20b8 d4e0 9936 0000 0000 aafa 09b5
000003c0: 8164 6837 e6eb edb7 5f69 01b8 5f30 8c36
000003d0: 0000 0000 0732 8ab5 583a 9437 23b0 c7b6
000003e0: 7ff1 e3b7 549b 8b36 0000 0000 ab6e c5b5
000003f0: 684d be37 867a 31b6 48a6 f2b7 b227 8936
0.00071502203 -3.328792e-05 0.0005880939 -6.487504e-05 0.0 -8.151358e-05 0.00070878817 -3.7390924e-05
0.0006111687 -6.7046414e-05 0.0 -8.0713064e-05 0.0006949408 -3.52899e-05 0.0006378065 -6.983082e-05
0.0 -7.76392e-05 0.0006795656 -3.8612776e-05 0.00065412134 -7.0662616e-05 0.0 -7.876847e-05
0.00066171784 -4.01028e-05 0.0006514796 -7.152472e-05 0.0 -7.968027e-05 0.0006434381 -3.7052785e-05
0.00064970437 -7.254006e-05 0.0 -7.5930075e-05 0.000625851 -3.5834844e-05 0.0006491144 -7.4239455e-05
0.0 -7.1433235e-05 0.0006054567 -3.4784076e-05 0.00065879716 -7.509935e-05 0.0 -6.96516e-05
0.00058578316 -2.8588285e-05 0.00063816283 -7.2096766e-05 0.0 -6.976897e-05 0.0005655483 -2.8522145e-05
0.0006205014 -7.1915085e-05 0.0 -6.6701934e-05 0.00054687005 -2.8893544e-05 0.0006185387 -7.354148e-05
0.0 -6.484126e-05 0.0005206126 -2.6241527e-05 0.0006152435 -7.3077616e-05 0.0 -6.1112805e-05
0.00050307525 -2.3569492e-05 0.00059712585 -7.379652e-05 0.0 -5.878286e-05 0.00048525791 -2.8816426e-05
0.00058100116 -7.202627e-05 0.0 -5.998132e-05 0.00045992728 -3.023322e-05 0.0005880244 -7.3393836e-05
0.0 -5.8985683e-05 0.0004241702 -3.888935e-05 0.00059973885 -7.697039e-05 0.0 -5.2557218e-05
0.00040125963 -3.8549708e-05 0.0005976573 -7.933425e-05 0.0 -4.7352416e-05 0.00038651808 -4.421052e-05
0.0005867116 -8.06348e-05 0.0 -4.3612672e-05 0.0003739251 -4.5984252e-05 0.00057348935 -8.377537e-05
0.0 -4.1530173e-05 0.00035204028 -4.2524593e-05 0.0005688373 -8.598488e-05 0.0 -3.79003e-05
0.00033390633 -4.1141284e-05 0.0005664404 -8.561813e-05 0.0 -3.5468907e-05 0.00031760946 -4.265179e-05
0.0005650518 -8.708392e-05 0.0 -3.1506825e-05 0.00029717007 -5.0112732e-05 0.00057501777 -9.046021e-05
0.0 -2.8017173e-05 0.00028325795 -5.121252e-05 0.00056156877 -9.067187e-05 0.0 -2.603602e-05
0.00027187905 -5.3015516e-05 0.0005343604 -8.852666e-05 0.0 -2.6654823e-05 0.00025961787 -5.0769828e-05
0.00051193475 -8.856705e-05 0.0 -2.4448693e-05 0.00023893354 -4.9822884e-05 0.0005260591 -9.124694e-05
0.0 -1.9547108e-05 0.000227344 -4.3947337e-05 0.00052503095 -9.159768e-05 0.0 -1.735167e-05
0.0002150124 -3.7762362e-05 0.0005271113 -9.239543e-05 0.0 -1.9231153e-05 0.00020649655 -3.2134754e-05
0.0005229462 -9.245004e-05 0.0 -1.8609011e-05 0.00020783268 -3.3954286e-05 0.0005254445 -9.438585e-05
0.0 -1.9631005e-05 -1.962384e-05 -5.596246e-05 -2.4030262e-05 2.2598917e-06 0.0 1.9227532e-06
-2.0394675e-05 -4.343929e-05 -3.1473835e-05 2.7949336e-06 0.0 2.086455e-06 -2.1072057e-05 -3.9071238e-05
-3.9745326e-05 3.7141467e-06 0.0 1.7701732e-06 -2.0847207e-05 -3.7706875e-05 -4.5160905e-05 3.95745e-06
0.0 2.1520168e-06 -1.7223589e-05 -3.9485356e-05 -4.612508e-05 4.3053283e-06 0.0 2.3052744e-06
-1.16367e-05 -3.643948e-05 -4.3890905e-05 4.3442788e-06 0.0 1.4885946e-06 -4.8148586e-06 -3.339418e-05
-4.268644e-05 4.8670518e-06 0.0 2.86527e-07 2.1718859e-06 -3.2470074e-05 -4.3473352e-05 4.988876e-06
0.0 -1.8116408e-07 9.303436e-06 -2.6647245e-05 -3.821383e-05 4.5859288e-06 0.0 -5.140124e-07
1.3851678e-05 -2.836245e-05 -3.085413e-05 4.1779563e-06 0.0 -1.0296361e-06 1.7670143e-05 -5.951167e-06
-2.7172964e-05 4.1606054e-06 0.0 -1.4709852e-06 2.268581e-05 -2.6446373e-06 -2.8926079e-05 4.0875393e-06

exp_avg_sq f4 [128, 186]
00000000: 9a17 ae35 0095 d734 3b31 3934 c011 6533
00000010: 0000 0000 fbcc 0033 6eef ae35 9dad d834
00000020: 1175 3d34 2eaa 6533 0000 0000 59c0 0133
00000030: a78e b035 ced4 d634 f14b 4134 4235 6633
00000040: 0000 0000 fa78 0233 363f b135 96c9 d734
00000050: 08cd 4734 4eff 6633 0000 0000 9dcc 0233
00000060: c7d2 b235 57c5 d534 717e 5034 3c88 6733
00000070: 0000 0000 9b83 0433 6650 b435 8623 d434
00000080: e157 5434 1be3 6733 0000 0000 9864 0533
00000090: d2e4 b635 fdf4 d334 ba01 5434 a2cd 6833
000000a0: 0000 0000 b685 0633 58ae b935 503d d534
000000b0: c180 6234 3193 6933 0000 0000 46af 0733
000000c0: 26ef bb35 b5d3 d434 e70c 6334 bb21 6a33
000000d0: 0000 0000 c356 0933 8ec2 c035 d13d d334
000000e0: a510 6434 f590 6a33 0000 0000 3724 0a33
000000f0: 7051 c235 c768 cd34 668b 6034 d8fe 6a33
00000100: 0000 0000 6943 0b33 7e0e c435 01ce cb34
00000110: a454 6334 3a56 6b33 0000 0000 4df9 0b33
00000120: feae c635 dfd1 cc34 8c60 6634 c79d 6b33
00000130: 0000 0000 0d3f 0d33 ffe7 c735 a52f cc34
00000140: 737e 6d34 8a16 6c33 0000 0000 6d22 0e33
00000150: c44d c835 549c cc34 c085 7934 66bc 6c33
00000160: 0000 0000 b3cc 0e33 d000 c835 8fa6 d034
00000170: f293 8234 5e6b 6d33 0000 0000 5d66 0f33
00000180: 5f26 c835 2ee3 d034 7258 8634 61e6 6d33
00000190: 0000 0000 c8a9 0f33 4ecd c735 2cb7 d034
000001a0: 2124 8a34 1958 6e33 0000 0000 0f9e 1033
000001b0: fe79 c635 9426 d034 e7fd 8d34 9f0e 6f33
000001c0: 0000 0000 bece 1033 e9c8 c535 fedd cf34
000001d0: 5864 9234 9b46 6f33 0000 0000 b44f 1133
000001e0: a90c c735 4a55 d134 9ecb 9534 b9a6 6f33
000001f0: 0000 0000 155a 1133 ad17 c635 d6b9 e134
00000200: b7ad 9834 86f9 6f33 0000 0000 8364 1133
00000210: ae61 c535 b55e e034 5f85 9a34 cf6b 7033
00000220: 0000 0000 f8e0 1033 558a c835 9a0e e034
00000230: 3959 9c34 9ad5 7033 0000 0000 9602 1133
00000240: 543b c835 ead7 e034 8435 9c34 b714 7133
00000250: 0000 0000 b869 1133 2a46 c735 6783 df34
00000260: dfc9 9c34 4074 7133 0000 0000 58d5 1133
00000270: 0780 c435 6e67 e034 c600 9e34 43f8 7133
00000280: 0000 0000 a7da 1133 055f c435 abf9 df34
00000290: 346a 9d34 241f 7233 0000 0000 d891 1133
000002a0: 9302 c735 2f4b e034 f796 9c34 c2b0 7233
000002b0: 0000 0000 8855 1133 4407 c735 4035 e034
000002c0: 447c 9c34 a8d5 7233 0000 0000 78d7 1133
000002d0: 3a03 c735 38e0 e134 ae9a 9c34 10f7 7333
000002e0: 0000 0000 ce61 1233 9da9 b633 4012 bb35
000002f0: 67c7 3e33 fafe c231 0000 0000 c2e1 0f31
00000300: b09c b933 b36e bc35 8ff8 4133 decc c431
00000310: 0000 0000 8d71 1131 43d1 bb33 f17c bc35
00000320: edf4 4333 52bf c531 0000 0000 1753 1231
00000330: e0de bd33 43bf bd35 9540 4833 b94f c631
00000340: 0000 0000 d89f 1231 b55b c333 872f c035
00000350: 5fc3 5133 c2a1 c631 0000 0000 32ed 1331
00000360: ba91 c533 5d8b c235 df36 5433 e650 c631
00000370: 0000 0000 8735 1531 9dc2 c733 a517 c235
00000380: 7a59 5433 9136 c631 0000 0000 6601 1631
00000390: 7758 d133 1c92 c335 a8e1 6933 4672 c631
000003a0: 0000 0000 99ca 1631 cc74 d433 2537 bf35
000003b0: 0f25 6333 9b98 c731 0000 0000 ea6d 1831
000003c0: ddaf d833 e690 bf35 87a4 6033 2519 c831
000003d0: 0000 0000 8eeb 1831 d263 db33 072a c235
000003e0: 1b03 6033 f80f c831 0000 0000 b102 1a31
000003f0: e6e3 de33 e036 c035 77f7 5c33 18fc c831
1.2970879e-06 4.0155282e-07 1.7247378e-07 5.333436e-08 0.0 2.998875e-08 1.3033693e-06 4.0359456e-07
1.7644585e-07 5.3472995e-08 0.0 3.0210092e-08 1.3154539e-06 4.0015442e-07 1.8002153e-07 5.3599486e-08
0.0 3.037801e-08 1.3205924e-06 4.0193544e-07 1.8607909e-07 5.3783246e-08 0.0 3.045408e-08
1.3323378e-06 3.9817925e-07 1.9417509e-07 5.3907783e-08 0.0 3.085334e-08 1.3434444e-06 3.9513924e-07
1.9776009e-07 5.399043e-08 0.0 3.1057965e-08 1.3626652e-06 3.9480065e-07 1.9744667e-07 5.420373e-08
0.0 3.1320916e-08 1.3834315e-06 3.9718952e-07 2.109473e-07 5.438341e-08 0.0 3.1591547e-08
1.4002187e-06 3.9642114e-07 2.1145716e-07 5.451305e-08 0.0 3.1976708e-08 1.4361738e-06 3.934679e-07
2.124021e-07 5.461421e-08 0.0 3.2163566e-08 1.4477828e-06 3.826046e-07 2.0912339e-07 5.471415e-08
0.0 3.242477e-08 1.4607356e-06 3.7961584e-07 2.1171815e-07 5.4793624e-08 0.0 3.2590197e-08
1.4803079e-06 3.8150662e-07 2.1455543e-07 5.48587e-08 0.0 3.2886465e-08 1.4894175e-06 3.8032627e-07
2.2118347e-07 5.496853e-08 0.0 3.309326e-08 1.4923794e-06 3.8111705e-07 2.323859e-07 5.511938e-08
0.0 3.3248124e-08 1.4901398e-06 3.8864206e-07 2.432203e-07 5.5278512e-08 0.0 3.338788e-08
1.4912329e-06 3.8908314e-07 2.5023797e-07 5.539039e-08 0.0 3.3449197e-08 1.4886407e-06 3.8876294e-07
2.573079e-07 5.5493818e-08 0.0 3.3671366e-08 1.4787654e-06 3.8771088e-07 2.6448035e-07 5.565982e-08
0.0 3.3715644e-08 1.4736116e-06 3.8718275e-07 2.726763e-07 5.571074e-08 0.0 3.3832933e-08
1.483034e-06 3.899134e-07 2.7901564e-07 5.5798157e-08 0.0 3.3842372e-08 1.475904e-06 4.204473e-07
2.84386e-07 5.5873464e-08 0.0 3.3851858e-08 1.4706072e-06 4.179216e-07 2.8781776e-07 5.5977406e-08
0.0 3.373222e-08 1.4941421e-06 4.1733875e-07 2.9122182e-07 5.6073624e-08 0.0 3.3762795e-08
1.4918428e-06 4.188035e-07 2.9096202e-07 5.6131025e-08 0.0 3.3856594e-08 1.4847076e-06 4.1632595e-07
2.9204145e-07 5.6217914e-08 0.0 3.395448e-08 1.4640399e-06 4.1798506e-07 2.9430356e-07 5.6337978e-08
0.0 3.3959306e-08 1.4630792e-06 4.1718644e-07 2.9320802e-07 5.6373338e-08 0.0 3.3893087e-08
1.4827405e-06 4.1777955e-07 2.9167106e-07 5.6505776e-08 0.0 3.3838234e-08 1.482877e-06 4.1761996e-07
2.914768e-07 5.6539335e-08 0.0 3.395641e-08 1.4827594e-06 4.2072656e-07 2.916981e-07 5.680255e-08
0.0 3.4082227e-08 8.505888e-08 1.3937897e-06 4.4419178e-08 5.6751306e-09 0.0 2.0937567e-09
8.643235e-08 1.4039309e-06 4.5162377e-08 5.7276415e-09 0.0 2.1164823e-09 8.7459306e-08 1.4043454e-06
4.5624734e-08 5.755205e-09 0.0 2.1293027e-09 8.841539e-08 1.4137262e-06 4.6624866e-08 5.771622e-09
0.0 2.1336657e-09 9.0970765e-08 1.4318947e-06 4.8839293e-08 5.780948e-09 0.0 2.1526145e-09
9.200035e-08 1.4494686e-06 4.941e-08 5.7717555e-09 0.0 2.171278e-09 9.3020596e-08 1.4461008e-06
4.9441475e-08 5.768762e-09 0.0 2.1828668e-09 9.7484126e-08 1.4571156e-06 5.4454773e-08 5.77555e-09
0.0 2.1943036e-09 9.8932645e-08 1.4246658e-06 5.288626e-08 5.8090115e-09 0.0 2.218139e-09
1.0090273e-07 1.427278e-06 5.23037e-08 5.8236247e-09 0.0 2.2252808e-09 1.02161394e-07 1.4466358e-06
5.215689e-08 5.8225815e-09 0.0 2.241148e-09 1.0379135e-07 1.4321085e-06 5.144781e-08 5.849426e-09

exp_avg f4 [128]
00000000: a00a f9b8 e328 0e37 8405 80b8 69fd 9eb9
00000010: 433c d5b7 de1d 2237 e726 02b9 55ad bcb8
00000020: de5a cfb6 8687 1d37 df1f ff37 9532 71b7
00000030: feb8 8338 06ff f1b8 161a a1b8 5084 6b36
00000040: 88ac 9f38 12d2 94b7 4bea 55b8 f56f 6238
00000050: 1ced e937 00c6 6cb8 62aa a737 802e 0fb7
00000060: 125c e938 3933 a5b8 043f 3139 71a8 a538
00000070: 8657 58b8 e7b2 b038 8f69 6c38 bc8f b5b5
00000080: 07f1 c9b6 da3a e5b6 daed 05b8 a9f6 5a37
00000090: 9382 2cb9 f81d 0839 3a9f 8db9 abff dfb5
000000a0: 4a5b 9137 7971 aa37 ec53 99b8 6004 bfb6
000000b0: 0999 62b9 1b52 fbb7 851e 6eb8 c4c6 dcb8
000000c0: ec5b 0fb8 0b5a 8738 ba8c ce36 05bf 2db8
000000d0: 4ab0 34b8 e963 5938 7d22 8e37 64ab a1b8
000000e0: dad6 37b8 c8c3 1b38 2963 02b5 9462 2337
000000f0: 63d3 3638 cb46 10b8 8650 18b8 480d 7bb5
00000100: c24a cf36 e347 cbb8 27e5 8038 ba32 0037
00000110: 1d8a aa38 e918 23b8 dbde 2bb9 6559 1a39
00000120: 36b6 f9b7 e966 9db7 24e6 9eb7 fb71 3fb8
00000130: c237 5638 6c40 12b9 4684 b5b6 03c5 afb8
00000140: 04f1 c6b6 b548 8537 f358 3037 7f85 02b9
00000150: 7056 94b9 ba96 0ab9 e711 3437 ef9c aa38
00000160: 4bbf 5338 abf8 ad36 c540 deb7 4825 ab37
00000170: aa3e 3fb8 e225 44b8 0b16 6938 4766 8738
00000180: a778 cdb8 353e e9b7 8516 62b8 6961 c638
00000190: f63e ccb6 0c9e d7b8 38ca 3938 2a9e 23b7
000001a0: 6060 cb37 d15c 5438 124f bd37 db89 9e37
000001b0: 143a d2b5 9be0 a337 44a7 3737 c913 c137
000001c0: 796d eab7 9458 ccb8 fe13 75b5 fd43 76b6
000001d0: de4b 1a37 fbd5 d337 a53f 21b8 5102 be37
000001e0: 3d06 beb6 8e7b 0139 d3ff 0637 0dcd 7938
000001f0: b1e5 09b9 7eeb 40b7 b4bf 9137 f94c 16b8
-0.00011875224 8.473379e-06 -6.104543e-05 -0.00030324914 -2.541964e-05 9.662906e-06 -0.00012412258 -8.996824e-05
-6.179659e-06 9.389483e-06 3.041321e-05 -1.4376496e-05 6.281024e-05 -0.00011539277 -7.681937e-05 3.5094745e-06
7.613847e-05 -1.7740796e-05 -5.100136e-05 5.3986867e-05 2.7886177e-05 -5.6451187e-05 1.9987292e-05 -8.534291e-06
0.00011127455 -7.877354e-05 0.0001690351 7.899188e-05 -5.1579926e-05 8.425657e-05 5.6365094e-05 -1.3527383e-06
-6.018326e-06 -6.831583e-06 -3.1931188e-05 1.3051243e-05 -0.00016451841 0.00012981135 -0.0002701225 -1.6689204e-06
1.7327857e-05 2.0318419e-05 -7.31124e-05 -5.692753e-06 -0.0002161005 -2.9959765e-05 -5.6772045e-05 -0.000105274405
-3.4179466e-05 6.4540734e-05 6.155661e-06 -4.1424315e-05 -4.3079526e-05 5.182988e-05 1.6943779e-05 -7.709002e-05
-4.3830696e-05 3.7137215e-05 -4.857307e-07 9.738509e-06 4.358905e-05 -3.4398206e-05 -3.6314617e-05 -9.3524113e-07
6.1777837e-06 -9.693184e-05 6.1461986e-05 7.641205e-06 8.131957e-05 -3.8885428e-05 -0.00016390851 0.00014719887
-2.9767962e-05 -1.876378e-05 -1.8942235e-05 -4.56441e-05 5.1073504e-05 -0.00013947644 -5.409619e-06 -8.3813466e-05
-5.9289177e-06 1.5888692e-05 1.0511128e-05 -0.00012447497 -0.0002829316 -0.00013216856 1.0733004e-05 8.135463e-05
5.0484476e-05 5.1847505e-06 -2.6494623e-05 2.0402149e-05 -4.559631e-05 -4.6765323e-05 5.5572058e-05 6.456352e-05
-9.797635e-05 -2.7804732e-05 -5.3903572e-05 9.45952e-05 -6.0870034e-06 -0.000102814374 4.4295768e-05 -9.7523825e-06
2.4244364e-05 5.063118e-05 2.2567376e-05 1.8899262e-05 -1.5663122e-06 1.9535704e-05 1.0946595e-05 2.3016606e-05
-2.7945951e-05 -9.743977e-05 -9.1298705e-07 -3.669643e-06 9.1967795e-06 2.5252803e-05 -3.8444665e-05 2.2650844e-05
-5.6631675e-06 0.00012348426 8.046586e-06 5.9557195e-05 -0.00013150905 -1.1498922e-05 1.7374616e-05 -3.5834473e-05

exp_avg_sq f4 [128]
00000000: 37ed cd33 83f5 1032 10f0 2e33 dae9 ed34
00000010: 3720 0433 3531 1933 0c1d d133 8e39 8733
00000020: abef 8133 0eff cd32 3625 7833 9876 0a33
00000030: 727d 5c33 1b18 4c34 4d0d 0833 9799 5732
00000040: 5775 f833 a0a9 b332 5be9 0433 d051 b032
00000050: 2b71 0333 adbc d932 9636 2633 8de8 f731
00000060: 57b7 2634 efc2 b532 4623 0434 7da5 7a32
00000070: 7d53 d132 6693 cd33 260a 7c33 4bda 3433
00000080: fe84 1433 a097 3632 6fb6 9832 1508 2532
00000090: dbdf 6933 8dec b733 5cb1 3734 8b17 a132
000000a0: 304d 1333 664f 0933 9138 cb32 9b85 2732
000000b0: 21e4 9134 fd11 7333 4bb3 9e33 88ee 1d34
000000c0: 4eff 4a33 e548 d032 1637 f232 a8f2 4733
000000d0: 2b59 e433 ef91 8733 1f78 d833 927f 1734
000000e0: 6c8e 6333 c5b9 0032 387a 2632 652e 5e32
000000f0: d142 8e32 cb17 6733 9db4 d333 b54a 0b32
00000100: 3efb 8432 a8ce 3933 70f7 7433 7ca7 2e33
00000110: 7a40 8933 c5f3 a433 0f68 d133 34bb 8a33
00000120: 7110 ab32 1900 b732 13ec 3332 b73d 7132
00000130: 98b2 5333 e62a 8d34 9191 f732 e4c5 3e33
00000140: 9347 8e32 6e74 e233 7d44 2a32 b9f8 8734
00000150: 2c16 9234 052c 8433 ae35 f032 d97e 0333
00000160: 34ea 9632 7701 5932 3ef7 6532 28d0 2532
00000170: 67fa 1e33 03a2 4933 b73b 5233 e49d fb33
00000180: 5cb3 a233 005d 3333 f394 9333 f101 8d33
00000190: 1446 0c32 b99e 8634 eacf 2033 3d82 e831
000001a0: 9966 5b32 167f a532 ab50 4b32 4961 cc31
000001b0: 34aa 0732 3601 c833 a508 0b32 dc37 1033
000001c0: 316b a932 7f89 5433 756b e031 93a3 7f33
000001d0: aa65 fa31 fc2a 6133 72a2 2d32 4986 bc32
000001e0: 50ba 0d33 e1e1 2d33 6178 2d32 f864 9132
000001f0: 34d6 3234 8ea0 4832 ae6a ee32 50c9 2732
9.5892055e-08 8.437726e-09 4.0730868e-08 4.431484e-07 3.0762944e-08 3.5667842e-08 9.7376045e-08 6.2968965e-08
6.050626e-08 2.3981126e-08 5.7775843e-08 3.223849e-08 5.1336833e-08 1.900775e-07 3.1677065e-08 1.2549569e-08
1.1569744e-07 2.091548e-08 3.094588e-08 2.05263e-08 3.060374e-08 2.5347925e-08 3.8699532e-08 7.215084e-09
1.5526653e-07 2.1159819e-08 1.230629e-07 1.4589543e-08 2.4368768e-08 9.572868e-08 5.8682552e-08 4.2108052e-08
3.457989e-08 1.062827e-08 1.777809e-08 9.606102e-09 5.4453135e-08 8.56463e-08 1.7107726e-07 1.8753573e-08
3.4296306e-08 3.197001e-08 2.3658034e-08 9.751058e-09 2.717434e-07 5.6594207e-08 7.3900615e-08 1.4708542e-07
4.726399e-08 2.4247536e-08 2.8197558e-08 4.6553993e-08 1.0633297e-07 6.3129725e-08 1.0080134e-07 1.410938e-07
5.2982088e-08 7.49282e-09 9.690261e-09 1.293265e-08 1.656136e-08 5.380552e-08 9.8583065e-08 8.107851e-09
1.5481074e-08 4.3261622e-08 5.703572e-08 4.0664858e-08 6.391288e-08 7.6811865e-08 9.751249e-08 6.460178e-08
1.9914497e-08 2.1304048e-08 1.0472848e-08 1.4042079e-08 4.9289696e-08 2.629451e-07 2.882078e-08 4.4417803e-08
1.6563524e-08 1.05451235e-07 9.910875e-09 2.532668e-07 2.721075e-07 6.154736e-08 2.7964088e-08 3.061618e-08
1.7568802e-08 1.26313955e-08 1.3385771e-08 9.651593e-09 3.701498e-08 4.6946308e-08 4.8948746e-08 1.17168184e-07
7.576338e-08 4.1761268e-08 6.8723146e-08 6.566177e-08 8.1650064e-09 2.507493e-07 3.7442e-08 6.766895e-09
1.2770806e-08 1.926632e-08 1.1834497e-08 5.9482415e-09 7.896734e-09 9.313446e-08 8.09283e-09 3.3578416e-08
1.9722934e-08 4.948515e-08 6.5314745e-09 5.9520584e-08 7.2875155e-09 5.242599e-08 1.0106861e-08 2.1947146e-08
3.299857e-08 4.0485137e-08 1.0097296e-08 1.6926137e-08 1.6655468e-07 1.1678038e-08 2.7755359e-08 9.7664525e-09
