results/run1/MazeBrain/MazeBrain-1420683.onnx (onnx, 170454 bytes, 8 tensors)

network_body._body_endoder.seq_layers.0.weight f4 [128, 186]
00000000: e1fc 5a3e b5f0 693d 8b40 3abd 77ae c63c
00000010: 669c 2dbd 48a5 cabb 7e9e 9e3d f172 843d
00000020: 176b 9fbd a8c6 313d 9f38 b5bb 0aaa 1e3d
00000030: f219 e7bd ab11 f33c 0c1f 113d d273 c8bd
00000040: 3a59 a33c 0b45 9b3d e2b2 45bd be38 d83c
00000050: 0671 643c abd8 12bd 6f54 bf3c 82b7 22bd
00000060: b480 b43d 9548 dd3d 437c 583d fc71 603c
00000070: d91f d33c 2c1e b8bd e388 48bd ccc5 613a
00000080: cce7 d2bd 1085 213e a198 f8bc 7dee e5bc
00000090: 4ccd 00bd c621 573c dc65 b73d 6325 72bd
000000a0: bc45 8d3d b129 9b3c 6aa5 5fbe 7fa1 bdbc
000000b0: 5700 e0bd 1f7d 013e db3c 9b3d 7bbc 9bbc
000000c0: da58 b2bd 2076 083d e685 d33d f580 363d
000000d0: b54c f7bc eedf 09be 4b63 acbd 2076 9ebd
000000e0: 75dc 23bd 144b 063e 097c 8e3d 841f a8bd
000000f0: dc80 b9bd 5395 073c 6ef6 cbbc dd87 aabd
00000100: 95c9 94bd d3b2 0bbe 0f2d 3f3c 73b0 df3c
00000110: b30d 29bd 8ede 0dbc 3996 8dbd ec9f aebd
00000120: 3479 2e3d 29de 013e 9ab5 21bd 3387 fcbb
00000130: 04ed 3d3d 0e03 233d 7cb6 d63b a268 80bd
00000140: 8335 d7bd 185a 9bbc b0b4 b43d d9b0 fbbd
00000150: b3e8 f13d ba41 843d eb31 84bd 87f1 f2bc
00000160: f339 77bd ac7c 373c 69c2 08be f04e 6cbd
00000170: d1ba c93d 790e 863c e81a 523d b5fd 773b
00000180: b14f 883d 47b2 1f3e ae40 d4bd fdce 513d
00000190: 877d e63d e6d0 3bbc 6aed 97bd 5c14 033e
000001a0: 371f b9bd 4a85 153d 1de6 563d e643 f1bc
000001b0: 7e1b 6d3d 25fb adbc 51eb 69bd 7797 973b
000001c0: 4f77 003e a16c 16bd f87f 05be 90d2 25bd
000001d0: 0acd 36be 7b15 90bd 1eb7 593d c12e c2bd
000001e0: f6d6 a3bd 3593 50bd 0501 13be ad3f a83c
000001f0: 75bb a0bc 45c5 c8bc e5bb 813d 8a70 6fba
00000200: b363 c5bc 00bd b93d 3964 10be 7eaf d6bd
00000210: db8e 31bd 2698 b0bd ff96 fe3c 994c 033d
00000220: e190 c43c f791 283d 94b1 8b3d 713e 83bc
00000230: 519f 513d 3746 20bc 69b1 27bc 267c 63bc
00000240: 985d b03c 85d6 0bbd 89ac 14bd 7737 173d
00000250: ca92 3cbc 6d4d 483d fb05 303c e5cf 92bd
00000260: 95e2 6e3c c9ff 8a3c 6487 87bd 1010 313b
00000270: 99e9 d5bd ec02 4e3b f486 18bc 04ed 7ebd
00000280: 586c a4bd c0b1 d3bd 0589 84bd df55 063e
00000290: f6a0 9bbd 17a2 183c 5348 4b3d 60fa 363d
000002a0: 8d7d b73d 8fc4 9dba 3365 bebc 6a4d d73d
000002b0: 4ec2 b63c 8a1d dfbc 8b3d a3bd d0f5 d63d
000002c0: 9851 46bc 02c7 5bba fd5c 3abe 2b8d 8c3d
000002d0: 2429 a8bc ed4d 6dbd 9b96 e6bd 0fde 153e
000002e0: 9838 333c b692 cebc 78a8 403d 32fb 3cbd
000002f0: 69c0 553d a942 513e e99b a53d 9648 703d
00000300: fc53 49bd 5410 f7bc 56a1 70bd 8946 46bd
00000310: 054e 153d 6c6f ff3d 21b6 0ebd a717 1cbe
00000320: 4140 09bc a27f 28bc ebf0 8abc ffd5 463e
00000330: 568e c73c 01c0 04be 21ab 663c 0128 a4bc
00000340: e57b 96bc c114 ae3d 1379 4cbd 6da6 19bd
00000350: 62e4 e53c 7a70 723d c62e 863d 4ad7 f83d
00000360: ce8e 14bd e15a a2bd a3f7 12bd fe8f 09be
00000370: 44b3 20be a8a0 c2bc 8797 f33c 8f3e 93bb
00000380: 34a0 6dbd c14e 67bd 5c3a 0b3e 1f83 54bb
00000390: 202e b63b fcb5 303d f3c6 87bd f1aa f53a
000003a0: d324 d93c f1e3 16bd bf4a 12bd 99ab 763a
000003b0: 6152 693c c815 b8bd 4453 81bd 6a40 69bd
000003c0: 8775 20be fb68 e43d fc58 853b 4381 32bc
000003d0: ca18 bcbd d22e 193c 47b8 223d d5a0 97bc
000003e0: 1512 683c fcdc b13d 1da3 71bd 6dfd 53b9
000003f0: 06d8 083d 9b34 3d3d 24a1 0ebc 4c50 c53c
0.21385528 0.05711432 -0.04547171 0.024253113 -0.04238548 -0.006184254 0.07745074 0.06467236
-0.07784098 0.043402344 -0.0055304314 0.03873638 -0.112842456 0.02967151 0.03543 -0.09787716
0.019940007 0.07581528 -0.0482663 0.026394244 0.0139429625 -0.035851162 0.02335569 -0.039725788
0.08813611 0.108048595 0.05285288 0.013699051 0.025772022 -0.0899013 -0.04895867 0.0008612543
-0.10298118 0.15773416 -0.030346217 -0.028067822 -0.031445786 0.013130611 0.08954975 -0.059117686
0.068980664 0.018940778 -0.21840444 -0.023148296 -0.10937565 0.12645386 0.07579967 -0.019010773
-0.08708353 0.033315778 0.103282735 0.044556577 -0.030187944 -0.13464329 -0.08417376 -0.07737374
-0.040005166 0.13114578 0.069572516 -0.08209136 -0.09057781 0.008275348 -0.02489778 -0.08326695
-0.07265011 -0.13642435 0.011668458 0.027305817 -0.04127283 -0.008659018 -0.06913418 -0.085265964
0.042596057 0.12682404 -0.03947983 -0.0077065467 0.046368614 0.039797835 0.0065525156 -0.06269957
-0.105082534 -0.018963858 0.08823526 -0.122895904 0.11811962 0.06457849 -0.064548336 -0.029656185
-0.060358 0.011199158 -0.13355412 -0.05769247 0.098500855 0.016364323 0.05129519 0.003784043
0.06655825 0.15595351 -0.10363899 0.05122279 0.11254411 -0.0114633795 -0.0741833 0.12800735
-0.09039157 0.036504067 0.052465547 -0.029451322 0.057887547 -0.02123792 -0.05710918 0.0046262103
0.12545513 -0.03672469 -0.13037097 -0.04048401 -0.17851654 -0.07035347 0.05315315 -0.09481574
-0.07999985 -0.050921638 -0.14355858 0.020538175 -0.019620636 -0.024508128 0.06334666 -0.0009133896
-0.024095392 0.09069252 -0.14100732 -0.10482691 -0.04334913 -0.0862277 0.03107786 0.03205547
0.023994865 0.041154828 0.0682098 -0.016020985 0.051177327 -0.0097823655 -0.010235169 -0.01388458
0.021529004 -0.03414013 -0.036297355 0.03691813 -0.011509607 0.048901964 0.010743613 -0.07168559
0.014580389 0.016967671 -0.066176206 0.002701763 -0.10444946 0.0031434847 -0.009309519 -0.062237754
-0.080284774 -0.103366375 -0.06471447 0.13118695 -0.0759906 0.009315989 0.04962952 0.04467237
0.08959494 -0.0012036728 -0.023241615 0.105128124 0.022309449 -0.027235765 -0.07970723 0.10496104
-0.012104414 -0.00083838415 -0.18199535 0.06862863 -0.02052743 -0.057935644 -0.112591945 0.1463549
0.010938786 -0.025216442 0.047035664 -0.046137996 0.05218545 0.20435585 0.08086378 0.058662973
-0.04915236 -0.030159153 -0.058747612 -0.04840711 0.03645136 0.12472424 -0.03484166 -0.15243398
-0.008377136 -0.010284336 -0.016960582 0.1941757 0.024359863 -0.12963869 0.014078886 -0.020038607
-0.018369624 0.08500052 -0.049920153 -0.03751223 0.028063003 0.059189297 0.0655189 0.12150438
-0.036269 -0.0792749 -0.035880696 -0.13433835 -0.15693384 -0.023758247 0.02973534 -0.0044935415
-0.05801411 -0.05647159 0.13596481 -0.0032426787 0.0055596977 0.043142304 -0.066297434 0.0018742961
0.026506817 -0.036838476 -0.035715815 0.00094097253 0.014240832 -0.089885294 -0.0631471 -0.056946196
-0.15669833 0.11152836 0.0040694457 -0.010895076 -0.09184416 0.009349542 0.03972652 -0.018509308
0.014164467 0.086847275 -0.058993448 -0.00020216937 0.03340914 0.046192747 -0.008705411 0.02408614

network_body._body_endoder.seq_layers.0.bias f4 [128]
00000000: 3231 8d3c 81ac 09bd c6c0 cfba 9d34 153d
00000010: 9f90 39bd cba5 0c3c f357 77bc 052e 81bc
00000020: 456a 96bc e8d6 92bc 1576 95bc f0cb d0bc
00000030: 032d 0fbc 298b c63c 8fdf c5bc f3b0 d7bc
00000040: 849c 3e3c ca48 37bc fe5f efbc 695e 85bc
00000050: eb93 22bd 96a1 f6bb e481 84bc 9f93 993c
00000060: 8c18 9f3c bd5e 11bd 5e76 c43c 521a 2dbc
00000070: ec98 da3c 2bcf e43b 8d80 943c 8a04 c6bc
00000080: 41b1 ef3b ba6c 28bc 35ef 29bd 1e61 f53c
00000090: 0037 b63a 7aaf bbbc 6c59 193c c457 9bbc
000000a0: 5c8e 3cbc 2f8a f53a 5fc3 73bb 6c52 9e3c
000000b0: a582 f63c 9ae2 18bc 3387 b43c 3d1c 853c
000000c0: 31d3 c0ba 223b 14bd 3b44 1c3b 8201 033d
000000d0: 3e4d d3bb 566c 983c dbd6 b63c 3087 f13c
000000e0: 893f 58bc 85b4 06bd 60ee 3fbd e246 153d
000000f0: bdd5 9a3b 8f04 b43c 20ee 103d f036 1dbd
00000100: af9c de3b de93 ab3c 741f 303d a838 b2bc
00000110: 615b fa3c 8ebd 54bc 6a4d a7bc d7a8 303c
00000120: 2f37 5d3c 9fc3 9d3c 663e fa3c 6165 47bd
00000130: 41d2 19bd 4a8c c73c a260 8abc fbf1 4bbb
00000140: c90a b13c cce8 133d 5040 bdbc 11d5 fc3b
00000150: 7001 a73c 29db e2ba 5c3e 653b c93f 093c
00000160: dfbe e4bc adc6 88bc 0255 933c 6f89 cebc
00000170: df97 fb3b d948 48bc 8f3a 933c a2b9 1b3c
00000180: 6abc 173c bc92 ecbc 4ec6 223a f528 aabb
00000190: 7b74 793c 62f3 b93c 3ae8 9cba 597c 79bb
000001a0: 180a 2b3d ed9e 413c 1180 b7bb 8355 0abc
000001b0: 26fc 3a3c 7a39 06bb 4024 88bd b35a 49bd
000001c0: 6d35 7ebc 9166 fdbb 365b 4bbd 594a 20bd
000001d0: 8e4c 623c 37bf 173d e62f 9bbc 6940 913c
000001e0: e00f 60bd 8337 743c eccd 1ebd 3ed2 68bb
000001f0: da54 393c 3159 b93c 62c3 c63b 3452 96bc
0.017235372 -0.03361178 -0.0015850298 0.03642713 -0.045303937 0.00858445 -0.015096652 -0.015769014
-0.01836122 -0.01792474 -0.018244782 -0.02548787 -0.008738759 0.024236279 -0.024154453 -0.026329493
0.011633996 -0.011186788 -0.029220577 -0.01628037 -0.039691847 -0.0075265868 -0.016175218 0.018747149
0.019420885 -0.03549074 0.023982223 -0.010565357 0.026684247 0.006982704 0.018127704 -0.024172086
0.0073148315 -0.010279829 -0.04148789 0.029953536 0.0013901889 -0.022910822 0.009359699 -0.018962748
-0.0115085505 0.0018733199 -0.0037195308 0.019326411 0.030091593 -0.00933137 0.022037124 0.016248817
-0.0014711377 -0.036189206 0.002384438 0.03198386 -0.006448417 0.018606346 0.022319248 0.029483408
-0.013198742 -0.032887 -0.04685819 0.036444552 0.0047251866 0.02197483 0.035383344 -0.03838247
0.0067935805 0.020944532 0.042998746 -0.021755531 0.030561151 -0.0129846465 -0.020422656 0.010782442
0.013501926 0.019258318 0.030547332 -0.048680667 -0.03755403 0.024358887 -0.016891781 -0.0031119573
0.021611588 0.036110684 -0.023101956 0.007715829 0.020386428 -0.0017307746 0.0034979796 0.008377024
-0.027923046 -0.016696298 0.01798487 -0.025212018 0.0076780166 -0.0122243995 0.017972259 0.0095047075
0.00926123 -0.028878562 0.0006209359 -0.0051928707 0.015225525 0.022699062 -0.0011971064 -0.0038068502
0.041757673 0.011817676 -0.0055999835 -0.008443239 0.011412656 -0.0020481036 -0.06647539 -0.049158763
-0.015515667 -0.007733174 -0.049647532 -0.039133403 0.013812197 0.03704759 -0.018943738 0.017730908
-0.05470264 0.014905813 -0.0387706 -0.0035525705 0.011311734 0.022625538 0.006065772 -0.018349744

network_body._body_endoder.seq_layers.2.weight f4 [128, 128]
00000000: 4847 703b 489a 9d3d bbd0 9cbd 165c 58bd
00000010: 83a3 393d c0bd 233d bba3 153e 357d e2bc
00000020: ec47 90bc e8ab c73d 1d20 11bd 7f5b e5bd
00000030: eb65 b6bd c565 c2ba 2c83 7738 3eae 5abd
00000040: 3be3 e9bc 3a21 ee3d 449a c53d 1756 0abd
00000050: 47b7 03be 6d03 7cbd 328c 403d cb3a a33d
00000060: 8040 ba3d 863f 8cbd 87fb ea3d 9f1c 2a3e
00000070: 2bc8 dabd 5282 8f3c b7a2 ebbd 82aa 0a3d
00000080: 4f44 9abd 781a 34bd 57e5 b1bc a589 af3d
00000090: c55d 2abe 999e ad3c 0419 03be 5781 133d
000000a0: 94f6 e63d 7cba 43bd 930d 423c 71c9 0e3c
000000b0: cbbb 97bc c639 e8bc 329d 3bbe d13a 153e
000000c0: d4e6 923b dbf4 d7bc e470 113e 4891 f53d
000000d0: ee8c 01be b268 343d 2f2d 0abe 0c43 2abc
000000e0: 7577 7f3b b68c cabc 96b5 4c3d f096 e6bd
000000f0: de23 6ebc ada0 7e3c ad7a 59bd 30c8 eebc
00000100: bbb3 b63c 61db d33d 01d2 e53c 17f3 123d
00000110: 1b18 1d3c a681 33be 67ad db3c 140c 4abd
00000120: 5bf4 d6bd 254b 093e 99f2 093d 59dc adbd
00000130: 65d5 15bd a5ab 54be ba5c a83b 62aa 183e
00000140: 89d8 16bc 473c dc3c f22a 983d ca2b 8c3c
00000150: 3b97 16bd 57d5 813e 653e 573e 0e57 41be
00000160: 87fc 3a3c bae7 c7bc 6317 9dbc 52fc 84bb
00000170: 774e b43c 3d8b 8e3d 6dda 52bc f8b9 2c3e
00000180: 3b36 acbe ef5f 99bd 596b 1e3e e61b f73d
00000190: c483 dabd 919a 57bd 42e3 8e3d 8086 323e
000001a0: aff9 033e ec04 143d 1c06 473c eb0c 333e
000001b0: 5f37 df3b 787a c1bd 3283 21be 98c4 78bd
000001c0: 29f5 9dbd 1716 4f3d 927d cb3d e82f 26be
000001d0: 00f4 d1bd 9eec 933e 1b0e 4fbc cac7 6dbd
000001e0: a565 69bd 09fe b4bc 5759 d9bd c7e6 34bd
000001f0: d976 f93d eaf3 16bb 2166 d3bc f0c2 9ebc
00000200: b317 7bbc 03ba e1bd 66bd 763d 78da 1cbd
00000210: c668 0abe 6f0e b93d 3178 35be 7147 313e
00000220: 2127 5f3d 718b 05be ab45 103e 48e2 8bbd
00000230: b1f9 1ebe c4f6 d23d bf3d c33c 258a 21be
00000240: 5f20 733e a07b 4b3d bf35 80bd a7c5 84bd
00000250: 979d f3bc 0862 9fbb 3340 bd3c c327 ebbc
00000260: bc1a 373b 0d13 8ebd 937e 913d 1683 663d
00000270: 24de 0abd 68a1 c7bd 5634 b5bb 1ec7 e73d
00000280: 54af 88bd cf33 423d 8522 f1bd c449 03bd
00000290: 2560 32be 4df6 3fbd abd5 3fbd 186d 023e
000002a0: 2ac5 da3b 4a32 a13d 2790 2e3d b63e ef3d
000002b0: 54db 133d 5966 84bb 1f7a 42bc 8d67 2c3d
000002c0: 355a d43a b82e 653d 34f9 03bd a423 863d
000002d0: cf37 8c3c 1234 1ebe 9798 9b3c fc06 9e3c
000002e0: cf37 edbc 9000 343d 07de bc3d 784c c5bc
000002f0: a2d7 a03d 8333 90bd 6615 e2bd e603 d8bd
00000300: f7d1 01be 7032 eabc 93c4 d7bd 2f17 82bd
00000310: 62a3 be3d 2b66 663e 1c85 10bd fda8 88bd
00000320: 3d64 793e d1ff a7bb 0fa1 63bb 5816 243e
00000330: b3b3 a3bd 1a3f 5dbd 8c01 873b 3bcf 16be
00000340: a558 eabd 8095 c1bd 1618 b13c 74bb b33d
00000350: ce24 293e d9bf 23be 7269 edbd b2ad 3a3c
00000360: b5d8 703c 8e56 74ba 8ec5 343d 3dd4 a6bd
00000370: e2d0 0bbd afce c6bd 66ed 92bd b1e4 0b3e
00000380: 4533 8ebd 0a8b 663c 8069 d53d 77d6 bbbd
00000390: d744 15be 46e3 0cbe c8d8 423c 8a00 933d
000003a0: f6a4 95bd 1be9 8a3d e0c1 153e daf5 96bd
000003b0: 293f d93d aa20 8ebd f106 b73d f280 b23d
000003c0: 14e7 ad3d 8c64 fc3c 589c 623d 3790 24be
000003d0: e65a 99bd f00a 2abd 1230 1bbe 335c 70bd
000003e0: edba 433d 4af5 c63d 3f17 0cbd 7732 cbbd
000003f0: deb0 9c3e ca49 74bd a080 a73c 1540 fb3d
0.003666358 0.076954424 -0.07657 -0.052822195 0.045321953 0.03997588 0.1461324 -0.027647594
-0.01761242 0.097495854 -0.035431016 -0.11199092 -0.08906158 -0.0014831355 5.9011552e-05 -0.053388827
-0.028550735 0.11627431 0.096485645 -0.033773508 -0.12862884 -0.061526705 0.0470087 0.07970198
0.09094334 -0.06848054 0.11473756 0.1661248 -0.1068271 0.017518196 -0.11505645 0.033854015
-0.0753256 -0.043970555 -0.021715803 0.085711755 -0.16637333 0.02119379 -0.12802511 0.03601202
0.112775 -0.047785267 0.011844057 0.00871502 -0.018522164 -0.028347861 -0.18321684 0.14573218
0.0044830833 -0.026361873 0.1420322 0.11990601 -0.12651417 0.044045158 -0.13493799 -0.010391962
0.0038981114 -0.0247253 0.04997786 -0.11259258 -0.014534919 0.015541238 -0.05309551 -0.029148191
0.022302499 0.103445776 0.02805424 0.03587636 0.009588267 -0.17529926 0.026816083 -0.049327925
-0.10495826 0.13407572 0.033678625 -0.084892936 -0.036580462 -0.20768602 0.005138007 0.14908746
-0.009206899 0.026884211 0.07430066 0.017110724 -0.03676532 0.25358078 0.21019895 -0.18880865
0.011412746 -0.024402488 -0.01917619 -0.0040583992 0.022010071 0.06960151 -0.01286946 0.16867816
-0.33635125 -0.07489001 0.15470637 0.12065868 -0.106696635 -0.05263764 0.0697694 0.1743412
0.12888215 0.036137506 0.012147453 0.17485397 0.0068120207 -0.09447187 -0.15772703 -0.06073436
-0.07712776 0.050558176 0.0993606 -0.16229212 -0.102516174 0.28891462 -0.01263764 -0.05805186
-0.0569817 -0.02209379 -0.10612743 -0.0441654 0.121808715 -0.0023033568 -0.025805535 -0.019380063
-0.015325475 -0.11021807 0.06023922 -0.038294286 -0.1351653 0.09035956 -0.1772163 0.17312409
0.054480676 -0.13041474 0.14089076 -0.06830269 -0.15524937 0.10300973 0.023833154 -0.15775354
0.23742817 0.049678445 -0.06260251 -0.06483012 -0.02973823 -0.004863981 0.023101902 -0.028705483
0.002793952 -0.069372274 0.0710422 0.056277357 -0.033903256 -0.09747583 -0.0055299206 0.113172755
-0.06674066 0.04741269 -0.11774162 -0.03205277 -0.17419489 -0.04686575 -0.04683463 0.12736928
0.006676336 0.0787092 0.042617943 0.11681883 0.03609784 -0.004040521 -0.011869936 0.04209094
0.00162012 0.055952758 -0.03222008 0.06549767 0.017116455 -0.15449551 0.018993659 0.01929044
-0.028957276 0.04394585 0.09222036 -0.024084315 0.07853629 -0.07041075 -0.11039238 -0.105476186
-0.12677751 -0.028588504 -0.105355404 -0.06352078 0.093085065 0.22499911 -0.035283193 -0.06672857
0.24354644 -0.0051269312 -0.003473345 0.16024148 -0.07993259 -0.054015256 0.0041200574 -0.1472749
-0.11442689 -0.09452343 0.02161793 0.08775988 0.16517946 -0.15991153 -0.11592378 0.011393951
0.0147001045 -0.0009320759 0.044133715 -0.0814595 -0.034134753 -0.097073905 -0.071741864 0.13661458
-0.06943373 0.014071235 0.10420513 -0.09171765 -0.14577042 -0.13758573 0.011892505 0.07177837
-0.073068544 0.067827426 0.14624739 -0.07371111 0.1060775 -0.06939824 0.08936871 0.087160006
0.0849134 0.030809663 0.055324882 -0.16070639 -0.074880406 -0.041514337 -0.15155056 -0.058681678
0.04778569 0.09714754 -0.034201857 -0.09921735 0.3060369 -0.059640683 0.020447075 0.12268082

network_body._body_endoder.seq_layers.2.bias f4 [128]
00000000: 7e50 9ebb 2db6 3ebd 6005 6fbd 3572 283d
00000010: 1d39 22bd 4c65 7cbd 2f7b 14bb e47e 88bb
00000020: 9134 6cbd e7a7 1d3d ee44 01bb 832a 0f3d
00000030: a0a7 3a3d a80a 263d 2c22 59bc 51f8 043d
00000040: 9f87 c1bb 1f73 a2bb bb3c 45bb 9af5 9dbc
00000050: 58e5 3b3d 99c7 063d 7118 a43c 995e 18bc
00000060: c0cd b43c 5b61 c63a 7187 55bc c058 e53b
00000070: 9e50 11bd a4b0 4fbd 0f54 0fbd 5381 e1bc
00000080: b14a 08bd 7e10 263d 728a 213d 7aac d83c
00000090: 7d41 813c 103d e03b 7de4 4dbc 18f5 29bd
000000a0: c1e4 09bd 0d6f 973c 82ae 1e3c 276f 35bd
000000b0: 3d70 3fbd e6ba e73c d288 e93c 135c 02bd
000000c0: 2067 89bc 5eda 72bc 431f 2fbb e7fd 6a3d
000000d0: 5a87 683c d64c 0cbd 7403 143d f533 513d
000000e0: 7b45 12bd 83c5 d53c 9646 563c 3206 ad3b
000000f0: c2fe 35bd 3a13 063c f0f3 ae3b 9875 793c
00000100: 8747 153d 19aa 083c 5e42 08bd 591f 19bc
00000110: e0d3 36bd 1a5f a0bd ac62 0abd e001 5ebd
00000120: a425 09bd 7419 e73c a321 903c dc40 99bc
00000130: ff69 b2bc 0694 003d fc0f 79bc 1d3d 15bc
00000140: 3417 a9bc 1251 d13c cb3f 8f3c ef75 25bc
00000150: 7946 9dbd 2a51 61bd 567a 353c 3ef3 bd3c
00000160: 0c9e 5c3b b91b 153d ed02 54bd d90a 37bd
00000170: a0cc 9bbd e89e 2bbd 5f90 bcbc 7e14 90bd
00000180: 4a9b bb3c 89d0 dc3c 9634 84bc 79e2 02bd
00000190: 0be1 13ba 4e50 fc3c 3ccb b7bb 2a66 a8bb
000001a0: b2ee 53bc dcea eabc 1176 063d d513 a23b
000001b0: c45f 6bbc 5fd8 9d3b d574 4f3d 91a8 303b
000001c0: 1b17 62bc b171 25bd 0772 57bb f2ac 083d
000001d0: f1d6 1f3d a303 ae3c 9275 19bd a252 693c
000001e0: fcf5 823c 7d07 f63c 73c7 debc ca19 373c
000001f0: ee32 9b3c 50c7 b73c 964e 583b 8cd3 c0bc
-0.0048313728 -0.046560455 -0.058354735 0.04112454 -0.03960525 -0.06162004 -0.002265643 -0.004165517
-0.05766732 0.038490202 -0.0019724923 0.03495265 0.045570016 0.040537506 -0.013252776 0.032463375
-0.00590606 -0.004957571 -0.0030096013 -0.019282151 0.045873016 0.032905195 0.020031186 -0.009299898
0.022070765 0.0015135215 -0.01303278 0.006999105 -0.035477273 -0.050705567 -0.034992274 -0.027527487
-0.033274356 0.040543072 0.039438672 0.02644943 0.015778298 0.0068432167 -0.012566683 -0.041493505
-0.033665422 0.01848557 0.009685161 -0.044295456 -0.0467379 0.028287362 0.028507624 -0.03182609
-0.016772807 -0.014822571 -0.0026721514 0.057371046 0.014192427 -0.034252964 0.036136106 0.05107494
-0.035710793 0.026095157 0.013078352 0.0052802796 -0.04443241 0.008183295 0.005339138 0.01522579
0.036445167 0.008341336 -0.033266418 -0.009345853 -0.044635653 -0.07830639 -0.033785507 -0.054201007
-0.033483163 0.02821038 0.017594164 -0.018707685 -0.021779059 0.031391166 -0.015201565 -0.009108809
-0.020640947 0.025551353 0.017486474 -0.010098918 -0.07679457 -0.055009045 0.01107653 0.023187276
0.003366354 0.03640339 -0.051760603 -0.04468808 -0.076073885 -0.04189959 -0.02301806 -0.070351586
0.022901196 0.026954906 -0.016138356 -0.031954262 -0.0005641139 0.030800011 -0.005608944 -0.005139132
-0.012935327 -0.028676443 0.03282744 0.004946212 -0.014366094 0.004817053 0.05064853 0.0026955942
-0.013799454 -0.040391628 -0.0032874362 0.03336806 0.039023343 0.021241968 -0.03746564 0.014240893
0.015986435 0.030032868 -0.027194714 0.011175582 0.018945184 0.022433907 0.0033005825 -0.023538373

action_model._continuous_distribution.log_sigma f4 [1, 2]
00000000: 614e 98bd 5ad9 573b
-0.074368246 0.0032935948

action_model._continuous_distribution.mu.weight f4 [2, 128]
00000000: fa39 8f3c 065a 8e3c 6e63 663d 581c abbb
00000010: 23ab 893d 6db7 4b3d cd76 fe3b e41b 2d3d
00000020: f432 c83c a740 77bb ee29 4c3c 8cf1 a8bb
00000030: 1a66 46bd f7bd bbbc aa6d 73bb f8ba 42bc
00000040: ad90 cf3a f706 813c ae08 fa3c 1cdd 4f3d
00000050: 47c6 76bc dc48 80bc d809 6abc 8b69 763b
00000060: 3fa3 adbc ac0d 533b e7bb 18bc df7c 22ba
00000070: 722f 9b3c 8ec8 383c 495a 093d 0ad9 e03c
00000080: aa02 0a3d 32f6 ccbb 055f cbbc bcaa 2abc
00000090: 1179 bfbb 0390 ebbb 0dfa 923c 5b6d 533d
000000a0: 1eaa df3c 9e22 5f3c a9ad 81bb cf8a 463d
000000b0: faa5 8d3c 3aab 08bd 0a2d b6bc 1b63 903c
000000c0: 21ab 943b b327 2bbc 65e3 143d 3291 25bd
000000d0: 7ee5 fbb9 0c5e 2b3c 4afa a3bb 3373 dcbc
000000e0: 2ca3 83bb 974c 4dbc edfc 41bc 166a c43a
000000f0: ab38 803d dbe9 b9bb 20b6 a3bc 6132 32bc
00000100: 80c6 05bc 4e99 27bc 8b72 183b c848 da3a
00000110: 5b45 f33c aa60 703c ea7f e53c d4ee 593d
00000120: 09a3 413d 90cd 1dbd 98db d0bc cd7b a23c
00000130: 10cf 863c 1ccc 4cbc da4f ae3b aaec bc3b
00000140: c415 353c 8db9 10bb 8390 36bc 0018 313c
00000150: c4cf 823c b3c2 9b3c fbc9 42bc a5de 5ebc
00000160: 0a68 80bb 2d44 2dbd 653a 7c3c 7376 483c
00000170: 0683 f53c 1034 6e3c 548c 613b 50db 823d
00000180: d5d3 28bc 5290 e6bc 741d c3bb bf71 123c
00000190: dfc6 0ebc 6bee 2e3a 5d6d 383c dd5c 483c
000001a0: 92ac 113d 4c00 81bb b39b 4dbc 7e01 2a3b
000001b0: dea9 f43c a813 c53b c768 8ebc d4ae 723c
000001c0: 1767 d13c 3c23 f4ba 74b7 2c3c b20b a1bc
000001d0: 2553 27bd c9c1 c0ba c1d8 ca3b 96ef 5cbc
000001e0: 1ae8 c5bc 405b 28bd 5228 1f3b f7ae 4ebb
000001f0: 219a 91ba c5eb 0fbd 7ec5 f9bb 4e2d 223d
00000200: 2aa3 dd3c 98eb d7bb 8414 d2bc 5b3b 00bc
00000210: 35a9 5fbd acf8 35bd 2ff1 c8bc 281e 003d
00000220: 4bbc 9cbb 515d 453d 9590 02bd 89c8 723a
00000230: 65ae ab3c db98 cb3c 4c40 edbc c4a0 823c
00000240: 952e 0cbc bb55 073c 7929 41bd 0bd9 433c
00000250: e00f f73c 153f bbbc 71b5 8bbc b02a 913c
00000260: 6ffa aabc dcf6 2dbd 87b2 e1bb 2b55 46bc
00000270: d71c debc 4391 c33c 695b 1a3c 737f afbb
00000280: 991c 363c 76ec c73c 7ca8 5a3c 5dd6 26bc
00000290: fc89 11bd 5288 76bc 9a15 033d 698b 42bc
000002a0: 0df4 0abd e831 143d 256c e43b d908 20bc
000002b0: 6500 9bbc 6b3c 76bb 1f87 fbbb 374c f23b
000002c0: 69c4 0dbd 7d42 8cbb 8a8c c43c 33e4 b33c
000002d0: c854 df3c 90c0 2a3c de3b 8f3c 62b4 183d
000002e0: bea6 92bc de08 8cbd da4e 76bc 9866 60bc
000002f0: 9bde 0e3c 744a 2dbd 49cd 1bbd 77f6 a7bc
00000300: da32 843c b6fe 46bd a92f 1a3c 3cd8 13bc
00000310: 196b 13bd 228c 03bc 0b14 c6bb 4df4 02bc
00000320: b6f2 043c 1395 ddbc 1ecb 48bd ea64 613b
00000330: 522e 1e3c d25f aa3c 4a7b b2bc af8b acbc
00000340: a2d3 fdbc 8bf6 dc3c 16c1 c0bb b8f6 4d3c
00000350: 5298 59bc 1b6a d6bb 51f8 09bd 6e1b 653d
00000360: 0abf 48bd 12e9 72bc c1c4 ccbc f947 edbb
00000370: a61b cdbc 3c57 3bbb 0fdd 82bc d189 43bc
00000380: 7ff8 bbbb 28d0 703c a51c 463b d1f0 2fba
00000390: 11e2 bbbc 56c8 efbc b829 763c ad5e ee3b
000003a0: 84e8 20bd 2b83 fabc 779b 433b 2bb4 f4bc
000003b0: 0ab9 5ebd 9497 26bd bbd0 2b3d 6b4c 0e3d
000003c0: 3b4d df3c 367c cabb 53f1 b63c cfa4 b8bc
000003d0: f9d6 2d3d dddf aa3c 5621 14bc 9489 ffbc
000003e0: 790d bdbc 8f90 50bd 80c7 efbc 6927 fcbc
000003f0: c9bf cf3a 0061 44bd 3925 08bc 9463 743b
0.0174837 0.01737691 0.056247167 -0.0052218847 0.06722095 0.049735475 0.007765627 0.042262927
0.024438359 -0.0037727745 0.012461169 -0.0051557478 -0.048437215 -0.02291773 -0.0037144222 -0.011885397
0.0015835963 0.015750391 0.030521717 0.050747976 -0.015061921 -0.015659742 -0.0142845735 0.003759953
-0.021196006 0.0032204194 -0.009322143 -0.0006198417 0.018943522 0.011278285 0.03353337 0.027447242
0.033693947 -0.0062549347 -0.024825582 -0.010416683 -0.0058432897 -0.0071887984 0.0179415 0.05161796
0.027302798 0.013619093 -0.0039574695 0.048472222 0.017291058 -0.03336642 -0.022238273 0.017625382
0.0045370017 -0.010446477 0.036349673 -0.040421672 -0.00048045436 0.010459434 -0.005004202 -0.0269104
-0.0040172543 -0.0125304675 -0.011840087 0.0014985229 0.062608086 -0.0056736297 -0.019984305 -0.010876269
-0.008165002 -0.010229422 0.0023261632 0.001665377 0.029696157 0.014671484 0.028015096 0.05320628
0.047274623 -0.038526118 -0.025495335 0.019834423 0.016456157 -0.012499835 0.0053195776 0.0057655172
0.011052553 -0.0022083253 -0.011142853 0.010808945 0.015968211 0.019013738 -0.011888976 -0.013602887
-0.0039186524 -0.042301346 0.015394782 0.012235272 0.029969703 0.01453878 0.0034415917 0.06389487
-0.010304411 -0.02814499 -0.005954439 0.008938252 -0.008714407 0.00066731 0.011256543 0.012229172
0.035564966 -0.003936803 -0.012549329 0.002594083 0.029866155 0.006014306 -0.017383946 0.01481219
0.025561852 -0.0018626223 0.0105417855 -0.019658897 -0.040850777 -0.001470619 0.00619039 -0.013484856
-0.024158526 -0.041102648 0.0024285507 -0.0031537393 -0.0011108556 -0.035136957 -0.00762242 0.039593987
0.027055342 -0.0065893643 -0.025644548 -0.007826651 -0.054604728 -0.044426605 -0.024529068 0.03127876
-0.0047831885 0.048184697 -0.031876165 0.00092614494 0.020957181 0.02485316 -0.028961323 0.0159458
-0.008556028 0.008260186 -0.047158692 0.011953603 0.030158937 -0.022857228 -0.017054291 0.01772055
-0.02087137 -0.04247175 -0.006887737 -0.012105267 -0.027113361 0.023872977 0.009421208 -0.0053557693
0.011115217 0.024404746 0.013345834 -0.010182944 -0.035531983 -0.01504715 0.032003023 -0.011874058
-0.03392415 0.036180407 0.0069708996 -0.009767734 -0.018921087 -0.0037572633 -0.00767602 0.0073943394
-0.03461114 -0.004280387 0.023992795 0.0219594 0.027262107 0.010421887 0.017484602 0.0372814
-0.017901774 -0.06837629 -0.015033448 -0.013696335 0.0087200655 -0.042307332 -0.038037572 -0.020503266
0.01613753 -0.048582755 0.009410777 -0.009023722 -0.03599081 -0.008029016 -0.00604487 -0.007992816
0.008114507 -0.027048623 -0.049021833 0.0034392425 0.009654598 0.020797644 -0.021787304 -0.0210627
-0.030984703 0.02697303 -0.0058823926 0.012571029 -0.013280945 -0.0065434105 -0.03368408 0.055934362
-0.049010314 -0.014826076 -0.024996163 -0.007241246 -0.025037598 -0.0028585931 -0.01597455 -0.011934713
-0.00573641 0.014698066 0.0030229476 -0.00067116047 -0.022934945 -0.029270332 0.015024595 0.00727447
-0.039284244 -0.030580124 0.0029847303 -0.029871067 -0.054375686 -0.0406719 0.041947108 0.034740847
0.027258506 -0.006179358 0.02233187 -0.022539524 0.042441342 0.0208587 -0.009041151 -0.031193532
-0.023077713 -0.05091911 -0.029269934 -0.030780511 0.0015850003 -0.04794407 -0.008309656 0.0037290799

action_model._continuous_distribution.mu.bias f4 [2]
00000000: 616b 45bd e0ea 943c
-0.048198108 0.018178403

action_model._discrete_distribution.branches.0.weight f4 [1, 128]
00000000: 9aa9 863a 0312 07ba dfed 323c daf8 56bc
00000010: 8f1e 5f3b 0fe5 d83b f10b a13a 286a e039
00000020: bf77 913b 8789 5b3a 2d5e 55bc eb02 46bc
00000030: 30b9 293b 7053 0db9 54d1 8a3b 3493 4cbc
00000040: 1867 04bc 08cd ffb9 ec85 b8bb af15 aebb
00000050: 76b9 083c 2f49 bd3c 10eb 9b3c 79f2 823a
00000060: c4da ba3a d48a 353c 0bc6 0c3b 9631 1a3b
00000070: ef59 893c 57ad 4f3c 204f 57bb fdaa 95bc
00000080: 8c01 0e3c 1e3c 20bc 777c 743c d460 afbb
00000090: b2ac 223c 809e a63b 2461 0d3b ddea eebb
000000a0: adb2 d7bb e5f2 11bc 01d1 143c b7ad 0c3b
000000b0: 4785 cfba ca1f f33b b0e3 243b 577e 8e3b
000000c0: 8a19 9b3b 820f 523c 9fbd 2cba 1c03 283c
000000d0: b54c 61bc 6265 a43b 43c1 203b e326 1ebc
000000e0: 8da0 f63b 8965 83b8 35eb d8bb c109 173b
000000f0: 2231 6c3b 522b 31bc 23f4 91bc d56b 5abc
00000100: f884 7b3a 0a84 05bb 7b2d 5fbc aaf6 fd3b
00000110: 05e4 b6bc 03bd 3abb 92f1 db3b b75c e83b
00000120: 21ed 0ebb 004f 61bc e824 673c 9682 4cbb
00000130: 430e 6a3c f54f abbb 01a5 0dbc 00a4 363b
00000140: 3828 1dbc 5dda 203c 08b3 fbba 4319 c73b
00000150: 8473 8f3b 45af 3bbc fac3 6a3b a2b9 b6bc
00000160: 9d95 ea3b 676d 5bbc 06c9 af3b a21f 603c
00000170: c770 ae3b ec1a b6b7 8ce2 32bb c778 833c
00000180: 54ac 2e3c 31fb 0cbb a5ec 193c 9ed7 123c
00000190: 151a 77bb d2b5 863b 8635 32b8 c8e6 73bb
000001a0: af5b 60bb e3ee 29bc 3ae0 bebb d812 58bb
000001b0: 8fbc c3ba e01e 223b e7cb f03b 0f38 95bb
000001c0: 1594 54bb c792 4f3b 6fb6 eab9 72f3 a0bc
000001d0: b890 9fbb 1bb4 a43a 5907 18bc cf1a 963c
000001e0: 9be5 0cbc 3a8b 5dbc 5744 32bc c35b 683b
000001f0: 7347 493c eb08 b9bb f7c6 ba3b f482 44bc
0.0010273934 -0.0005152525 0.010920971 -0.013120854 0.0034045314 0.006619103 0.0012286884 0.00042803702
0.0044393237 0.000837468 -0.013022942 -0.012085657 0.0025897734 -0.00013477891 0.0042363796 -0.012486268
-0.00808122 -0.0004879015 -0.005631199 -0.0053126435 0.008344999 0.023106186 0.019032985 0.0009990475
0.0014255871 0.0110804625 0.0021480347 0.002352809 0.016766516 0.012675605 -0.0032853559 -0.01827001
0.008667361 -0.009779958 0.014922253 -0.005352119 0.009928869 0.0050848126 0.0021572793 -0.0072911815
-0.006582579 -0.008908008 0.009083034 0.0021465847 -0.0015832566 0.007419561 0.0025160126 0.004348557
0.004733269 0.01282108 -0.0006589535 0.010254648 -0.013751199 0.0050169686 0.0024529255 -0.009652826
0.0075264634 -6.265479e-05 -0.0066198357 0.0023046585 0.0036040028 -0.010813551 -0.017816609 -0.013331373
0.0009594704 -0.002037289 -0.013621683 0.007750352 -0.022325525 -0.0028494007 0.006712147 0.0070911306
-0.002180882 -0.013751745 0.01410792 -0.0031205765 0.014285627 -0.0052280375 -0.008645297 0.0027868748
-0.009592108 0.009817687 -0.0019203136 0.0060760095 0.004377784 -0.011455362 0.0035822378 -0.022305313
0.0071589486 -0.013392783 0.00536454 0.013679417 0.0053235027 -2.1708627e-05 -0.0027295677 0.016048802
0.010661203 -0.0021512026 0.009394799 0.00896254 -0.0037704755 0.00411103 -4.2488355e-05 -0.0037216414
-0.0034234335 -0.010371896 -0.0058250697 -0.0032970216 -0.0014933514 0.0024737641 0.007348526 -0.004553802
-0.0032436897 0.003167318 -0.00044767882 -0.019647334 -0.0048695467 0.0012565883 -0.009279096 0.01832333
-0.008599664 -0.013521964 -0.010880551 0.0035455085 0.012285101 -0.005646815 0.005699988 -0.011994112
