results/run1/MazeBrain/MazeBrain-1341478.onnx (onnx, 170454 bytes, 8 tensors)

network_body._body_endoder.seq_layers.0.weight f4 [128, 186]
000000 3d c0 5a 3e c3 29 67 3d 49 29 46 bd eb 2f a5 3c
       0.21362396 0.05643631 -0.048379216 0.02016445
000010 66 9c 2d bd 00 0f d3 bb 25 25 9e 3d 9e 55 83 3d
       -0.04238548 -0.006440997 0.077219285 0.064128146
000020 8a 27 a5 bd 1a e0 20 3d 9f 38 b5 bb 01 c6 1d 3d
       -0.08064182 0.03927622 -0.0055304314 0.03851891
000030 a8 85 e7 bd 97 13 ec 3c e8 0c 05 3d 44 d0 d0 bd
       -0.1130479 0.028817935 0.03248301 -0.101959735
000040 3a 59 a3 3c b5 b7 9a 3d 46 9e 46 bd 3b 84 cf 3c
       0.019940007 0.075545706 -0.048490785 0.025331607
000050 52 6f 30 3c 25 45 23 bd 6f 54 bf 3c b7 4c 24 bd
       0.010768728 -0.039860863 0.02335569 -0.040112223
000060 ac 1f b4 3d b3 28 db 3d 1f ac 4b 3d 04 07 1e 3c
       0.087951034 0.10701122 0.049724694 0.009645227
000070 d9 1f d3 3c ab bb b8 bd ac 1d 49 bd b4 dc 0b b9
       0.025772022 -0.0902017 -0.049100563 -0.00013338291
000080 a8 f1 d8 bd bf 66 1d 3e a1 98 f8 bc f9 cb e7 bc
       -0.10592967 0.15371226 -0.030346217 -0.028295504
000090 82 3b 01 bd 88 9c 48 3c a1 04 b1 3d d8 66 81 bd
       -0.03155089 0.012244351 0.08643461 -0.06318444
0000a0 bc 45 8d 3d 92 41 99 3c a9 a9 5f be 30 7d c6 bc
       0.068980664 0.018708024 -0.21842064 -0.024229616
0000b0 5a bd e5 bd fd b5 fa 3d db 3c 9b 3d e8 48 9c bc
       -0.112177566 0.12241743 0.07579967 -0.019077733
0000c0 e7 50 b2 bd f9 0e 04 3d 6d f3 cd 3d 6c a3 25 3d
       -0.08706837 0.03224084 0.100561954 0.040439054
0000d0 b5 4c f7 bc dd f3 09 be 7a 5d ac bd ef ab a0 bd
       -0.030187944 -0.13471933 -0.08416267 -0.07845294
0000e0 b9 84 2f bd 1a 11 02 3e 09 7c 8e 3d aa 8d a8 bd
       -0.042851184 0.12701836 0.069572516 -0.08230145
0000f0 84 95 b9 bd 44 4e e9 3b 3f b6 e4 bc f3 0b b3 bd
       -0.09061721 0.0071199257 -0.027918933 -0.087425135
000100 95 c9 94 bd 24 2c 0c be 6c 40 3f 3c 95 e7 d6 3c
       -0.07265011 -0.13688713 0.011673074 0.026233474
000110 93 27 36 bd 79 4e 54 bc 39 96 8d bd 29 b1 af bd
       -0.044471335 -0.012958162 -0.06913418 -0.085787125
000120 e2 1c 2e 3d bb d1 00 3e a2 3d 2f bd a6 10 43 bc
       0.042508014 0.12580006 -0.042783387 -0.011905825
000130 04 ed 3d 3d 4b aa 20 3d 93 f7 d4 3b 38 86 82 bd
       0.046368614 0.039224904 0.0064992397 -0.063732564
000140 8d ea dd bd 3c 2f be bc b0 b4 b4 3d 37 0d fd bd
       -0.10835753 -0.023215882 0.08823526 -0.12356036
000150 d8 d9 f1 3d 66 72 82 3d 9f 08 8b bd a8 0c 0b bd
       0.118091285 0.06369476 -0.06788754 -0.033947617
000160 f3 39 77 bd 4c 9f 29 3c df be 08 be 65 9c 6f bd
       -0.060358 0.010352921 -0.13354062 -0.05849876
000170 a6 fd c2 3d 29 b2 46 3c e8 1a 52 3d 88 4d 47 3b
       0.09521036 0.012127438 0.05129519 0.0030411202
000180 30 5a 88 3d 47 ff 1e 3e 5e b6 da bd bf 70 40 3d
       0.06657827 0.15527068 -0.10679315 0.046982523
000190 87 7d e6 3d b2 6b 42 bc 9f d2 97 bd 94 7a 02 3e
       0.11254411 -0.011866497 -0.0741322 0.12742072
0001a0 dc 82 bf bd 81 99 04 3d 1d e6 56 3d ba a8 f4 bc
       -0.09351131 0.032372955 0.052465547 -0.029865611
0001b0 1f 25 6d 3d a2 1e b4 bc c0 f7 76 bd a4 f6 1c 3a
       0.05789673 -0.021987263 -0.060294867 0.000598768
0001c0 4f 77 00 3e 02 4e 18 bd d0 76 05 be 20 1b 29 bd
       0.12545513 -0.03718377 -0.13033605 -0.041285634
0001d0 af f9 39 be 8f 51 98 bd 1e b7 59 3d 6d 7f c2 bd
       -0.18161653 -0.07437431 0.05315315 -0.09496961
0001e0 d7 b8 a3 bd 1f 71 56 bd 3c 9a 16 be 94 63 87 3c
       -0.0799424 -0.052353974 -0.14707273 0.016526975
0001f0 75 bb a0 bc f5 73 ca bc e3 07 82 3d 7a 79 f5 ba
       -0.019620636 -0.024713496 0.063491605 -0.001872822
000200 d5 03 df bc f7 72 b1 3d 39 64 10 be 54 09 d6 bd
       -0.027223507 0.08664506 -0.14100732 -0.10450998
000210 c1 fc 30 bd a4 81 b3 bd de 4a e5 3c f7 17 e6 3c
       -0.043209795 -0.08764961 0.027989801 0.0280876
000220 e1 90 c4 3c bd 6c 2b 3d 6b 0a 8c 3d 17 5b 90 bc
       0.023994865 0.041851748 0.068379246 -0.01762156
000230 01 ae 45 3d a4 33 60 bc 69 b1 27 bc ff c0 53 bc
       0.048261646 -0.013684187 -0.010235169 -0.012924432
000240 00 9a b1 3c 1c 4a 12 bd 80 a3 20 bd ee fd 07 3d
       0.021679878 -0.035715207 -0.039218426 0.03320115
000250 ca 92 3c bc de 5c 4b 3d b8 e4 31 3c 6d 22 96 bd
       -0.011509607 0.049649112 0.010857753 -0.07330785
000260 25 d5 3e 3c 99 f4 59 3c 64 87 87 bd 52 46 5a 3b
       0.011647497 0.0133029455 -0.066176206 0.0033306074
000270 c9 d9 d5 bd 8c f7 d5 3a 85 2f 4a bc 61 a4 86 bd
       -0.1044193 0.0016324385 -0.012340431 -0.065743215
000280 58 6c a4 bd 52 6e d2 bd ae ba 84 bd 47 fc 04 3e
       -0.080284774 -0.10274948 -0.06480919 0.12986861
000290 9f 3a a1 bd 14 d7 c3 3b 53 48 4b 3d ab 66 3a 3d
       -0.07872509 0.005976567 0.04962952 0.045508068
0002a0 cb 67 b7 3d 0c a7 1d bb a1 89 d6 bc 83 ab d0 3d
       0.08955344 -0.0024055867 -0.026188673 0.10188963
0002b0 4e c2 b6 3c af 08 db bc 86 40 a3 bd aa 45 d4 3d
       0.022309449 -0.02673754 -0.07971291 0.1036485
0002c0 97 87 73 bc e1 c8 80 bb fd 5c 3a be 39 42 8e 3d
       -0.01486387 -0.0039301966 -0.18199535 0.06946225
0002d0 4d 42 a5 bc c0 60 71 bd 4f c6 eb bd 2d 0e 12 3e
       -0.020173216 -0.05893016 -0.11512434 0.1426322
0002e0 98 38 33 3c 71 2b c1 bc a5 a9 3a 3d 2c 83 45 bd
       0.010938786 -0.023580285 0.045571942 -0.0482208
0002f0 fc b8 4e 3d 53 93 51 3e e9 9b a5 3d f3 5d 5d 3d
       0.050469384 0.20466356 0.08086378 0.054044675
000300 34 27 4b bd ee 8c 04 bd 94 eb 77 bd ae b3 47 bd
       -0.049597934 -0.032360964 -0.0605274 -0.04875534
000310 05 4e 15 3d 7b a9 f5 3d 51 5f 0e bd 69 63 1e be
       0.03645136 0.119952165 -0.03475887 -0.1546761
000320 04 72 26 bc a2 a2 36 bc eb f0 8a bc 68 1a 42 3e
       -0.010159019 -0.011147173 -0.016960582 0.18955386
000330 6c a5 ca 3c 60 12 07 be 02 b0 4a 3c c1 e6 ad bc
       0.024737082 -0.13190603 0.012371065 -0.021228196
000340 e5 7b 96 bc db 9c a4 3d f5 e5 4c bd 4d 68 21 bd
       -0.018369624 0.0803773 -0.05002399 -0.03940611
000350 f7 7b d8 3c 6a e5 6e 3d c6 2e 86 3d d1 8f ef 3d
       0.026426299 0.058324255 0.0655189 0.11697353
000360 95 e0 17 bd 9e d8 a6 bd 28 52 1a bd 35 07 0a be
       -0.037079412 -0.08146785 -0.037676007 -0.13479312
000370 44 b3 20 be 2b 08 e6 bc c8 b3 f0 3c d9 49 da bb
       -0.15693384 -0.028080067 0.029382601 -0.0066616354
000380 08 97 74 bd 0c bc 6a bd 5c 3a 0b 3e 20 f9 f5 bb
       -0.059714347 -0.05730824 0.13596481 -0.0075065047
000390 e7 fb be 3b 38 c8 26 3d 49 21 8b bd cd b2 03 3a
       0.005828369 0.040718287 -0.06793458 0.0005023897
0003a0 d3 24 d9 3c 47 22 28 bd 40 83 0e bd cc 0b a1 ba
       0.026506817 -0.041048314 -0.03479314 -0.0012286841
0003b0 97 1c 50 3c 45 fa bb bd 44 53 81 bd b9 2a 7b bd
       0.012702129 -0.091785945 -0.0631471 -0.06132004
0003c0 79 ec 1e be 09 9a df 3d f3 96 1a 3b 56 20 59 bc
       -0.15519895 0.10918052 0.0023588508 -0.013252338
0003d0 ca 18 bc bd 8e 72 96 3b 8a d7 23 3d 2f 1a a9 bc
       -0.09184416 0.0045912927 0.040000476 -0.020642368
0003e0 8c 22 4e 3c 15 dc ae 3d 1d a3 71 bd 7f 89 86 bb
       0.012581479 0.08538071 -0.058993448 -0.0041057463
0003f0 17 ba 0c 3d 56 40 34 3d dc db 27 bc ce fc b4 3c
       0.034357157 0.044006668 -0.01024529 0.022093203

network_body._body_endoder.seq_layers.0.bias f4 [128]
000000 98 c2 71 3c 7d 8e 01 bd 2d 75 70 b9 4f 72 01 3d
       0.014755867 -0.031630028 -0.00022931835 0.031603154
000010 b6 1b 3c bd 25 7e e4 3b cd ef 81 bc 3e f7 8b bc
       -0.045924865 0.0069730454 -0.015861416 -0.017085668
000020 a7 11 b0 bc 82 6b af bc 2c 6c b5 bc 54 7c cb bc
       -0.021492792 -0.021413568 -0.022146307 -0.024839558
000030 ec 41 ee bb e3 b8 a8 3c 73 77 f6 bc c1 6a df bc
       -0.007271042 0.020595973 -0.030086255 -0.027272584
000040 e1 c2 60 3c f3 50 66 bc b3 13 ec bc 4e ec 83 bc
       0.013718338 -0.014057386 -0.028817987 -0.01610389
000050 63 b3 07 bd ba 27 e6 bb eb 25 ba bc 14 70 bf 3c
       -0.03313006 -0.0070237787 -0.022723159 0.023368873
000060 7f fd aa 3c 5e 4d 1c bd 0f 3d d6 3c ac 7f 14 bc
       0.02087283 -0.03815972 0.026152162 -0.0090636425
000070 e5 0e c6 3c 3a 93 0b 3c 5c ea 91 3c 72 72 e2 bc
       0.024177024 0.008518988 0.017811947 -0.027642462
000080 e0 96 f8 3b 3d 3f 3d bc e4 22 2d bd d2 75 eb 3c
       0.007586345 -0.011550722 -0.042269602 0.028742705
000090 35 00 31 bb 07 9c a5 bc fa c4 2f 3c 0a 47 b7 bc
       -0.002700818 -0.020216001 0.010728115 -0.022372741
0000a0 55 e9 5f bc 7a 4a 92 ba 64 f4 10 bc 3d 28 99 3c
       -0.013666471 -0.0011161112 -0.00884733 0.018695945
0000b0 a6 0b e9 3c 9b 55 13 bc 7d 9a b2 3c af 50 66 3c
       0.028447937 -0.008992578 0.021802181 0.014057322
0000c0 4d 2c 13 3b 3b ba 05 bd 9d 62 ee bb d8 65 df 3c
       0.0022456825 -0.032648306 -0.007274939 0.027270243
0000d0 13 de e8 bb 65 94 a7 3c dc ad c3 3c 7d 50 dd 3c
       -0.0071065514 0.020456502 0.023886614 0.027015919
0000e0 7b ee 9b bc f7 96 04 bd 1d 18 32 bd 60 b8 1d 3d
       -0.019034615 -0.032370534 -0.043480027 0.03850591
0000f0 cc 34 cd 3b 80 84 a4 3c ea 20 0d 3d 44 ff 08 bd
       0.0062623974 0.020082712 0.034455217 -0.033446565
000100 f3 1a 27 3c a1 85 7e 3c af 6f 4a 3d 9c d6 d3 bc
       0.010199296 0.015534789 0.049422916 -0.02585917
000110 a1 7e 0a 3d 4c 26 6f bc b7 e6 cf bc 32 39 60 3c
       0.03381217 -0.014596533 -0.025378568 0.013685511
000120 89 91 40 3c 32 d2 c4 3c 33 4c 0a 3d 77 02 51 bd
       0.011753448 0.02402601 0.033764075 -0.05102774
000130 2b 51 28 bd ea 4b b1 3c 5d 70 6a bc 29 61 99 bb
       -0.041093033 0.021642644 -0.014309016 -0.004680772
000140 80 8a 7f 3c a6 10 17 3d f8 28 7a bc c5 ae 0d 3c
       0.015596986 0.03688111 -0.015268557 0.008647625
000150 94 96 91 3c 45 d8 bc bb ef ff ae 3a 01 ec 39 3c
       0.017771997 -0.005763086 0.0013351421 0.011347772
000160 5c 65 cd bc c5 2f 88 bc ee 54 96 3c 87 3c c0 bc
       -0.025072746 -0.01662434 0.018351045 -0.023466362
000170 ec 90 a6 3b c8 ca 57 bc a4 49 a1 3c 01 0c 04 3c
       0.005083194 -0.013170905 0.019688435 0.008059503
000180 49 50 43 3c 61 1d 01 bd 0c 3e 5d 3a 1e d3 cb 39
       0.011920997 -0.03152216 0.00084397267 0.00038876472
000190 99 b3 60 3c 25 19 a0 3c b6 29 b3 3b f4 2d e0 bb
       0.013714694 0.01954324 0.005467619 -0.0068414155
0001a0 d2 a0 2a 3d c8 66 5b 3c f1 bf 08 bb 8f 34 24 bc
       0.041657276 0.013391204 -0.002086636 -0.010022297
0001b0 f9 f9 50 3c ba b8 19 bb bf 95 82 bd a5 82 46 bd
       0.012754911 -0.0023456053 -0.06376218 -0.048464436
0001c0 c1 13 80 bc e6 3a 11 bc ee 55 47 bd c2 c6 17 bd
       -0.01563442 -0.00886414 -0.048665933 -0.037054785
0001d0 e9 bf 2e 3c 2e 5e 26 3d 4e 65 d5 bc d9 8c c4 3c
       0.010665872 0.04061716 -0.026049282 0.023992943
0001e0 f4 e7 59 bd 07 55 84 3c b9 e8 0f bd a1 1f 36 3b
       -0.053199723 0.016153825 -0.03513405 0.0027789848
0001f0 79 be 27 3c a2 4f a6 3c 7c 37 53 3c 6b 6e a1 bc
       0.010238283 0.020301644 0.0128916465 -0.019705972

network_body._body_endoder.seq_layers.2.weight f4 [128, 128]
000000 76 16 9e 3b 9d 63 9d 3d 4a e8 99 bd dd 29 55 bd
       0.004824455 0.07685015 -0.07515009 -0.052041877
000010 d9 d8 3e 3d 13 57 25 3d 6e f1 15 3e 9e 43 de bc
       0.04659352 0.040366244 0.1464288 -0.027131852
000020 c4 54 ab bc 3d 8a c1 3d 2f 49 2a bd f1 61 e2 bd
       -0.020914443 0.09450195 -0.0415737 -0.11053837
000030 05 cb b8 bd cc c5 7b 3a d8 d2 ad 38 00 9e 52 bd
       -0.09023098 0.0009604364 8.2885555e-05 -0.05142021
000040 bd 01 00 bd 75 d0 eb 3d 25 28 c7 3d 78 42 19 bd
       -0.031251658 0.115143694 0.09724454 -0.037416905
000050 d8 77 0c be 95 09 79 bd 03 09 3a 3d c9 72 9f 3d
       -0.13717592 -0.060800154 0.04541875 0.077855654
000060 c1 0d b0 3d 1e 8a 8a bd a2 e7 e5 3d 2e b4 29 3e
       0.08596373 -0.06764625 0.11225821 0.1657264
000070 a8 61 d5 bd 29 ac 71 3c 88 a9 ef bd e4 1e 12 3d
       -0.10419017 0.014750519 -0.117022574 0.03567399
000080 c7 33 98 bd 65 ca 2c bd 44 56 ae bc ee 0b ab 3d
       -0.07431751 -0.042185206 -0.021281369 0.08351885
000090 7e aa 29 be 8d 08 47 3c a6 d0 03 be bb 8c 16 3d
       -0.16568944 0.012148035 -0.12872562 0.036755305
0000a0 d7 9a df 3d 9c b0 3f bd bb 65 50 3c c2 47 23 3c
       0.10918205 -0.046799287 0.012719567 0.009965839
0000b0 8e 81 96 bc ba d3 e1 bc 5c 24 39 be 1f 9e 15 3e
       -0.018372323 -0.02756678 -0.18080276 0.146111
0000c0 90 a0 41 3b b0 0e de bc 9a 18 fe 3d 47 5c f4 3d
       0.0029545166 -0.027106613 0.12407036 0.11931663
0000d0 c0 7c 06 be 8e 75 31 3d 9a 4f 0d be bd 53 e8 bb
       -0.13133526 0.043325 -0.13799897 -0.0070900605
0000e0 98 46 10 3b ee 9e d3 bc c5 8a 43 3d a9 da e8 bd
       0.0022014733 -0.02583262 0.047739763 -0.11369831
0000f0 e1 7d 94 bc 49 c1 7b 3c dd 03 57 bd cd 87 ef bc
       -0.01812643 0.015365907 -0.05249392 -0.02923956
000100 ec 57 a8 3c f3 5a d5 3d 2d d4 d2 3c 66 7f eb 3c
       0.020549737 0.10417738 0.025735939 0.028747272
000110 7a 10 0c 3c d2 df 33 be 44 8f df 3c 61 aa 57 bd
       0.00854885 -0.1756585 0.027289994 -0.05265272
000120 65 9d e3 bd b1 ff 05 3e 8a 97 02 3d 07 11 b1 bd
       -0.11114005 0.1308582 0.0318828 -0.08645826
000130 4c e8 26 bd f0 71 53 be 90 b1 57 3b 6e 66 18 3e
       -0.04074888 -0.20648932 0.0032912232 0.14882824
000140 c2 1e 29 bc 68 63 df 3c 0d 8a 87 3d cc ba 90 3c
       -0.010322275 0.02726908 0.06618128 0.017667197
000150 23 e6 10 bd 78 1d 82 3e 1e 1f 57 3e 74 b4 44 be
       -0.035375725 0.25413108 0.21007964 -0.19209462
000160 ec c6 8c 39 7c 38 cb bc f7 de 9a bc 18 39 b1 bb
       0.0002685109 -0.024807207 -0.018905146 -0.0054084174
000170 36 a4 c0 3c 79 40 8f 3d c8 3c 60 bc 4f 1b 29 3e
       0.023515802 0.06994719 -0.013686366 0.16514324
000180 82 17 ac be 6e 7b 9b bd 85 47 1e 3e 04 88 f0 3d
       -0.33611685 -0.07591902 0.1545697 0.11744693
000190 c2 1d da bd fe 64 4f bd 9d 3c 8e 3d ee 17 32 3e
       -0.10650207 -0.050633423 0.06945155 0.17391941
0001a0 08 95 fc 3d da 63 03 3d d3 bb e6 3b 7c 52 2f 3e
       0.12333113 0.032077648 0.0070414334 0.17121309
0001b0 17 95 c0 3b f6 a8 d7 bd 2a ea 23 be 1f c8 74 bd
       0.005877148 -0.105302736 -0.16007295 -0.059761163
0001c0 44 cf 93 bd 73 08 51 3d 69 0b cb 3d cc ab 27 be
       -0.07217267 0.05103345 0.09914286 -0.16374129
0001d0 8f c1 cf bd e2 c7 93 3e 9c ea 8c bc c2 53 81 bd
       -0.1014434 0.28863436 -0.017201714 -0.06314804
0001e0 16 0c 70 bd fb 39 de bc a7 57 d9 bd 51 b4 36 bd
       -0.058605276 -0.027127257 -0.106124215 -0.044605557
0001f0 6c 75 f9 3d a9 9b 89 b9 e5 dd e6 bc 04 cf 98 bc
       0.121805996 -0.00026246652 -0.02818198 -0.0186534
000200 88 5e 76 bc f9 8f e8 bd 99 1d 71 3d 2d dd 16 bd
       -0.015037186 -0.113555856 0.058866117 -0.036832023
000210 10 6d 0a be 9f ea b5 3d eb 42 35 be c2 59 31 3e
       -0.13518167 0.08882641 -0.17701308 0.17319396
000220 36 c8 53 3d 38 c6 07 be a1 fc 0c 3e fc 33 8c bd
       0.051704608 -0.13259208 0.13768245 -0.06845853
000230 87 ac 1e be 2c 72 d3 3d 88 a9 b1 3c 2c a2 26 be
       -0.15495501 0.10324511 0.021687284 -0.16272801
000240 51 14 73 3e 2b 4f 53 3d 3c 31 80 bd 6b 71 89 bd
       0.23738219 0.051589172 -0.06259391 -0.06711086
000250 c3 50 0a bd 3c 4a a0 bb d1 45 a5 3c 79 60 f2 bc
       -0.033768427 -0.004891662 0.020174893 -0.029587017
000260 a9 92 13 3b 71 34 8c bd 5e 05 91 3d 83 e1 5f 3d
       0.0022517836 -0.0684594 0.07081102 0.054658424
000270 86 3f 04 bd ce d8 c5 bd 2a 80 92 bb d6 04 e6 3d
       -0.032287143 -0.09660493 -0.0044708448 0.11231391
000280 bf 7e 88 bd d2 10 46 3d 9c 7b f6 bd 35 95 f9 bc
       -0.066648 0.048355885 -0.12035295 -0.030466655
000290 bd f1 31 be ab 55 44 bd a3 ff 4e bd 2f 2b 01 3e
       -0.17377372 -0.04793326 -0.050536763 0.1261413
0002a0 9a 04 b7 3b 51 85 a8 3d 43 73 1f 3d 9b 03 e9 3d
       0.0055852653 0.08228553 0.03892828 0.11377641
0002b0 8a 29 14 3d b9 74 83 bb 53 1f 21 bc 19 9b 2c 3d
       0.036172427 -0.004011717 -0.009834128 0.0421401
0002c0 1a 7f 07 3a 9a 4b 5f 3d 5b 84 17 bd c9 98 87 3d
       0.0005168781 0.05451546 -0.03699146 0.06620938
0002d0 0d 97 90 3c 6a 8c 1c be cd db a4 3c a9 ee a6 3c
       0.017650152 -0.15287939 0.02012434 0.020377474
0002e0 2e a8 03 bd 79 5b 30 3d 19 ba b7 3d 11 23 c4 bc
       -0.03214281 0.043055985 0.08971042 -0.023942502
0002f0 7f ce 9f 3d 3a 1b 8d bd 31 a0 e1 bd d6 b8 e0 bd
       0.07803058 -0.06889959 -0.11016882 -0.10972755
000300 e1 18 05 be e2 73 e7 bc fc f0 d8 bd 12 84 86 bd
       -0.12997772 -0.0282535 -0.10592839 -0.06568159
000310 f1 ec ad 3d 68 51 64 3e 1c 8f 14 bd ae c2 8a bd
       0.084924586 0.22296679 -0.036269292 -0.067754135
000320 8f de 79 3e 76 51 01 bc 76 b0 9f bb 79 22 1f 3e
       0.24401306 -0.007892957 -0.0048733307 0.15540494
000330 66 bc b4 bd 1f 08 58 bd d4 34 78 3b 22 ac 18 be
       -0.08824997 -0.05274212 0.0037873285 -0.14909413
000340 bd 7c f3 bd ac 51 bf bd 42 fa 9c 3c 10 f9 b2 3d
       -0.11889026 -0.093417495 0.019162301 0.08738911
000350 81 26 2b 3e 73 54 23 be 19 d7 ef bd 40 03 42 3c
       0.16713907 -0.15950184 -0.117109485 0.011841595
000360 1b ea 68 3c 12 8c 12 bb 71 a3 3e 3d 7c 0c ad bd
       0.014215971 -0.002236132 0.04654259 -0.08449647
000370 0b ae 08 bd 9b 46 c7 bd 8b 30 92 bd c2 83 0b 3e
       -0.033369105 -0.09730264 -0.07138165 0.1362448
000380 51 08 90 bd 3c e0 49 3c 17 58 d3 3d ff 4a bc bd
       -0.07032836 0.012321528 0.10319536 -0.09193992
000390 96 3d 15 be 07 ec 0b be 7d 2c 13 3c 5c 55 93 3d
       -0.14574274 -0.13664256 0.008982775 0.071940154
0003a0 8f 93 9e bd 1b 0a 80 3d a5 2b 0e 3e b7 79 a0 bd
       -0.07742988 0.062519275 0.13883837 -0.07835715
0003b0 65 75 d1 3d 07 ae 8f bd 49 20 ad 3d cd 6e b2 3d
       0.10227469 -0.07015615 0.084534235 0.0871254
0003c0 85 0b b6 3d e5 dd fb 3c 4d ab 4d 3d 91 15 26 be
       0.08888916 0.030745456 0.050212193 -0.16219164
0003d0 c5 5b 9e bd ca 3b 30 bd 72 20 1e be f2 1b 83 bd
       -0.077323474 -0.04302577 -0.15442064 -0.064018145
0003e0 70 a2 3f 3d 23 2c c0 3d ad 30 1a bd 91 bb ce bd
       0.04678577 0.093834184 -0.037644077 -0.10094369
0003f0 93 75 9c 3e 0c 22 75 bd e7 a4 7f 3c 07 b4 fe 3d
       0.30558452 -0.059846923 0.015603281 0.12436681

network_body._body_endoder.seq_layers.2.bias f4 [128]
000000 80 dc 31 bc 6b d6 47 bd c6 3b 78 bd 21 f3 28 3d
       -0.010855794 -0.04878847 -0.06060388 0.04124749
000010 03 79 32 bd 24 82 81 bd 42 2d af bb f3 5b 31 bc
       -0.043572437 -0.063236505 -0.0053459713 -0.010825145
000020 69 93 7e bd 7e 20 1c 3d 7c 37 d3 bb fb 00 18 3d
       -0.0621523 0.038116924 -0.0064458232 0.03711031
000030 19 51 41 3d 3b 00 2d 3d 5d 2c 75 bc 29 fb 09 3d
       0.04719648 0.042236548 -0.01496419 0.03368679
000040 5a f0 d3 bb 5e 39 35 bc c6 dc 05 bc 96 70 bb bc
       -0.006467861 -0.011061041 -0.008170312 -0.022880834
000050 51 af 43 3d 62 35 01 3d 26 ba a4 3c 5a f0 10 bc
       0.047774617 0.03154505 0.020108294 -0.008846367
000060 3d a6 ae 3c f5 a1 da ba 7d 68 2f bc f8 e9 c5 3b
       0.021319503 -0.0016680347 -0.010706064 0.006039854
000070 8a bf 18 bd 5d 5a 7e bd cb a6 26 bd 86 b3 02 bd
       -0.03729204 -0.062097896 -0.04068641 -0.03190949
000080 f5 3e 1e bd a3 26 26 3d 1c 57 38 3d ac 35 e1 3c
       -0.03863426 0.04056419 0.04500495 0.027491413
000090 49 64 6c 3c b6 7b de 3b 9c 51 75 bc 3b 84 3f bd
       0.014428207 0.00678965 -0.0149730705 -0.046756964
0000a0 f6 74 15 bd 47 17 6e 3c 6a 26 4a 3c d9 bb 47 bd
       -0.036488496 0.014531917 0.01233826 -0.04876313
0000b0 c9 29 48 bd a6 df 04 3d ce b9 f4 3c 9c 50 11 bd
       -0.048867974 0.03243985 0.029873755 -0.035477266
0000c0 33 bc 98 bc f6 30 39 bc e9 94 09 bc ca 4d 77 3d
       -0.018644428 -0.011303177 -0.008397319 0.06037692
0000d0 3c 35 73 3c 77 4e 1d bd eb ff 14 3d 6a 0c 56 3d
       0.014844235 -0.038404908 0.036376875 0.052257933
0000e0 1f 00 11 bd 61 71 c1 3c 78 c8 56 3c c7 03 16 3b
       -0.035400506 0.023613634 0.013109319 0.0022890435
0000f0 a7 48 44 bd 70 7a e3 3b 7c 14 fa 3b ba ce 86 3c
       -0.04792085 0.006942086 0.0076318365 0.016455997
000100 f4 1b 1a 3d 80 c8 df 3b 92 96 0d bd 4d 1d 2f bc
       0.037624314 0.0068293214 -0.034567423 -0.010688138
000110 7a 53 42 bd f7 7d a5 bd 8a 32 1a bd de 10 64 bd
       -0.04744289 -0.080806665 -0.037645854 -0.05568015
000120 2c 3c 39 bd cc 5b ee 3c 55 a5 8c 3c 93 f5 bb bc
       -0.0452234 0.029096507 0.01716868 -0.022944247
000130 18 9f ce bc 5b f8 05 3d ae 6c 8f bc 0d 9f 37 bc
       -0.025222346 0.032707553 -0.017507877 -0.011207354
000140 5c 1d bc bc f3 16 cd 3c 2d 9c a5 3c e1 34 67 bc
       -0.022963218 0.025035357 0.020216072 -0.014111728
000150 e1 a4 9f bd bb b3 72 bd ab 47 1c 3c b3 10 c3 3c
       -0.0779512 -0.059253436 0.009538571 0.023811674
000160 ef 68 2c 3a ca af 19 3d cf 40 62 bd 1d d0 40 bd
       0.00065769156 0.03752116 -0.055237588 -0.047073472
000170 24 45 a0 bd 8d e5 39 bd 04 0f c5 bc 1d c4 92 bd
       -0.078256875 -0.045384932 -0.024055012 -0.07166312
000180 de 3e c3 3c ff 20 ed 3c a6 58 3d bc b4 28 12 bd
       0.023833688 0.028946398 -0.01155678 -0.03568335
000190 7c b8 e9 39 8f f4 ea 3c b7 cb fa bb 7a bc f9 bb
       0.00044578675 0.028681068 -0.0076536792 -0.007621345
0001a0 fc 08 83 bc 1c 58 e0 bc be 8c 0e 3d bf 8c 54 3b
       -0.015995495 -0.027385764 0.03480219 0.0032432524
0001b0 75 15 8b bc 28 b8 34 3a 15 53 4b 3d 7d 2b 89 3a
       -0.016978005 0.00068938965 0.04963978 0.0010465231
0001c0 96 1b 85 bc f0 09 24 bd d7 d6 94 bb 3c 4f 05 3d
       -0.016248506 -0.04004854 -0.0045422125 0.032546267
0001d0 53 a7 22 3d 48 bb ac 3c 88 29 1f bd db f9 46 3c
       0.039710354 0.021085396 -0.038857967 0.012144531
0001e0 e5 aa 93 3c f2 46 f3 3c 9e b4 ed bc dd b2 0e 3c
       0.018025825 0.029696915 -0.029016789 0.0087096365
0001f0 7f 91 a6 3c c0 25 a4 3c 4e 8c ac 3b 35 f7 d6 bc
       0.02033305 0.020037532 0.005265749 -0.026240924

action_model._continuous_distribution.log_sigma f4 [1, 2]
000000 ed a0 9e bd 97 af a2 3b
       -0.07745538 0.0049647796

action_model._continuous_distribution.mu.weight f4 [2, 128]
000000 31 18 6f 3c 6d d3 95 3c c4 4b 78 3d 57 ca 5e bb
       0.01459317 0.018289292 0.06061913 -0.0033995116
000010 82 d8 8d 3d 8e b1 5c 3d 36 e8 ef 3b 7e 0d 1c 3d
       0.06926061 0.053880267 0.007321383 0.038098805
000020 c3 f2 bb 3c 0a 40 05 bc 53 2e 5d 3c 17 6c f1 bb
       0.022942906 -0.008132944 0.013499814 -0.0073676216
000030 72 75 37 bd 8a 15 cf bc e4 09 28 bb 4e 11 40 bc
       -0.04478974 -0.025278825 -0.002564066 -0.011722876
000040 53 85 0c 3c 00 fb 40 3c 26 53 e9 3c 47 01 51 3d
       0.008576709 0.011778593 0.028482031 0.05102661
000050 f9 33 a5 bc a6 4f 29 bc 39 59 7b bc 07 f3 e4 3a
       -0.020166384 -0.010333931 -0.015341097 0.0017467447
000060 8f f2 9a bc 61 93 a6 3a 3c 3f 28 bc da b3 22 3b
       -0.01891449 0.0012708717 -0.0102689825 0.0024826438
000070 e1 13 a3 3c ce 81 dc 3b 7c 76 fd 3c 6b 88 f2 3c
       0.01990694 0.006729341 0.030940287 0.029606065
000080 d8 50 04 3d af 64 1d bc c3 0c e8 bc ff 82 0d bc
       0.03230366 -0.009606524 -0.028326398 -0.008637189
000090 43 6f 04 bc a4 b3 8f bb 02 f2 80 3c c0 3f 4d 3d
       -0.0080831675 -0.0043854285 0.015740398 0.050109625
0000a0 71 30 e6 3c 6d 08 0d 3c b7 46 e8 bb 0c 24 49 3d
       0.02809927 0.008607966 -0.007088508 0.049106643
0000b0 5d fc 95 3c fe cf 12 bd 3a 81 be bc 1a ae 79 3c
       0.018308813 -0.035842888 -0.02325498 0.015239263
0000c0 be 35 95 3b 85 82 52 bc d9 bf 0c 3d 57 b8 27 bd
       0.0045535257 -0.012848501 0.034362648 -0.040947285
0000d0 b1 7b 2e bb 1c 3e ff 3b 0d 0c c1 bb e3 82 f5 bc
       -0.0026624019 0.0077893864 -0.005891329 -0.029969638
0000e0 c9 e0 53 bb bb fd 65 bc 24 87 4d bc 02 bd 18 ba
       -0.0032330027 -0.014037545 -0.012544427 -0.0005826504
0000f0 5e 40 82 3d 08 9e d5 bb 55 29 af bc db fb 15 bc
       0.06359933 -0.006519083 -0.021382013 -0.009154285
000100 43 04 1d bc 7d 59 45 bc b5 3e 8b 3b 5b 6c 65 3b
       -0.009583536 -0.012045261 0.0042494186 0.0035007212
000110 46 15 0a 3d 8d e9 8e 3c 93 07 e3 3c d6 bc 6c 3d
       0.033711694 0.01744535 0.027713573 0.057797275
000120 76 c4 3d 3d d5 45 22 bd 40 28 d3 bc 15 87 99 3c
       0.046329938 -0.03961738 -0.025776029 0.01874117
000130 65 47 65 3c 19 7a 85 bc 55 c7 72 3b 11 78 9d 3b
       0.013994073 -0.016293572 0.003704508 0.004805573
000140 90 b3 19 3c 9c fe 40 bb 3c 30 51 bc 98 76 0f 3c
       0.00938119 -0.0029448634 -0.012767848 0.008756302
000150 0e e7 97 3c eb 82 a0 3c 24 b9 49 bc d7 7a 53 bc
       0.018542793 0.019593677 -0.012312207 -0.012907705
000160 c5 68 9e bb 77 6f 29 bd 83 d2 97 3c 1e 9b 27 3c
       -0.004834267 -0.041366067 0.018532997 0.010229854
000170 f3 f3 06 3d 31 f7 6a 3c 88 b3 dc 3a 18 40 87 3d
       0.03294749 0.014341162 0.0016838172 0.06604022
000180 6a fc c2 bb e1 a9 c2 bc 2b e7 0f bc b2 1f e6 3b
       -0.0059505003 -0.023762645 -0.008783142 0.0070228213
000190 ef 5a 27 bc 07 13 a3 3b e6 e0 13 3c d5 17 56 3c
       -0.010214551 0.0049766335 0.009025788 0.013067205
0001a0 44 ca 1d 3d f2 48 b4 bb 6b 94 51 bc 39 e9 5e 3a
       0.038522974 -0.00550186 -0.012791733 0.0008503381
0001b0 b1 9f 03 3d c6 b9 91 3b f2 45 99 bc 07 85 43 3c
       0.032134715 0.0044471947 -0.01871011 0.011933572
0001c0 05 9a d1 3c c1 4e da 38 b4 29 03 3c fa 0f 81 bc
       0.025586138 0.00010409719 0.008005548 -0.015754689
0001d0 fc 1c 1a bd 54 93 43 bb a2 9e c9 3b d0 63 65 bc
       -0.037625298 -0.0029842453 0.0061529437 -0.014000848
0001e0 e8 d1 d6 bc ac 20 2b bd ac 1e ae 3b 9f 98 63 bb
       -0.026223138 -0.041779205 0.005313715 -0.003472842
0001f0 d4 16 27 bb 72 f7 14 bd e7 aa 13 bc 49 8b 2f 3d
       -0.0025495784 -0.036368795 -0.009012914 0.042857442
000200 07 c1 c6 3c c4 29 d2 bb ea 17 cb bc b6 10 82 bb
       0.024261964 -0.0064136703 -0.024791677 -0.0039692773
000210 f2 f4 4e bd 3a 95 36 bd 61 7e b9 bc 5a 96 d2 3c
       -0.050526567 -0.044575907 -0.02264327 0.025706459
000220 91 a4 f0 bb b6 f7 46 3d d5 a7 e9 bc 3e b7 4d 3b
       -0.0073438366 0.04857608 -0.028522411 0.0031389738
000230 46 f7 d1 3c aa f3 b4 3c b6 a4 e0 bc 58 cb 7d 3c
       0.025630604 0.022088844 -0.02742229 0.015490375
000240 cf 6d 56 bb c0 ac 14 3c 34 1a 39 bd 7b 2e 29 3c
       -0.003271926 0.00907439 -0.045191005 0.010326023
000250 42 41 d6 3c 7f 8d 73 bc 54 7a 74 bc 9d 42 a2 3c
       0.026154164 -0.014865278 -0.014921743 0.019807154
000260 16 90 89 bc 4c 4f 25 bd fa fa e6 bb 4c b3 45 bc
       -0.016792338 -0.040358827 -0.0070489617 -0.0120666735
000270 01 38 d6 bc de 1e 88 3c c8 e4 34 3c b3 d4 bc bb
       -0.026149752 0.016616281 0.011040874 -0.0057626604
000280 09 a3 18 3c 53 dc d0 3c 57 8e 7f 3c 2d 7e e7 bb
       0.009316214 0.025495684 0.015597901 -0.007064602
000290 48 98 0c bd ff 78 55 bc 44 62 de 3c 63 1b 70 bc
       -0.034324914 -0.013029336 0.027146466 -0.014654967
0002a0 67 01 0c bd 1e d0 f9 3c 72 b7 09 3c 9c 17 37 bc
       -0.034181025 0.030494746 0.008405553 -0.0111750625
0002b0 7e d5 90 bc 45 68 02 bb f8 1a c2 bb 39 3c 0b 3c
       -0.017679926 -0.0019898575 -0.005923625 0.008498245
0002c0 a2 1f 0f bd 5a d4 ae bb 92 36 9c 3c e0 22 bc 3c
       -0.034942277 -0.005335373 0.01906899 0.022965848
0002d0 c7 ee ed 3c a7 8c 34 3c ca aa 84 3c 42 f7 08 3d
       0.029044522 0.011019862 0.01619472 0.03343893
0002e0 77 60 8e bc 00 ab 89 bd af 67 5a bc 56 cc 45 bc
       -0.017379982 -0.06722069 -0.013330384 -0.012072643
0002f0 1e 83 bd 3b 39 c3 26 bd 1c 4b 1d bd 2d da 94 bc
       0.0057834527 -0.040713523 -0.038401708 -0.01817044
000300 f4 9c 4f 3c ed 20 41 bd 71 ff 0f 3c 3e 5d 05 bc
       0.012671698 -0.04715054 0.008788929 -0.008139906
000310 c1 e9 f9 bc 48 c1 16 bc d5 d2 04 bc d8 e5 01 bc
       -0.03050697 -0.009201355 -0.008106907 -0.007928334
000320 b3 d9 a6 3b 5c b7 da bc 59 ae 50 bd 34 6c da 3a
       0.0050918697 -0.02669876 -0.05094752 0.0016664327
000330 32 f4 38 3c c2 6b 88 3c 16 fb a2 bc d8 43 a0 bc
       0.011288689 0.016652945 -0.019895118 -0.0195636
000340 c0 ac f1 bc 73 2e c3 3c 5a 0b ec bb 23 e5 44 3c
       -0.029501319 0.02382586 -0.0072035016 0.012017521
000350 22 b0 53 bc a8 01 d2 bb fa 90 01 bd 2c 04 60 3d
       -0.012920411 -0.006408889 -0.0316324 0.05469148
000360 eb 13 40 bd aa 86 44 bc 40 22 c1 bc 10 f9 c4 bb
       -0.046893995 -0.011994997 -0.023575902 -0.006011136
000370 fd 36 c4 bc 07 4c 65 ba ae 6e 79 bc cf 59 5a bc
       -0.023952002 -0.00087469857 -0.015224142 -0.013327076
000380 97 4d a5 ba 8f bd a0 3c 2c 46 47 39 ae 90 9a 3a
       -0.0012611625 0.019621639 0.0001900426 0.0011792385
000390 47 21 ac bc 12 61 e5 bc a7 d4 87 3c 9e b4 cc 3b
       -0.021011962 -0.028000388 0.016580893 0.006247117
0003a0 d1 d5 17 bd 19 be f9 bc 0b a5 7e 3b c4 21 ed bc
       -0.037069146 -0.030486153 0.0038855697 -0.028946765
0003b0 ea 84 5d bd fc 6e 1e bd dc c0 20 3d 09 08 01 3d
       -0.054081835 -0.03868006 0.039246425 0.031501804
0003c0 67 70 ca 3c 86 d2 93 bb 73 76 c0 3c 53 28 93 bc
       0.0247118 -0.0045111803 0.023493981 -0.017963564
0003d0 a3 27 3c 3d c0 64 9a 3c 49 f3 18 bc f6 80 e8 bc
       0.045936238 0.01884687 -0.009335347 -0.028381806
0003e0 9d cb ad bc 05 2c 4b bd 9f f7 dc bc fb 3d fb bc
       -0.021215254 -0.049602527 -0.026973544 -0.030669203
0003f0 d8 89 05 3a b4 bc 38 bd 09 2c e9 bb 23 a8 c8 3b
       0.00050940877 -0.045101836 -0.007115845 0.006123559

action_model._continuous_distribution.mu.bias f4 [2]
000000 7e 0d 57 bd 7b 3a 95 3c
       -0.0525031 0.018216362

action_model._discrete_distribution.branches.0.weight f4 [1, 128]
000000 9a a9 86 3a 03 12 07 ba df ed 32 3c da f8 56 bc
       0.0010273934 -0.0005152525 0.010920971 -0.013120854
000010 8f 1e 5f 3b 0f e5 d8 3b f1 0b a1 3a 28 6a e0 39
       0.0034045314 0.006619103 0.0012286884 0.00042803702
000020 bf 77 91 3b 87 89 5b 3a 2d 5e 55 bc eb 02 46 bc
       0.0044393237 0.000837468 -0.013022942 -0.012085657
000030 30 b9 29 3b 70 53 0d b9 54 d1 8a 3b 34 93 4c bc
       0.0025897734 -0.00013477891 0.0042363796 -0.012486268
000040 18 67 04 bc 08 cd ff b9 ec 85 b8 bb af 15 ae bb
       -0.00808122 -0.0004879015 -0.005631199 -0.0053126435
000050 76 b9 08 3c 2f 49 bd 3c 10 eb 9b 3c 79 f2 82 3a
       0.008344999 0.023106186 0.019032985 0.0009990475
000060 c4 da ba 3a d4 8a 35 3c 0b c6 0c 3b 96 31 1a 3b
       0.0014255871 0.0110804625 0.0021480347 0.002352809
000070 ef 59 89 3c 57 ad 4f 3c 20 4f 57 bb fd aa 95 bc
       0.016766516 0.012675605 -0.0032853559 -0.01827001
000080 8c 01 0e 3c 1e 3c 20 bc 77 7c 74 3c d4 60 af bb
       0.008667361 -0.009779958 0.014922253 -0.005352119
000090 b2 ac 22 3c 80 9e a6 3b 24 61 0d 3b dd ea ee bb
       0.009928869 0.0050848126 0.0021572793 -0.0072911815
0000a0 ad b2 d7 bb e5 f2 11 bc 01 d1 14 3c b7 ad 0c 3b
       -0.006582579 -0.008908008 0.009083034 0.0021465847
0000b0 47 85 cf ba ca 1f f3 3b b0 e3 24 3b 57 7e 8e 3b
       -0.0015832566 0.007419561 0.0025160126 0.004348557
0000c0 8a 19 9b 3b 82 0f 52 3c 9f bd 2c ba 1c 03 28 3c
       0.004733269 0.01282108 -0.0006589535 0.010254648
0000d0 b5 4c 61 bc 62 65 a4 3b 43 c1 20 3b e3 26 1e bc
       -0.013751199 0.0050169686 0.0024529255 -0.009652826
0000e0 8d a0 f6 3b 89 65 83 b8 35 eb d8 bb c1 09 17 3b
       0.0075264634 -6.265479e-05 -0.0066198357 0.0023046585
0000f0 22 31 6c 3b 52 2b 31 bc 23 f4 91 bc d5 6b 5a bc
       0.0036040028 -0.010813551 -0.017816609 -0.013331373
000100 f8 84 7b 3a 0a 84 05 bb 7b 2d 5f bc aa f6 fd 3b
       0.0009594704 -0.002037289 -0.013621683 0.007750352
000110 05 e4 b6 bc 03 bd 3a bb 92 f1 db 3b b7 5c e8 3b
       -0.022325525 -0.0028494007 0.006712147 0.0070911306
000120 21 ed 0e bb 00 4f 61 bc e8 24 67 3c 96 82 4c bb
       -0.002180882 -0.013751745 0.01410792 -0.0031205765
000130 43 0e 6a 3c f5 4f ab bb 01 a5 0d bc 00 a4 36 3b
       0.014285627 -0.0052280375 -0.008645297 0.0027868748
000140 38 28 1d bc 5d da 20 3c 08 b3 fb ba 43 19 c7 3b
       -0.009592108 0.009817687 -0.0019203136 0.0060760095
000150 84 73 8f 3b 45 af 3b bc fa c3 6a 3b a2 b9 b6 bc
       0.004377784 -0.011455362 0.0035822378 -0.022305313
000160 9d 95 ea 3b 67 6d 5b bc 06 c9 af 3b a2 1f 60 3c
       0.0071589486 -0.013392783 0.00536454 0.013679417
000170 c7 70 ae 3b ec 1a b6 b7 8c e2 32 bb c7 78 83 3c
       0.0053235027 -2.1708627e-05 -0.0027295677 0.016048802
000180 54 ac 2e 3c 31 fb 0c bb a5 ec 19 3c 9e d7 12 3c
       0.010661203 -0.0021512026 0.009394799 0.00896254
000190 15 1a 77 bb d2 b5 86 3b 86 35 32 b8 c8 e6 73 bb
       -0.0037704755 0.00411103 -4.2488355e-05 -0.0037216414
0001a0 af 5b 60 bb e3 ee 29 bc 3a e0 be bb d8 12 58 bb
       -0.0034234335 -0.010371896 -0.0058250697 -0.0032970216
0001b0 8f bc c3 ba e0 1e 22 3b e7 cb f0 3b 0f 38 95 bb
       -0.0014933514 0.0024737641 0.007348526 -0.004553802
0001c0 15 94 54 bb c7 92 4f 3b 6f b6 ea b9 72 f3 a0 bc
       -0.0032436897 0.003167318 -0.00044767882 -0.019647334
0001d0 b8 90 9f bb 1b b4 a4 3a 59 07 18 bc cf 1a 96 3c
       -0.0048695467 0.0012565883 -0.009279096 0.01832333
0001e0 9b e5 0c bc 3a 8b 5d bc 57 44 32 bc c3 5b 68 3b
       -0.008599664 -0.013521964 -0.010880551 0.0035455085
0001f0 73 47 49 3c eb 08 b9 bb f7 c6 ba 3b f4 82 44 bc
       0.012285101 -0.005646815 0.005699988 -0.011994112
