results/run1/MazeBrain/MazeBrain-1499787.pt (torch, 999827 bytes, 39 tensors)

network_body._body_endoder.seq_layers.0.weight f4 [128, 186]
0	0x3e59abb1	0.21256901
1	0x3d6982db	0.05700956
2	0xbd432da9	-0.047650967
3	0x3cd76d98	0.026297376
4	0xbd2d9c66	-0.04238548
5	0xbb80ae34	-0.0039270166
6	0x3d9bee76	0.07613842
7	0x3d844cbb	0.06459948
8	0xbda42937	-0.080156736
9	0x3d3a2e6d	0.04545443
10	0xbbb5389f	-0.0055304314
11	0x3d275154	0.040849045
12	0xbde99f11	-0.11407293
13	0x3cf25f22	0.029586378
14	0x3d05ea1c	0.032693967
15	0xbdc433bf	-0.09580182
16	0x3ca3593a	0.019940007
17	0x3d9fa6ea	0.07795508
18	0xbd4a72e9	-0.049425993
19	0x3cd7bf87	0.026336445
20	0x3c334620	0.010942012
21	0xbd0a6ae7	-0.033793356
22	0x3cbf546f	0.02335569
23	0xbd1a0b2c	-0.03760831
24	0x3db2555d	0.08707688
25	0x3ddd2e59	0.10799856
26	0x3d4c2896	0.049843393
27	0x3c810225	0.015748093
28	0x3cd31fd9	0.025772022
29	0xbdb3aab3	-0.08772793
30	0xbd4cf62d	-0.05003946
31	0x3a4d5241	0.0007832386
32	0xbdd99663	-0.10624387
33	0x3e235d43	0.15953545
34	0xbcf898a1	-0.030346217
35	0xbcd40fb4	-0.025886394
36	0xbd0517b2	-0.0324933
37	0x3c557671	0.013028727
38	0x3db0e2dd	0.08637021
39	0xbd6ae1f5	-0.057344396
40	0x3d8d45bc	0.068980664
41	0x3cac2561	0.021013917
42	0xbe60a291	-0.21937014
43	0xbcbea948	-0.023274079
44	0xbde6d174	-0.11270419
45	0x3e034629	0.12819733
46	0x3d9b3cdb	0.07579967
47	0xbc8b4764	-0.017001815
48	0xbdb40568	-0.08790094
49	0x3d07a4ff	0.033116337
50	0x3dccbbb1	0.09996737
51	0x3d3d53b0	0.04622239
52	0xbcf74cb5	-0.030187944
53	0xbe077e4f	-0.13231777
54	0xbdadbca8	-0.08483249
55	0xbd9ee5a7	-0.077586465
56	0xbd301d33	-0.042996597
57	0x3e08190d	0.13290806
58	0x3d8e7c09	0.069572516
59	0xbda38d4d	-0.07985935
60	0xbdbaddd3	-0.09124341
61	0x3c03e728	0.008050717
62	0xbce6ae76	-0.028159361
63	0xbda76256	-0.08173053
64	0xbd94c995	-0.07265011
65	0xbe093000	-0.13397217
66	0x3c35efd1	0.01110454
67	0x3cdd8c74	0.027044512
68	0xbd360a4d	-0.044443417
69	0xbbeb79b5	-0.0071861395
70	0xbd8d9639	-0.06913418
71	0xbda9bf30	-0.08288419
72	0x3d2c5d97	0.04208144
73	0x3e019034	0.12652665
74	0xbd2d136f	-0.04225486
75	0xbbcbd478	-0.0062203966
76	0x3d3ded04	0.046368614
77	0x3d2c601e	0.042083852
78	0x3bc8720a	0.00611711
79	0xbd80dc1b	-0.06291982
80	0xbddc173d	-0.1074662
81	0xbc8f6c5a	-0.01750772
82	0x3db4b4b0	0.08823526
83	0xbdf6e191	-0.12054742
84	0x3df119eb	0.117725216
85	0x3d83c686	0.0643435
86	0xbd899dca	-0.06719549
87	0xbce85186	-0.028359186
88	0xbd7739f3	-0.060358
89	0x3c6068d5	0.013696869
90	0xbe08fe4e	-0.1337826
91	0xbd6cf5a6	-0.057851456
92	0x3dc3c915	0.09559838
93	0x3c916c26	0.017751765
94	0x3d521ae8	0.05129519
95	0x3bc4c38f	0.0060047577
96	0x3d87c718	0.06629771
97	0x3e1f8398	0.15577543
98	0xbdda8d34	-0.106714636
99	0x3d569cf9	0.052395795
100	0x3de67d87	0.11254411
101	0xbc17f185	-0.009273891
102	0xbd986f76	-0.074431345
103	0x3e02f310	0.12788033
104	0xbdbf3bf9	-0.09337611
105	0x3d1a7b86	0.037715457
106	0x3d56e61d	0.052465547
107	0xbcdfee10	-0.027335197
108	0x3d6bd9dc	0.057580814
109	0xbcaecff4	-0.021339394
110	0xbd7514a8	-0.059834152
111	0x3bc20996	0.005921553
112	0x3e00774f	0.12545513
113	0xbd0e37e6	-0.034721278
114	0xbe05d151	-0.13068129
115	0xbd266a60	-0.04062879
116	0xbe399529	-0.18123306
117	0xbd8d4197	-0.06897276
118	0x3d59b71e	0.05315315
119	0xbdbe2970	-0.09285247
120	0xbda49792	-0.08036722
121	0xbd515422	-0.051105626
122	0xbe15bb0b	-0.14622132
123	0x3cb3198b	0.021862766
124	0xbca0bb75	-0.019620636
125	0xbcb9d2f1	-0.022683593
126	0x3d80db4b	0.06291827
127	0xba8dc3ff	-0.0010815858
128	0xbcdc5357	-0.026895208
129	0x3dbc7aad	0.09203086
130	0xbe106439	-0.14100732
131	0xbdd2ffc6	-0.10302691
132	0xbd332d27	-0.043744233
133	0xbdb0ea24	-0.08638409
134	0x3ce3de24	0.027815886
135	0x3d092fdc	0.033492908
136	0x3cc490e1	0.023994865
137	0x3d2fc14d	0.042908955
138	0x3d8ae8d1	0.067826875
139	0xbc8474df	-0.01616901
140	0x3d43bcb5	0.047787387
141	0xbc077ab2	-0.008268999
142	0xbc27b169	-0.010235169
143	0xbc475003	-0.012165072
144	0x3cacfc0d	0.02111628
145	0xbd0c682e	-0.03427904
146	0xbd2151b7	-0.03938457
147	0x3d1d74fb	0.03844164
148	0xbc3c92ca	-0.011509607
149	0x3d4f670a	0.050635375
150	0x3c2a627e	0.010399459
151	0xbd933018	-0.071869075
152	0x3c3c6468	0.011498548
153	0x3c98b61f	0.01864153
154	0xbd878764	-0.066176206
155	0x3b8d71cd	0.0043165446
156	0xbdd6a603	-0.10480883
157	0x3b40c680	0.002941519
158	0xbc55499b	-0.013018037
159	0xbd7861bc	-0.06064008
160	0xbda46c58	-0.080284774
161	0xbdd090a9	-0.10183842
162	0xbd8538c5	-0.065049686
163	0x3e0611ba	0.130927
164	0xbda3b1e0	-0.07992911
165	0x3c353dc2	0.0110620875
166	0x3d4b4853	0.04962952
167	0x3d3cc8b3	0.04608984
168	0x3db6d9df	0.08928274
169	0xbacfccfc	-0.0015853937
170	0xbce2dd3c	-0.027693383
171	0x3ddae4c5	0.106881656
172	0x3cb6c24e	0.022309449
173	0xbcd065a0	-0.025439084
174	0xbda3eaf9	-0.08003802
175	0x3dd60580	0.10450268
176	0xbc893f36	-0.016753774
177	0x3a6ce472	0.00090367266
178	0xbe3a5cfd	-0.18199535
179	0x3d9064b2	0.07050456
180	0xbcab785b	-0.020931413
181	0xbd6f226c	-0.058382437
182	0xbdf0cfe7	-0.11758404
183	0x3e17c76c	0.14822167
184	0x3c333898	0.010938786
185	0xbcbe8a31	-0.023259254
186	0x3d29c740	0.041449785
187	0xbd244657	-0.040106144
188	0x3d47dfc9	0.048797403
189	0x3e50ad14	0.20378524
190	0x3da59be9	0.08086378
191	0x3d7a1dcf	0.061063584
192	0xbd5fbde0	-0.05462444
193	0xbcc6e649	-0.02427973
194	0xbd7d680d	-0.06186681
195	0xbd48b8a1	-0.0490042
196	0x3d154e05	0.03645136
197	0x3e0202f2	0.12696436
198	0xbd24cca2	-0.040234216
199	0xbe16235d	-0.14661928
200	0xbc3867e4	-0.011255238
201	0xbc32d62c	-0.01091532
202	0xbc8af0eb	-0.016960582
203	0x3e4930c5	0.1964751
204	0x3c9b9893	0.018993651
205	0xbdfdbb91	-0.12389291
206	0x3c3c09d9	0.011476957
207	0xbca954ab	-0.020670256
208	0xbc967be5	-0.018369624
209	0x3db29260	0.08719325
210	0xbd624d78	-0.05524966
211	0xbd023f64	-0.031798735
212	0x3cd1776c	0.02556964
213	0x3d6fd368	0.058551222
214	0x3d862ec6	0.0655189
215	0x3dfd6000	0.12371826
216	0xbd2a6d52	-0.041608162
217	0xbd96c413	-0.07361617
218	0xbd1ce1f3	-0.03830142
219	0xbe0a249b	-0.13490526
220	0xbe20b344	-0.15693384
221	0xbcb060c6	-0.02153052
222	0x3cc75dca	0.024336714
223	0x3a964e8b	0.00114675
224	0xbd77a790	-0.060462534
225	0xbd69a1c9	-0.057039056
226	0x3e0b3a5c	0.13596481
227	0xba800531	-0.0009767172
228	0x394c04ae	0.000194567
229	0x3d47ba55	0.048761684
230	0xbd8c73c0	-0.06858015
231	0x3aa99f2b	0.0012941113
232	0x3cd924d3	0.026506817
233	0xbd0d1db8	-0.03445217
234	0xbd285f59	-0.041106556
235	0x3bd66ae9	0.0065435064
236	0x3c40c098	0.011764668
237	0xbdb919af	-0.09038102
238	0xbd815344	-0.0631471
239	0xbd5f8d13	-0.0545779
240	0xbe25fee8	-0.1621052
241	0x3deffe44	0.11718419
242	0x3abb6509	0.0014297079
243	0xbc394d75	-0.011309971
244	0xbdbc18ca	-0.09184416
245	0x3c3e57c8	0.011617608
246	0x3d0cc3dc	0.034366474
247	0xbc55e40b	-0.013054858
248	0x3c3aecb6	0.011408975
249	0x3db125d1	0.08649791
250	0xbd71a31d	-0.058993448
251	0x3b028cb0	0.0019920282
252	0x3ce5be83	0.028044945
253	0x3d53fc8b	0.051754516
254	0xbc3ca70c	-0.011514436
255	0x3cc2e0e4	0.023788877

network_body._body_endoder.seq_layers.0.bias f4 [128]
0	0x3c986e35	0.018607238
1	0xbd122925	-0.03568377
2	0xb88c99ac	-6.704344e-05
3	0x3d1b9f10	0.03799349
4	0xbd389ea4	-0.045073166
5	0x3c0f48b8	0.008745365
6	0xbc4efe53	-0.012633878
7	0xbc5f51c5	-0.013630335
8	0xbc6d3b0e	-0.014479412
9	0xbc7a6645	-0.015283172
10	0xbc87a47d	-0.016557926
11	0xbcc83236	-0.024438005
12	0xbc172dac	-0.009227198
13	0x3cccf5fd	0.02501964
14	0xbca673d1	-0.020318897
15	0xbcd628cf	-0.026142506
16	0x3c215939	0.0098479325
17	0xbc2bdd4e	-0.010489775
18	0xbce8c592	-0.028414521
19	0xbc93be56	-0.018035095
20	0xbd2692e6	-0.040667437
21	0xbbca1fc6	-0.0061683385
22	0xbc7f1e09	-0.015571126
23	0x3c752baf	0.014964028
24	0x3c8efa89	0.017453449
25	0xbd1268cb	-0.03574447
26	0x3ca86636	0.02055655
27	0xbc60e93a	-0.013727481
28	0x3cd982bb	0.026551595
29	0x3b964de8	0.004586924
30	0x3c7dc7f5	0.015489568
31	0xbcb710cb	-0.022346875
32	0x3c0ca7db	0.008584942
33	0xbc1b1915	-0.009466429
34	0xbd18d484	-0.037312046
35	0x3ce0431b	0.027375748
36	0x3b8f1041	0.0043659513
37	0xbcd47256	-0.025933426
38	0x3c601527	0.013676918
39	0xbc983ab9	-0.018582689
40	0xbc530bd5	-0.012881239
41	0xb93b9533	-0.00017889291
42	0xbada17e8	-0.0016639205
43	0x3ca387fa	0.0199623
44	0x3d028388	0.03186372
45	0xbbf65cac	-0.0075183716
46	0x3cc226e2	0.023700181
47	0x3c9375b9	0.01800047
48	0xb9b3fff0	-0.0003433223
49	0xbd17130d	-0.036883403
50	0x3a1a5ef7	0.00058887847
51	0x3d05001e	0.032470815
52	0xbb877c85	-0.004134717
53	0x3c845b5d	0.016156847
54	0x3cad2d57	0.021139784
55	0x3cf7ac2c	0.030233465
56	0xbc26622b	-0.010155241
57	0xbd114abb	-0.03547166
58	0xbd3d45f4	-0.04620929
59	0x3d0d2bf6	0.034465753
60	0x3b1888a3	0.0023274801
61	0x3cac1fae	0.0210112
62	0x3d177b40	0.036982775
63	0xbd153272	-0.03642506
64	0x3b83accf	0.004018403
65	0x3cbd3be4	0.023099847
66	0x3d2aeb8e	0.04172855
67	0xbca1206c	-0.01966878
68	0x3cea3065	0.02858753
69	0xbc24de55	-0.010062774
70	0xbc88e4a0	-0.01671058
71	0x3bd99586	0.006640139
72	0x3c793fec	0.015212994
73	0x3cac04ba	0.020998348
74	0x3cfcb8ec	0.030849896
75	0xbd429036	-0.04750081
76	0xbd21d5e3	-0.03951062
77	0x3ccb859f	0.024843989
78	0xbc75b035	-0.014995624
79	0xba912c85	-0.001107589
80	0x3cbec717	0.023288293
81	0x3d0de560	0.034642577
82	0xbcc2d2d3	-0.02378217
83	0x3c2913cb	0.01031966
84	0x3cb7a27c	0.022416346
85	0x3a60667f	0.0008560195
86	0x3b6a4177	0.0035744586
87	0x3bd54eea	0.0065096514
88	0xbcf26399	-0.029588507
89	0xbc87b9a5	-0.016568014
90	0x3ca30b69	0.019902902
91	0xbcb6dc88	-0.022321954
92	0x3c0ec959	0.008714997
93	0xbc3b9149	-0.011448213
94	0x3c77221e	0.015083818
95	0x3bee4f3e	0.00727263
96	0x3c472cb9	0.012156659
97	0xbcd5b8fd	-0.026089186
98	0x3b145e64	0.002263927
99	0xbbe44261	-0.006965921
100	0x3c840272	0.016114447
101	0x3cbda457	0.023149652
102	0x39d32fa2	0.00040280545
103	0xba248441	-0.0006275811
104	0x3d285e0f	0.041105326
105	0x3c1d7d11	0.009612338
106	0xbbc04478	-0.005867537
107	0xbc290de5	-0.010318254
108	0x3c287c5c	0.010283556
109	0xbb18bf7b	-0.002330749
110	0xbd84ebb9	-0.06490273
111	0xbd4b96d6	-0.049704395
112	0xbc774fd8	-0.01509472
113	0xbbb505e7	-0.0055243853
114	0xbd4f2227	-0.05056968
115	0xbd1d766d	-0.038443018
116	0x3c469e35	0.01212268
117	0x3d0ec7e1	0.034858588
118	0xbc733ef4	-0.014846552
119	0x3c9efd3d	0.019407863
120	0xbd6106ff	-0.054938313
121	0x3c3f1a51	0.011663989
122	0xbd204a12	-0.03913314
123	0xbb672ab1	-0.0035273249
124	0x3c718008	0.014739998
125	0x3cbcb823	0.023037022
126	0x3bd9681c	0.0066347253
127	0xbc88ffcd	-0.016723538

network_body._body_endoder.seq_layers.2.weight f4 [128, 128]
0	0x3a513a6a	0.00079814217
1	0x3d9587d8	0.07301301
2	0xbda1f8e7	-0.079088025
3	0xbd64f82e	-0.055900745
4	0x3d4396dc	0.047751293
5	0x3d26df7d	0.04074048
6	0x3e112310	0.14173532
7	0xbd0099f3	-0.031396817
8	0xbca2f06b	-0.01989003
9	0x3dc92055	0.0982062
10	0xbd1fb101	-0.038987163
11	0xbdecdf8b	-0.11566075
12	0xbdb3c657	-0.08778065
13	0xbb609593	-0.003426884
14	0xbbcc9b14	-0.0062440727
15	0xbd6cb6f8	-0.05779168
16	0xbce27628	-0.027644232
17	0x3de5709a	0.11203118
18	0x3dc6e3c2	0.0971141
19	0xbd05f918	-0.032708257
20	0xbe03a89a	-0.12857285
21	0xbd88398d	-0.06651602
22	0x3d310648	0.04321888
23	0x3da1e938	0.07905811
24	0x3db37aa6	0.08763628
25	0xbd929c5f	-0.07158732
26	0x3de54da9	0.11196453
27	0x3e29d3f9	0.16584767
28	0xbddc1b7b	-0.10747429
29	0x3c669c81	0.014075399
30	0xbdf20ce3	-0.11818864
31	0x3d0b9594	0.034078196
32	0xbda2ec47	-0.079552226
33	0xbd21c34e	-0.039492898
34	0xbcd515af	-0.026011316
35	0x3dac5609	0.084148474
36	0xbe2fe93a	-0.17178813
37	0x3ca7d522	0.020487372
38	0xbe076ada	-0.13224354
39	0x3d14396d	0.036187578
40	0x3de8f6b0	0.11375177
41	0xbd524c06	-0.051342033
42	0x3b7168d5	0.0036836166
43	0x3c19cdbf	0.009387433
44	0xbcb001f0	-0.021485299
45	0xbce31ed2	-0.027724657
46	0xbe3f2472	-0.18666247
47	0x3e10b95a	0.14133206
48	0x3ba950aa	0.0051670866
49	0xbcd4c430	-0.025972456
50	0x3e0f10f5	0.13971312
51	0x3ded0d40	0.11574793
52	0xbe03ff04	-0.1289025
53	0x3d26cdda	0.04072366
54	0xbe0b5d5b	-0.13609831
55	0xbc469596	-0.012120625
56	0xb9772a4e	-0.00023571515
57	0xbcd25fad	-0.025680387
58	0x3d4d7076	0.05015608
59	0xbde9ac64	-0.11409834
60	0xbc55fc2c	-0.013060611
61	0x3c4c5a5f	0.012472718
62	0xbd60e7fc	-0.054908738
63	0xbd06c606	-0.032903694
64	0x3cabba56	0.020962875
65	0x3dc8bb28	0.09801322
66	0x3cedef46	0.029044759
67	0x3d210394	0.039310053
68	0x3ba8e219	0.005153906
69	0xbe37bdf3	-0.17943554
70	0x3cb5d9ee	0.022198644
71	0xbd5d048a	-0.053959407
72	0xbde5696a	-0.11201747
73	0x3e09636d	0.13416834
74	0x3cdcb736	0.02694283
75	0xbdb58e08	-0.08864981
76	0xbd258f91	-0.04042012
77	0xbe56334d	-0.20918007
78	0x3c0a2f3d	0.008434114
79	0x3e1386a3	0.14406829
80	0xbc4003b8	-0.011719637
81	0x3ce1b9f4	0.02755449
82	0x3d9ac6e5	0.07557467
83	0x3c809fb1	0.015701147
84	0xbd216c7b	-0.039410096
85	0x3e7da896	0.24771342
86	0x3e5b31e4	0.2140575
87	0xbe439815	-0.19100983
88	0x3c58b322	0.013226302
89	0xbce241d2	-0.027619276
90	0xbc8f9f13	-0.017531907
91	0xbb52ab25	-0.0032145467
92	0x3c921329	0.017831402
93	0x3d8f030d	0.06983004
94	0xbc8ee09c	-0.017441086
95	0x3e29c155	0.16577657
96	0xbeae8024	-0.3408214
97	0xbda0e9ec	-0.07857117
98	0x3e1be675	0.15224631
99	0x3df4cd6e	0.11953245
100	0xbdd19ac2	-0.10234596
101	0xbd5a6782	-0.05332137
102	0x3d85b168	0.06527978
103	0x3e2c538c	0.16828746
104	0x3e048ec4	0.12945086
105	0x3cf415ca	0.029795546
106	0x3beb9b38	0.0071901344
107	0x3e2f2224	0.17102867
108	0x3be22a55	0.006902019
109	0xbdcbe7a7	-0.099562936
110	0xbe1e50c1	-0.15460493
111	0xbd7d39af	-0.06182259
112	0xbda2380e	-0.07920848
113	0x3d3b4cb0	0.04572743
114	0x3dc4c46c	0.09607777
115	0xbe26a46e	-0.16273662
116	0xbdd3ceaf	-0.10342156
117	0x3e94ec58	0.29086566
118	0xbc817479	-0.015802609
119	0xbd70cf74	-0.058791593
120	0xbd64f636	-0.055898868
121	0xbccb2784	-0.024799116
122	0xbde2434d	-0.11047993
123	0xbd34230c	-0.043978736
124	0x3def90b0	0.11697519
125	0xbb98679a	-0.004651022
126	0xbcef0924	-0.029179163
127	0xbcc6432c	-0.024201952
128	0xbc90bc20	-0.01766783
129	0xbde1d01a	-0.1102602
130	0x3d733760	0.05937898
131	0xbd14852e	-0.036259823
132	0xbe08e270	-0.13367629
133	0x3db80349	0.089850016
134	0xbe31abbf	-0.17350672
135	0x3e2d75c3	0.16939454
136	0x3d51a0ca	0.05117873
137	0xbe0587f5	-0.13040145
138	0x3e10aea1	0.14129116
139	0xbd929985	-0.07158188
140	0xbe1f6315	-0.1556514
141	0x3dd078b1	0.1017927
142	0x3ce5dc2a	0.028059084
143	0xbe24ba76	-0.16086754
144	0x3e73f264	0.23822933
145	0x3d4f9091	0.05067498
146	0xbd80fa46	-0.06297736
147	0xbd846c1a	-0.06465931
148	0xbd044038	-0.032287806
149	0xba8022c3	-0.0009775985
150	0x3cb45e72	0.022017691
151	0xbcd8eccf	-0.026480107
152	0x3b907414	0.004408369
153	0xbd9106ca	-0.07081373
154	0x3d910bb4	0.0708231
155	0x3d6afb88	0.057368785
156	0xbd0ac178	-0.033875912
157	0xbdcb3fcc	-0.09924278
158	0xbbf97702	-0.007613064
159	0x3de702f5	0.11279861
160	0xbd88b717	-0.066755466
161	0x3d42972d	0.047507454
162	0xbdf15b83	-0.117850326
163	0xbcf85c6b	-0.030317506
164	0xbe32b099	-0.17450179
165	0xbd448422	-0.047977574
166	0xbd3254c6	-0.043537878
167	0x3e048d24	0.12944466
168	0x3c0878c0	0.00832957
169	0x3dac01c4	0.08398774
170	0x3d4a9211	0.049455706
171	0x3dec0139	0.11523671
172	0x3d13a566	0.036046408
173	0xbba28c33	-0.0049605607
174	0xbc617b74	-0.013762344
175	0x3d39cb52	0.045359917
176	0x3ab31713	0.0013663493
177	0x3d625843	0.055259954
178	0xbcf69269	-0.03009911
179	0x3d842cc9	0.064538546
180	0x3c9b82cb	0.018983265
181	0xbe1e47be	-0.15457055
182	0x3cbe1c41	0.023206832
183	0x3c9bc553	0.01901499
184	0xbce028f0	-0.02736327
185	0x3d366ea5	0.044539113
186	0x3dbb8d35	0.091577925
187	0xbccda07e	-0.025100943
188	0x3da1deb6	0.07903807
189	0xbd8ccba8	-0.06874782
190	0xbde635c7	-0.11240726
191	0xbdd25878	-0.1027078
192	0xbe05612e	-0.13025352
193	0xbcce561f	-0.02518755
194	0xbdd790e7	-0.10525685
195	0xbd83b337	-0.06430667
196	0x3dc716fd	0.097211815
197	0x3e661dea	0.22472349
198	0xbcfb3042	-0.03066266
199	0xbd8d2b1f	-0.0689299
200	0x3e7d2997	0.24722897
201	0xbbb49b80	-0.005511701
202	0xbb5647e2	-0.0032696654
203	0x3e1e069f	0.15432213
204	0xbd9fa3e9	-0.07794935
205	0xbd606a54	-0.054788902
206	0x3b906ade	0.004407271
207	0xbe167b93	-0.14695577
208	0xbdef76e5	-0.11692599
209	0xbdc0ce49	-0.09414346
210	0x3cad6a21	0.02116877
211	0x3db06251	0.08612502
212	0x3e305e1f	0.17223404
213	0xbe288707	-0.16457759
214	0xbdf0b2e4	-0.11752871
215	0x3c54e2da	0.012993539
216	0x3c812d7b	0.015768757
217	0xbbdd210d	-0.0067483247
218	0x3d3c4965	0.045968432
219	0xbda8a7ae	-0.08235107
220	0xbd218bee	-0.039440088
221	0xbdc867bd	-0.097854115
222	0xbd9139e9	-0.070911236
223	0x3e0b3f07	0.13598262
224	0xbd87f51e	-0.06638549
225	0x3c4590a7	0.012058414
226	0x3dd4fe60	0.10400081
227	0xbdba5c60	-0.090996504
228	0xbe14bbcb	-0.14524762
229	0xbe0db16a	-0.1383721
230	0x3c7b9f1b	0.015357758
231	0x3d8edce9	0.06975729
232	0xbd959f42	-0.07305767
233	0x3d8df142	0.06930782
234	0x3e15ad19	0.14616813
235	0xbd9a60d9	-0.075380035
236	0x3dd54d3c	0.10415122
237	0xbd83f7bd	-0.06443737
238	0x3db2587c	0.08708283
239	0x3db0d4bf	0.08634328
240	0x3dae646c	0.08515248
241	0x3cfc4b29	0.030797558
242	0x3d4e61c9	0.050386224
243	0xbe25f74f	-0.16207622
244	0xbda03a73	-0.07823648
245	0xbd28799d	-0.041131604
246	0xbe1dcda5	-0.15410478
247	0xbd6b6b07	-0.057475116
248	0x3d41d422	0.047321446
249	0x3dc041d9	0.093875594
250	0xbd03a3cc	-0.03213863
251	0xbdd113fe	-0.10208891
252	0x3e9d8bc1	0.30770686
253	0xbd7a04b5	-0.061039645
254	0x3c8ef61c	0.017451338
255	0x3e01a9bd	0.12662406

network_body._body_endoder.seq_layers.2.bias f4 [128]
0	0xbbecbde2	-0.007224784
1	0xbd37fa16	-0.044916235
2	0xbd67b1ca	-0.056566037
3	0x3d29b98e	0.041436724
4	0xbd1ab5ff	-0.03777122
5	0xbd79787d	-0.060905922
6	0x3ad26e47	0.0016054594
7	0xbb89824a	-0.00419644
8	0xbd6a8070	-0.057251394
9	0x3d11747d	0.035511483
10	0xbaa70924	-0.0012743813
11	0x3d11e4d9	0.035618637
12	0x3d3a1267	0.045427706
13	0x3d1faa08	0.038980514
14	0xbc48fb3b	-0.012266929
15	0x3d0229ec	0.03177826
16	0xbbc1416a	-0.0058976905
17	0xbbc0a3a6	-0.0058788834
18	0x3a121587	0.0005572666
19	0xbc9877e0	-0.018611848
20	0x3d39875b	0.0452951
21	0x3d06454b	0.032780927
22	0x3cb3b2a7	0.021935774
23	0xbc358238	-0.01107841
24	0x3cb45a70	0.02201578
25	0x3ba06868	0.0048952587
26	0xbc47f88b	-0.012205253
27	0x3bf7e668	0.0075653084
28	0xbd0c982b	-0.034324806
29	0xbd678a8b	-0.05652861
30	0xbd09af05	-0.033614177
31	0xbccbd36d	-0.02488109
32	0xbd009a01	-0.03139687
33	0x3d1dc82c	0.038520977
34	0x3d1f9dbc	0.038968787
35	0x3cd3bfc4	0.025848277
36	0x3c9d8cdb	0.019232204
37	0x3c016fa5	0.007900153
38	0xbc73bf16	-0.014877101
39	0xbd1bebf7	-0.03806683
40	0xbd01cce3	-0.031689536
41	0x3c89eba1	0.01683599
42	0x3bdc55c0	0.0067240894
43	0xbd2f21d0	-0.042756855
44	0xbd388756	-0.04505094
45	0x3ce443ba	0.027864326
46	0x3cf32f90	0.029685766
47	0xbd03bd6a	-0.03216306
48	0xbc7934a5	-0.015210305
49	0xbc7127a0	-0.01471892
50	0xbb208ca5	-0.0024497893
51	0x3d6b4a32	0.057443805
52	0x3c4474ab	0.011990706
53	0xbd0eca25	-0.03486075
54	0x3d0b3748	0.033988267
55	0x3d4e03b9	0.05029652
56	0xbd12885f	-0.035774585
57	0x3ceca553	0.028887426
58	0x3c6a6b2a	0.0143077765
59	0x3c1031eb	0.008800964
60	0xbd29749a	-0.041370966
61	0x3c2e1af9	0.010626548
62	0x3be2918a	0.0069143223
63	0x3c828e4c	0.015936993
64	0x3d109b63	0.03530444
65	0x3c328eb0	0.010898277
66	0xbd0d086e	-0.034431867
67	0xbc174317	-0.009232304
68	0xbd308bd3	-0.043102097
69	0xbda149eb	-0.07875427
70	0xbcfade50	-0.030623585
71	0xbd5b443b	-0.053531867
72	0xbd12a01d	-0.035797227
73	0x3cebe9a8	0.02879794
74	0x3c8d386c	0.017238818
75	0xbc9413eb	-0.018075904
76	0xbcb9333a	-0.022607435
77	0x3ce92a4b	0.02846255
78	0xbc333f86	-0.010940438
79	0xbbccdb15	-0.0062517026
80	0xbc8d2bc9	-0.017232792
81	0x3cceb6fe	0.025233742
82	0x3c93faf4	0.018064
83	0xbc383c95	-0.011244913
84	0xbd9b857a	-0.07593818
85	0xbd547338	-0.051867694
86	0x3c44ded1	0.012016014
87	0x3cb80df3	0.022467589
88	0x3bc4037f	0.005981862
89	0x3d10ca7d	0.035349358
90	0xbd503c8e	-0.050839
91	0xbd30731b	-0.043078523
92	0xbd98ae27	-0.07455092
93	0xbd2b78c5	-0.04186322
94	0xbcabe733	-0.020984268
95	0xbd919635	-0.07108728
96	0x3cb77455	0.022394339
97	0x3cd6ce20	0.026221335
98	0xbc8ba865	-0.01704807
99	0xbd002a33	-0.031290244
100	0x3b00c7d0	0.0019650348
101	0x3d072971	0.032998506
102	0xbbeb99b6	-0.0071899546
103	0xbbc242b0	-0.00592836
104	0xbc416e9e	-0.011806158
105	0xbcd732be	-0.026269313
106	0x3d053b80	0.032527447
107	0x3c0253bd	0.007954535
108	0xbc4d9e97	-0.012550018
109	0x3c06e1a7	0.008232511
110	0x3d4e1c7b	0.05032013
111	0x38299966	4.0435603e-05
112	0xbc5920f1	-0.013252483
113	0xbd241a69	-0.04006425
114	0xbbb14859	-0.005410236
115	0x3d07d91a	0.03316603
116	0x3d1ee4e6	0.038792513
117	0x3ca140cb	0.019684216
118	0xbd111b60	-0.035426497
119	0x3c689aae	0.014197035
120	0x3c8e3528	0.017359331
121	0x3cfb70a4	0.03069336
122	0xbcd781a2	-0.02630693
123	0x3c50c401	0.0127420435
124	0x3c913381	0.017724754
125	0x3cbd1374	0.023080565
126	0x3b96aa73	0.004597956
127	0xbccf57f0	-0.025310487

action_model._continuous_distribution.log_sigma f4 [1, 2]
0	0xbda094d2	-0.07840885
1	0x3c2ea857	0.0106602525

action_model._continuous_distribution.mu.weight f4 [2, 128]
0	0x3c5fc8bd	0.0136587
1	0x3ca85400	0.020547867
2	0x3d6c8984	0.057748333
3	0xbb982664	-0.0046432484
4	0x3d8b553b	0.06803366
5	0x3d4f321f	0.05058491
6	0x3c09eacc	0.008417796
7	0x3d346a67	0.044046786
8	0x3cd0559b	0.025431445
9	0xbaba1f78	-0.0014200052
10	0x3c3cb3b8	0.011517458
11	0xbbed3961	-0.007239506
12	0xbd4651ed	-0.048417974
13	0xbcbacbe5	-0.022802303
14	0xbaa570e8	-0.001262215
15	0xbc4ebec8	-0.012618728
16	0x3b3e8f05	0.0029076946
17	0x3c8531a6	0.016259026
18	0x3cff865e	0.031192001
19	0x3d4f488c	0.050606295
20	0xbc56ef81	-0.013118626
21	0xbc8df3be	-0.01732814
22	0xbc435082	-0.01192105
23	0x3af0d50a	0.0018374037
24	0xbc9cf0a7	-0.01915772
25	0x3b90d4a7	0.0044198814
26	0xbc24facd	-0.010069561
27	0x3978e760	0.00023737317
28	0x3ca0dbba	0.019636024
29	0x3c1989ee	0.009371264
30	0x3d0debcc	0.0346487
31	0x3cbe7881	0.02325082
32	0x3d04d53b	0.032429915
33	0xbbca9034	-0.006181741
34	0xbcbb70bf	-0.02288091
35	0xbc235010	-0.009967819
36	0xbb686af3	-0.0035464137
37	0xbbab959b	-0.00523634
38	0x3c89fa16	0.016842883
39	0x3d4989f1	0.049203817
40	0x3cd6a4cb	0.026201626
41	0x3c667f0e	0.014068378
42	0xbb0f4a53	-0.002186437
43	0x3d480546	0.048833154
44	0x3c92fdaa	0.017943222
45	0xbd001e5d	-0.031278957
46	0xbcc26ef3	-0.023734545
47	0x3c9525bd	0.018206472
48	0x3bbf3909	0.0058356565
49	0xbc1f153e	-0.009709654
50	0x3d121777	0.03566691
51	0xbd291c42	-0.041286714
52	0x3a8ace05	0.0010589963
53	0x3c3eb3d5	0.011639555
54	0xbb8bf4e6	-0.0042711375
55	0xbcfaea7e	-0.030629393
56	0xbb798a89	-0.0038076958
57	0xbc353522	-0.011060031
58	0xbc111091	-0.008854047
59	0x3b2c7bc2	0.0026318883
60	0x3d835e4c	0.0641447
61	0xbb8c5fc0	-0.004283875
62	0xbca6f321	-0.020379605
63	0xbc1e547a	-0.0096636955
64	0xbc1eeec6	-0.009700483
65	0xbc0754b2	-0.008259939
66	0x392fd4f6	0.00016768635
67	0x3b09adcf	0.002100814
68	0x3cf2ceb1	0.029639574
69	0x3c6beb1f	0.014399319
70	0x3ce01215	0.027352372
71	0x3d5bdf3c	0.05367969
72	0x3d3aabe5	0.045574088
73	0xbd217b15	-0.03942402
74	0xbcbf2563	-0.023333257
75	0x3cb22a08	0.021748558
76	0x3c8f37b8	0.017482623
77	0xbc1b65d7	-0.00948473
78	0x3bdd36bd	0.00675091
79	0x3bc1eb35	0.0059179314
80	0x3c4bf46f	0.012448414
81	0xb9d04143	-0.00039721475
82	0xbc4716dd	-0.012151447
83	0x3c3045a7	0.010758794
84	0x3c7e9000	0.015537262
85	0x3ca0348e	0.01955631
86	0xbc48760f	-0.012235179
87	0xbc419b2f	-0.011816784
88	0xbb417d26	-0.0029524057
89	0xbd2474f3	-0.040150594
90	0x3c7da4d8	0.015481196
91	0x3c5618bd	0.0130674215
92	0x3cfd1cdc	0.03089755
93	0x3c755d42	0.014975848
94	0x3b81d08c	0.0039616283
95	0x3d802cc9	0.06258542
96	0xbc0eabaf	-0.008707925
97	0xbce66c9d	-0.028127963
98	0xbbbf0ab0	-0.0058301315
99	0x3c21e848	0.00988204
100	0xbbd1c240	-0.00640133
101	0x3ada96f5	0.0016677069
102	0x3c4cf990	0.012510672
103	0x3c41f5b7	0.011838368
104	0x3d100421	0.035160188
105	0xbb8ccad2	-0.004296639
106	0xbc55c2cd	-0.013046932
107	0x3b6560a7	0.0035000236
108	0x3d04bcf4	0.032406762
109	0x3becb55f	0.0072237696
110	0xbc9f0810	-0.019413024
111	0x3c7bb05b	0.015361871
112	0x3ccf20cb	0.025284192
113	0x3a1329cb	0.00056138326
114	0x3c405d77	0.011741034
115	0xbc912a32	-0.017720316
116	0xbd2584df	-0.04040992
117	0xbb4232b3	-0.002963227
118	0x3c16fd44	0.009215657
119	0xbc5c6f78	-0.013454311
120	0xbcb2dd12	-0.02183393
121	0xbd239976	-0.039941274
122	0x3b60961a	0.0034269155
123	0xbb31820e	-0.0027085575
124	0x3b097b7b	0.002097814
125	0xbd04df0d	-0.03243928
126	0xbc151acf	-0.00910063
127	0x3d158663	0.036505114
128	0x3ceea55e	0.029131588
129	0xbb66ae9b	-0.0035199288
130	0xbccba090	-0.024856836
131	0xbbd8fe83	-0.006622137
132	0xbd52dbbd	-0.05147909
133	0xbd2fdda7	-0.042935994
134	0xbcd32ddc	-0.025778703
135	0x3d0aa0f4	0.033844903
136	0x3a1b58d6	0.00059260183
137	0x3d2c3086	0.042038463
138	0xbcea1a14	-0.028576888
139	0x37d62a56	2.5530502e-05
140	0x3cabbe9c	0.020964913
141	0x3cc768dc	0.024341993
142	0xbcef907c	-0.0292437
143	0x3c822592	0.015887056
144	0xbb9a6799	-0.004712057
145	0x3b9ff088	0.0048809685
146	0xbd4bb464	-0.04973258
147	0x3c13cc9f	0.009020953
148	0x3cfbe7cd	0.03075018
149	0xbcb000e9	-0.021484809
150	0xbc997d72	-0.018736575
151	0x3c87bd70	0.016569823
152	0xbcb13d36	-0.021635633
153	0xbd38c9d9	-0.045114372
154	0xbbcdb791	-0.0062779863
155	0xbc3ddd87	-0.011588461
156	0xbcdf1e69	-0.02723618
157	0x3c561a4b	0.013067792
158	0x3bcd2554	0.0062605534
159	0xbc037e13	-0.008025664
160	0x3bf2790f	0.007399685
161	0x3cbceea1	0.023063006
162	0x3c1e2b95	0.009653945
163	0xbc185215	-0.009296914
164	0xbd19ffd2	-0.037597485
165	0xbc843eb8	-0.016143188
166	0x3ce0cdff	0.027441977
167	0xbc5e7c62	-0.01357946
168	0xbd0d8404	-0.034549728
169	0x3d1234e6	0.03569498
170	0x3b5e0c2e	0.0033881771
171	0xbbc2cb0c	-0.005944615
172	0xbc95a3c7	-0.018266572
173	0xbbef99cb	-0.0073120347
174	0xbc16bdda	-0.009200538
175	0x3b8c0a0a	0.0042736577
176	0xbd0f2dba	-0.034955718
177	0xbb795fd8	-0.0038051512
178	0x3ccb0471	0.024782391
179	0x3cb9dbeb	0.022687873
180	0x3cbf1568	0.023325637
181	0x3be7250b	0.0070539764
182	0x3c8e8f02	0.017402176
183	0x3d110369	0.035403643
184	0xbc8688e9	-0.016422706
185	0xbd902106	-0.07037549
186	0xbc88c5b7	-0.01669584
187	0xbc81ccfe	-0.015844818
188	0x3c51f9ee	0.012815936
189	0xbd37cbe0	-0.044872165
190	0xbd1f20fb	-0.038849812
191	0xbc9e5a5c	-0.019330196
192	0x3c82d83c	0.01597225
193	0xbd50633d	-0.05087589
194	0x3c204546	0.009782141
195	0xbb9e8d02	-0.004838587
196	0xbd064f66	-0.032790564
197	0xbbd5af80	-0.0065211654
198	0xbc15f56c	-0.009152751
199	0xbbe71e72	-0.00705319
200	0x3bd93ad6	0.0066293282
201	0xbce53b59	-0.0279824
202	0xbd459787	-0.04824021
203	0x3bf114db	0.0073572225
204	0x3bca2512	0.00616897
205	0x3c88036b	0.016603192
206	0xbcc8692b	-0.02446421
207	0xbcbf40d9	-0.023346351
208	0xbd0a56aa	-0.033774056
209	0x3cecd65a	0.028910805
210	0xbbe62187	-0.0070230397
211	0x3c14b83c	0.009077128
212	0xbc4ac2c9	-0.012375542
213	0xbc2513e3	-0.010075542
214	0xbd0d36c9	-0.034476075
215	0x3d69bdec	0.05706589
216	0xbd4f6252	-0.050630875
217	0xbc80ca34	-0.015721418
218	0xbcbd237c	-0.02308821
219	0xbc28478a	-0.0102709625
220	0xbcb2cf8d	-0.021827484
221	0x37b96031	2.2098511e-05
222	0xbc9d568b	-0.019206306
223	0xbc40c21c	-0.011765029
224	0xbbb010de	-0.0053731045
225	0x3c7fdcc0	0.015616596
226	0x3ac3fb0b	0.0014952136
227	0xbb86c5c4	-0.004112931
228	0xbcd9468a	-0.026522893
229	0xbcfbd354	-0.030740418
230	0x3c3be025	0.011467014
231	0x3c110701	0.0088517675
232	0xbd0eb9dc	-0.034845218
233	0xbd077889	-0.033073936
234	0x3b482736	0.003054095
235	0xbd044eac	-0.03230159
236	0xbd60f2df	-0.05491912
237	0xbd2e5be0	-0.042568088
238	0x3d3284c3	0.043583643
239	0x3cfa1cd2	0.03053132
240	0x3cc36cce	0.023855593
241	0xbb728f88	-0.003701182
242	0x3c9a0d02	0.01880503
243	0xbcb6e2af	-0.022324888
244	0x3d2e9399	0.04262123
245	0x3cb622bd	0.022233361
246	0xbc27ec90	-0.010249272
247	0xbcfa3bb6	-0.03054605
248	0xbcd0db10	-0.025495082
249	0xbd54f78b	-0.051993888
250	0xbce93e35	-0.028472045
251	0xbd06acf4	-0.032879785
252	0x3a82320c	0.0009933128
253	0xbd4d3645	-0.050100584
254	0xbc1177b5	-0.008878638
255	0x3bd2356a	0.006415059

action_model._continuous_distribution.mu.bias f4 [2]
0	0xbd433df5	-0.04766651
1	0x3c7f6eeb	0.01559041

action_model._discrete_distribution.branches.0.weight f4 [1, 128]
0	0x3a86a99a	0.0010273934
1	0xba071203	-0.0005152525
2	0x3c32eddf	0.010920971
3	0xbc56f8da	-0.013120854
4	0x3b5f1e8f	0.0034045314
5	0x3bd8e50f	0.006619103
6	0x3aa10bf1	0.0012286884
7	0x39e06a28	0.00042803702
8	0x3b9177bf	0.0044393237
9	0x3a5b8987	0.000837468
10	0xbc555e2d	-0.013022942
11	0xbc4602eb	-0.012085657
12	0x3b29b930	0.0025897734
13	0xb90d5370	-0.00013477891
14	0x3b8ad154	0.0042363796
15	0xbc4c9334	-0.012486268
16	0xbc046718	-0.00808122
17	0xb9ffcd08	-0.0004879015
18	0xbbb885ec	-0.005631199
19	0xbbae15af	-0.0053126435
20	0x3c08b976	0.008344999
21	0x3cbd492f	0.023106186
22	0x3c9beb10	0.019032985
23	0x3a82f279	0.0009990475
24	0x3abadac4	0.0014255871
25	0x3c358ad4	0.0110804625
26	0x3b0cc60b	0.0021480347
27	0x3b1a3196	0.002352809
28	0x3c8959ef	0.016766516
29	0x3c4fad57	0.012675605
30	0xbb574f20	-0.0032853559
31	0xbc95aafd	-0.01827001
32	0x3c0e018c	0.008667361
33	0xbc203c1e	-0.009779958
34	0x3c747c77	0.014922253
35	0xbbaf60d4	-0.005352119
36	0x3c22acb2	0.009928869
37	0x3ba69e80	0.0050848126
38	0x3b0d6124	0.0021572793
39	0xbbeeeadd	-0.0072911815
40	0xbbd7b2ad	-0.006582579
41	0xbc11f2e5	-0.008908008
42	0x3c14d101	0.009083034
43	0x3b0cadb7	0.0021465847
44	0xbacf8547	-0.0015832566
45	0x3bf31fca	0.007419561
46	0x3b24e3b0	0.0025160126
47	0x3b8e7e57	0.004348557
48	0x3b9b198a	0.004733269
49	0x3c520f82	0.01282108
50	0xba2cbd9f	-0.0006589535
51	0x3c28031c	0.010254648
52	0xbc614cb5	-0.013751199
53	0x3ba46562	0.0050169686
54	0x3b20c143	0.0024529255
55	0xbc1e26e3	-0.009652826
56	0x3bf6a08d	0.0075264634
57	0xb8836589	-6.265479e-05
58	0xbbd8eb35	-0.0066198357
59	0x3b1709c1	0.0023046585
60	0x3b6c3122	0.0036040028
61	0xbc312b52	-0.010813551
62	0xbc91f423	-0.017816609
63	0xbc5a6bd5	-0.013331373
64	0x3a7b84f8	0.0009594704
65	0xbb05840a	-0.002037289
66	0xbc5f2d7b	-0.013621683
67	0x3bfdf6aa	0.007750352
68	0xbcb6e405	-0.022325525
69	0xbb3abd03	-0.0028494007
70	0x3bdbf192	0.006712147
71	0x3be85cb7	0.0070911306
72	0xbb0eed21	-0.002180882
73	0xbc614f00	-0.013751745
74	0x3c6724e8	0.01410792
75	0xbb4c8296	-0.0031205765
76	0x3c6a0e43	0.014285627
77	0xbbab4ff5	-0.0052280375
78	0xbc0da501	-0.008645297
79	0x3b36a400	0.0027868748
80	0xbc1d2838	-0.009592108
81	0x3c20da5d	0.009817687
82	0xbafbb308	-0.0019203136
83	0x3bc71943	0.0060760095
84	0x3b8f7384	0.004377784
85	0xbc3baf45	-0.011455362
86	0x3b6ac3fa	0.0035822378
87	0xbcb6b9a2	-0.022305313
88	0x3bea959d	0.0071589486
89	0xbc5b6d67	-0.013392783
90	0x3bafc906	0.00536454
91	0x3c601fa2	0.013679417
92	0x3bae70c7	0.0053235027
93	0xb7b61aec	-2.1708627e-05
94	0xbb32e28c	-0.0027295677
95	0x3c8378c7	0.016048802
96	0x3c2eac54	0.010661203
97	0xbb0cfb31	-0.0021512026
98	0x3c19eca5	0.009394799
99	0x3c12d79e	0.00896254
100	0xbb771a15	-0.0037704755
101	0x3b86b5d2	0.00411103
102	0xb8323586	-4.2488355e-05
103	0xbb73e6c8	-0.0037216414
104	0xbb605baf	-0.0034234335
105	0xbc29eee3	-0.010371896
106	0xbbbee03a	-0.0058250697
107	0xbb5812d8	-0.0032970216
108	0xbac3bc8f	-0.0014933514
109	0x3b221ee0	0.0024737641
110	0x3bf0cbe7	0.007348526
111	0xbb95380f	-0.004553802
112	0xbb549415	-0.0032436897
113	0x3b4f92c7	0.003167318
114	0xb9eab66f	-0.00044767882
115	0xbca0f372	-0.019647334
116	0xbb9f90b8	-0.0048695467
117	0x3aa4b41b	0.0012565883
118	0xbc180759	-0.009279096
119	0x3c961acf	0.01832333
120	0xbc0ce59b	-0.008599664
121	0xbc5d8b3a	-0.013521964
122	0xbc324457	-0.010880551
123	0x3b685bc3	0.0035455085
124	0x3c494773	0.012285101
125	0xbbb908eb	-0.005646815
126	0x3bbac6f7	0.005699988
127	0xbc4482f4	-0.011994112

exp_avg f4 [128, 186]
0	0xb82e2a0b	-4.152399e-05
1	0xaca05447	-4.55683e-12
2	0xb8119aed	-3.471498e-05
3	0xb80cf7dc	-3.3609438e-05
4	0x00000000	0.0
5	0x36f6e210	7.3576884e-06
6	0xb82b7380	-4.0877145e-05
7	0xacb41750	-5.118496e-12
8	0xb812192b	-3.4832552e-05
9	0xb80bb0de	-3.3304903e-05
10	0x00000000	0.0
11	0x37021103	7.752565e-06
12	0xb829dbdb	-4.0497496e-05
13	0xaca9f8bb	-4.8308835e-12
14	0xb80e1b7b	-3.388103e-05
15	0xb808fd6a	-3.2660937e-05
16	0x00000000	0.0
17	0x36ef8748	7.138504e-06
18	0xb826b4c5	-3.974584e-05
19	0xacb9f9dd	-5.2857566e-12
20	0xb80df921	-3.384904e-05
21	0xb80804d0	-3.242941e-05
22	0x00000000	0.0
23	0x37007133	7.655751e-06
24	0xb81e21d2	-3.7701633e-05
25	0xacc1271b	-5.4897315e-12
26	0xb8164b76	-3.5833065e-05
27	0xb805e0ba	-3.1918964e-05
28	0x00000000	0.0
29	0x372230e4	9.667336e-06
30	0xb81a9d84	-3.686316e-05
31	0xacb2765f	-5.072206e-12
32	0xb80e8199	-3.3976135e-05
33	0xb8009d64	-3.066416e-05
34	0x00000000	0.0
35	0x37118630	8.673916e-06
36	0xb8189915	-3.6382193e-05
37	0xacac98a3	-4.90548e-12
38	0xb811c8ad	-3.4757588e-05
39	0xb800ff63	-3.0755426e-05
40	0x00000000	0.0
41	0x371ab98c	9.222316e-06
42	0xb81b8e72	-3.7087542e-05
43	0xaca78915	-4.7616446e-12
44	0xb80ef764	-3.408584e-05
45	0xb8025ef4	-3.1082847e-05
46	0x00000000	0.0
47	0x370d3b76	8.418099e-06
48	0xb81b79ff	-3.7068497e-05
49	0xac89b193	-3.913489e-12
50	0xb809e113	-3.2872962e-05
51	0xb80111e5	-3.0772662e-05
52	0x00000000	0.0
53	0x3703d1f4	7.857092e-06
54	0xb81dac5d	-3.7592243e-05
55	0xac89600b	-3.904437e-12
56	0xb80d3c47	-3.3673157e-05
57	0xb80337a1	-3.1284642e-05
58	0x00000000	0.0
59	0x3706d066	8.035544e-06
60	0xb81bff64	-3.719273e-05
61	0xac8b29fd	-3.9552792e-12
62	0xb80f5635	-3.4174143e-05
63	0xb80382c8	-3.1354633e-05
64	0x00000000	0.0
65	0x3710dbdb	8.634258e-06
66	0xb81affbd	-3.6954636e-05
67	0xac7cc808	-3.5922394e-12
68	0xb80ee658	-3.4069963e-05
69	0xb802dee7	-3.120201e-05
70	0x00000000	0.0
71	0x37116eb6	8.66845e-06
72	0xb818df08	-3.6447338e-05
73	0xac630abd	-3.2264601e-12
74	0xb80b2b62	-3.3180586e-05
75	0xb800b10e	-3.0682473e-05
76	0x00000000	0.0
77	0x370c721c	8.371218e-06
78	0xb81e60eb	-3.7760397e-05
79	0xac8acadf	-3.944719e-12
80	0xb8043df7	-3.152896e-05
81	0xb801bc69	-3.0931467e-05
82	0x00000000	0.0
83	0x36e44d51	6.8039303e-06
84	0xb81c8945	-3.732114e-05
85	0xac919dd4	-4.1386703e-12
86	0xb8039a49	-3.1376523e-05
87	0xb800744e	-3.0625895e-05
88	0x00000000	0.0
89	0x36e79d48	6.9026464e-06
90	0xb81a58e8	-3.679926e-05
91	0xacbb4ee6	-5.323619e-12
92	0xb800bbc6	-3.0692456e-05
93	0xb7fd0cb1	-3.016586e-05
94	0x00000000	0.0
95	0x36e6e815	6.881552e-06
96	0xb81671c7	-3.586875e-05
97	0xacb9ac1c	-5.2771242e-12
98	0xb7f96598	-2.9730421e-05
99	0xb7f6dc97	-2.9428205e-05
100	0x00000000	0.0
101	0x36e0dc0d	6.7013375e-06
102	0xb8154d26	-3.559622e-05
103	0xacd4efe9	-6.0520378e-12
104	0xb7f67776	-2.9381114e-05
105	0xb7f5b6d8	-2.929142e-05
106	0x00000000	0.0
107	0x36dfcee4	6.670003e-06
108	0xb8120fad	-3.482371e-05
109	0xacdd7af5	-6.2948488e-12
110	0xb7ed5666	-2.8292834e-05
111	0xb7ee70d0	-2.8424343e-05
112	0x00000000	0.0
113	0x36d427fa	6.3227462e-06
114	0xb8144f8a	-3.5360026e-05
115	0xacccd122	-5.821247e-12
116	0xb7f0432a	-2.8641505e-05
117	0xb7f26551	-2.8895827e-05
118	0x00000000	0.0
119	0x36d0bb9e	6.2207246e-06
120	0xb8144be4	-3.535663e-05
121	0xacc62792	-5.6318917e-12
122	0xb7e9afba	-2.7857594e-05
123	0xb7f266aa	-2.8896455e-05
124	0x00000000	0.0
125	0x36ca1c85	6.0233892e-06
126	0xb814b663	-3.545581e-05
127	0xaccd6dff	-5.8386625e-12
128	0xb7eeeaac	-2.8481089e-05
129	0xb7f5ffaf	-2.9325338e-05
130	0x00000000	0.0
131	0x36df5c57	6.6566677e-06
132	0xb810c7cf	-3.451836e-05
133	0xacf15d70	-6.8600056e-12
134	0xb7ef4fcc	-2.8528179e-05
135	0xb7f1ef94	-2.8841001e-05
136	0x00000000	0.0
137	0x36ee81a7	7.1080462e-06
138	0xb814be07	-3.5462926e-05
139	0xacf6a973	-7.010553e-12
140	0xb7e7780d	-2.7593249e-05
141	0xb7f4bd8c	-2.9175331e-05
142	0x00000000	0.0
143	0x36d554d2	6.357769e-06
144	0xb814dda4	-3.549237e-05
145	0xacff588c	-7.2573666e-12
146	0xb7d2c072	-2.5123565e-05
147	0xb7edb905	-2.8338758e-05
148	0x00000000	0.0
149	0x369e17f4	4.7115554e-06
150	0xb819f6bf	-3.6707843e-05
151	0xacf48799	-6.9499515e-12
152	0xb7c56e5a	-2.3535616e-05
153	0xb7ef47a7	-2.8524386e-05
154	0x00000000	0.0
155	0x3661b844	3.363487e-06
156	0xb81a2e40	-3.6759535e-05
157	0xaceff804	-6.820324e-12
158	0xb7c8aa0d	-2.3921044e-05
159	0xb7f19b6b	-2.8801811e-05
160	0x00000000	0.0
161	0x3675cc31	3.66267e-06
162	0xb81c1ccc	-3.7220118e-05
163	0xacd3ab69	-6.016011e-12
164	0xb7c61e6e	-2.361761e-05
165	0xb7f4ed5f	-2.9197601e-05
166	0x00000000	0.0
167	0x366e662f	3.5524242e-06
168	0xb81c5858	-3.7275575e-05
169	0xacb5e14c	-5.1693424e-12
170	0xb7bd2e96	-2.2552249e-05
171	0xb7f295fa	-2.8918486e-05
172	0x00000000	0.0
173	0x36484813	2.9844275e-06
174	0xb820f5f8	-3.837605e-05
175	0xac9ac66b	-4.398972e-12
176	0xb7b1a962	-2.117892e-05
177	0xb7f53c3a	-2.9234321e-05
178	0x00000000	0.0
179	0x35ef66b1	1.7836775e-06
180	0xb8219786	-3.852651e-05
181	0xaca389f1	-4.648053e-12
182	0xb79a1620	-1.8368533e-05
183	0xb7ee8e81	-2.843817e-05
184	0x00000000	0.0
185	0x344389d3	1.821093e-07
186	0x3726b851	9.9372855e-06
187	0xad06c516	-7.66078e-12
188	0xb46007e1	-2.0864492e-07
189	0x36adb0f8	5.1764036e-06
190	0x00000000	0.0
191	0x36637d35	3.3898516e-06
192	0x37253ae1	9.848475e-06
193	0xacd13904	-5.9464673e-12
194	0x32d093c3	2.4281581e-08
195	0x36ae741b	5.1991206e-06
196	0x00000000	0.0
197	0x365834ea	3.2217308e-06
198	0x372421a1	9.782992e-06
199	0xacbc2f25	-5.3485155e-12
200	0x34b685a9	3.3997392e-07
201	0x36b1b2e1	5.2958353e-06
202	0x00000000	0.0
203	0x3648a87e	2.9900398e-06
204	0x37204842	9.553567e-06
205	0xacb59ce9	-5.16175e-12
206	0x34c3602b	3.6391552e-07
207	0x36ac9559	5.143386e-06
208	0x00000000	0.0
209	0x3644f3e8	2.9348248e-06
210	0x37200d3b	9.539824e-06
211	0xacbe2dc8	-5.4052075e-12
212	0x345d2585	2.0595878e-07
213	0x36aae404	5.0929393e-06
214	0x00000000	0.0
215	0x364ac7dd	3.0216681e-06
216	0x371e8e7a	9.450707e-06
217	0xacaf8233	-4.988254e-12
218	0x34f0e60f	4.4870873e-07
219	0x36acb393	5.1469046e-06
220	0x00000000	0.0
221	0x363df7d5	2.8307452e-06
222	0x371be285	9.291461e-06
223	0xaca0d749	-4.571375e-12
224	0x350852c9	5.0784416e-07
225	0x36aa03dd	5.0668446e-06
226	0x00000000	0.0
227	0x3637d49e	2.7392884e-06
228	0x371902a6	9.120127e-06
229	0xac9c63da	-4.4448724e-12
230	0x3526a719	6.208298e-07
231	0x36a78b7e	4.993227e-06
232	0x00000000	0.0
233	0x362fbfe1	2.618872e-06
234	0x3716c692	8.98693e-06
235	0xac805847	-3.6477796e-12
236	0x35503478	7.756239e-07
237	0x36a583a5	4.9327086e-06
238	0x00000000	0.0
239	0x362943a1	2.5222328e-06
240	0x3714cd04	8.869221e-06
241	0xac889b21	-3.8825753e-12
242	0x355cea37	8.2297214e-07
243	0x36a34550	4.8658476e-06
244	0x00000000	0.0
245	0x36257b95	2.465885e-06
246	0x3715f12c	8.937244e-06
247	0xab654ea8	-8.14663e-13
248	0x35389580	6.876289e-07
249	0x36a27662	4.841758e-06
250	0x00000000	0.0
251	0x3630dafe	2.6353514e-06
252	0x3711d709	8.69274e-06
253	0xaacbcdc2	-3.6202817e-13
254	0x3578b594	9.265143e-07
255	0x36a06fe6	4.7813983e-06

exp_avg_sq f4 [128, 186]
0	0x3597c72e	1.1308346e-06
1	0x34b98a20	3.4559434e-07
2	0x34246e3a	1.531379e-07
3	0x3355c577	4.977252e-08
4	0x00000000	0.0
5	0x32e8b44f	2.709035e-08
6	0x3598881b	1.1364494e-06
7	0x34ba7ba6	3.4735166e-07
8	0x34282410	1.5659339e-07
9	0x33567147	4.9928783e-08
10	0x00000000	0.0
11	0x32ea3767	2.726638e-08
12	0x3599ea91	1.1467656e-06
13	0x34b8e4bc	3.4439097e-07
14	0x342b602e	1.5960606e-07
15	0x3356d89c	5.0022763e-08
16	0x00000000	0.0
17	0x32eb6b50	2.74064e-08
18	0x359a7f88	1.1511011e-06
19	0x34b9b764	3.459237e-07
20	0x3430eb2a	1.647683e-07
21	0x33576e18	5.0158718e-08
22	0x00000000	0.0
23	0x32ebe5df	2.7462134e-08
24	0x359bda2d	1.1611897e-06
25	0x34b7fb16	3.4269095e-07
26	0x34385e83	1.7170719e-07
27	0x3357e469	5.0266326e-08
28	0x00000000	0.0
29	0x32eebc6f	2.7792536e-08
30	0x359d1e43	1.1706219e-06
31	0x34b69384	3.4007473e-07
32	0x343ba259	1.7474794e-07
33	0x3357fde0	5.0289486e-08
34	0x00000000	0.0
35	0x32f03985	2.7965834e-08
36	0x359f534a	1.1870663e-06
37	0x34b66b75	3.3978327e-07
38	0x343b4375	1.7440273e-07
39	0x3358b0fe	5.0452392e-08
40	0x00000000	0.0
41	0x32f2155f	2.8182226e-08
42	0x35a1b939	1.2049342e-06
43	0x34b78605	3.4183918e-07
44	0x3447d375	1.8610247e-07
45	0x3359619f	5.0613036e-08
46	0x00000000	0.0
47	0x32f42018	2.8419933e-08
48	0x35a3ac2b	1.2194554e-06
49	0x34b72b23	3.4117792e-07
50	0x3448653c	1.866328e-07
51	0x3359e9fa	5.073705e-08
52	0x00000000	0.0
53	0x32f71854	2.8765648e-08
54	0x35a7ccf2	1.2502117e-06
55	0x34b5cdd3	3.3863634e-07
56	0x34492e3b	1.8736402e-07
57	0x335a192f	5.0779985e-08
58	0x00000000	0.0
59	0x32f85c89	2.891308e-08
60	0x35a929be	1.260363e-06
61	0x34b0c8d1	3.2928668e-07
62	0x344644a9	1.8465165e-07
63	0x335aaebb	5.0915997e-08
64	0x00000000	0.0
65	0x32fa3a0f	2.9130232e-08
66	0x35aaab89	1.271591e-06
67	0x34af6750	3.267146e-07
68	0x3448ef2e	1.8713465e-07
69	0x335b2157	5.1020233e-08
70	0x00000000	0.0
71	0x32fb909b	2.9286005e-08
72	0x35acf764	1.2886999e-06
73	0x34b046f4	3.283418e-07
74	0x344bc1bc	1.8976328e-07
75	0x335baa04	5.114454e-08
76	0x00000000	0.0
77	0x32fddd41	2.9553691e-08
78	0x35ae01b6	1.2964508e-06
79	0x34afbb56	3.2732595e-07
80	0x3451b81e	1.9531623e-07
81	0x335bebe8	5.1204466e-08
82	0x00000000	0.0
83	0x32ff39f4	2.9712261e-08
84	0x35ae5b31	1.299055e-06
85	0x34b018db	3.280064e-07
86	0x345c2877	2.0503818e-07
87	0x335c8635	5.1344802e-08
88	0x00000000	0.0
89	0x33004099	2.9861074e-08
90	0x35ae1b61	1.2971979e-06
91	0x34b392fb	3.344829e-07
92	0x3466160d	2.1428441e-07
93	0x335d2305	5.1487422e-08
94	0x00000000	0.0
95	0x3300b72c	2.9968916e-08
96	0x35ae2fdd	1.297794e-06
97	0x34b3c724	3.3486242e-07
98	0x346c5dd4	2.2013347e-07
99	0x335d35ff	5.150468e-08
100	0x00000000	0.0
101	0x3300e513	3.0010664e-08
102	0x35adda97	1.2953122e-06
103	0x34b3a147	3.3458693e-07
104	0x3472c1c4	2.2608498e-07
105	0x335d44bb	5.1518082e-08
106	0x00000000	0.0
107	0x3301b123	3.0196258e-08
108	0x35acb8ef	1.2868821e-06
109	0x34b324cb	3.336812e-07
110	0x34795f25	2.3224545e-07
111	0x335debce	5.1670035e-08
112	0x00000000	0.0
113	0x3301ce3e	3.022273e-08
114	0x35ac2765	1.2826464e-06
115	0x34b2e65d	3.3322695e-07
116	0x34807e30	2.393367e-07
117	0x335e49de	5.1755585e-08
118	0x00000000	0.0
119	0x33023892	3.0319434e-08
120	0x35ad3dfd	1.2907545e-06
121	0x34b4295e	3.355771e-07
122	0x34836197	2.4471657e-07
123	0x335e9b34	5.182956e-08
124	0x00000000	0.0
125	0x33022865	3.0304722e-08
126	0x35ac6db9	1.2846932e-06
127	0x34c2451b	3.6185597e-07
128	0x3485e560	2.4940073e-07
129	0x335ef3ca	5.1910128e-08
130	0x00000000	0.0
131	0x330236ad	3.031771e-08
132	0x35abd1f7	1.2801601e-06
133	0x34c11a4d	3.5968188e-07
134	0x348780a4	2.5239308e-07
135	0x335f6606	5.2014023e-08
136	0x00000000	0.0
137	0x3301b7f3	3.0202454e-08
138	0x35ae8866	1.3003707e-06
139	0x34c0d567	3.5918058e-07
140	0x348901eb	2.5519634e-07
141	0x335fb7bb	5.2088335e-08
142	0x00000000	0.0
143	0x3301c11b	3.021078e-08
144	0x35ae48ba	1.2985176e-06
145	0x34c182ac	3.6044128e-07
146	0x34890f05	2.5529167e-07
147	0x336025cd	5.2188444e-08
148	0x00000000	0.0
149	0x330232b8	3.0314112e-08
150	0x35ad7e4f	1.2926265e-06
151	0x34c05d9b	3.5830894e-07
152	0x3489883f	2.561737e-07
153	0x3360b0eb	5.231497e-08
154	0x00000000	0.0
155	0x330288dc	3.0392457e-08
156	0x35ab19de	1.2748021e-06
157	0x34c121d2	3.597366e-07
158	0x348aa597	2.5824986e-07
159	0x3361210f	5.241696e-08
160	0x00000000	0.0
161	0x3302a6f7	3.0419837e-08
162	0x35aafb97	1.2739209e-06
163	0x34c0c35f	3.5904938e-07
164	0x348a1854	2.5722204e-07
165	0x3361282b	5.2423427e-08
166	0x00000000	0.0
167	0x33025f41	3.0354617e-08
168	0x35ad467a	1.2910016e-06
169	0x34c1098c	3.5955998e-07
170	0x34896d1b	2.5597623e-07
171	0x3361ca52	5.2570904e-08
172	0x00000000	0.0
173	0x33022c38	3.03082e-08
174	0x35ad47d4	1.2910409e-06
175	0x34c0f6a4	3.5942242e-07
176	0x3489421a	2.5566334e-07
177	0x3361c999	5.2570247e-08
178	0x00000000	0.0
179	0x33028873	3.0392084e-08
180	0x35ad41d8	1.2908667e-06
181	0x34c26621	3.6209624e-07
182	0x34895a6c	2.558403e-07
183	0x3362ceac	5.2807692e-08
184	0x00000000	0.0
185	0x3302e5d4	3.047701e-08
186	0x339df44e	7.355321e-08
187	0x35a10084	1.1995585e-06
188	0x3324919a	3.831665e-08
189	0x31ab98ae	4.9941127e-09
190	0x00000000	0.0
191	0x30fac034	1.8244521e-09
192	0x33a07d11	7.47333e-08
193	0x35a22c65	1.2082861e-06
194	0x33274e83	3.8954123e-08
195	0x31ad25eb	5.0392734e-09
196	0x00000000	0.0
197	0x30fd6bae	1.8438777e-09
198	0x33a264fa	7.5620804e-08
199	0x35a238a8	1.208643e-06
200	0x3329040d	3.9352063e-08
201	0x31adf87f	5.0632134e-09
202	0x00000000	0.0
203	0x30feedf7	1.8548566e-09
204	0x33a4295d	7.644369e-08
205	0x35a34e13	1.2167169e-06
206	0x332cb684	4.0212868e-08
207	0x31ae76df	5.0775806e-09
208	0x00000000	0.0
209	0x30ff649c	1.8582287e-09
210	0x33a8e27a	7.8643055e-08
211	0x35a56752	1.2323528e-06
212	0x3334e6c1	4.2119385e-08
213	0x31aebd6c	5.0856013e-09
214	0x00000000	0.0
215	0x3100cf4b	1.8744284e-09
216	0x33aaccc1	7.9534864e-08
217	0x35a76f00	1.2474775e-06
218	0x3337053e	4.2612776e-08
219	0x31ae81dd	5.0788302e-09
220	0x00000000	0.0
221	0x3101eaaf	1.8905373e-09
222	0x33acb098	8.0414964e-08
223	0x35a70b6f	1.2445797e-06
224	0x333723e3	4.2640647e-08
225	0x31ae766d	5.07753e-09
226	0x00000000	0.0
227	0x31028e7f	1.899849e-09
228	0x33b4ef4a	8.4254296e-08
229	0x35a85124	1.254059e-06
230	0x3349aa9c	4.6954128e-08
231	0x31aea6e4	5.0830398e-09
232	0x00000000	0.0
233	0x31033652	1.9093886e-09
234	0x33b79d0a	8.550167e-08
235	0x35a4918f	1.2261315e-06
236	0x3343deb5	4.5604526e-08
237	0x31afa733	5.1121787e-09
238	0x00000000	0.0
239	0x31049c64	1.9297426e-09
240	0x33bb4437	8.720274e-08
241	0x35a4ded2	1.2283801e-06
242	0x3341b7af	4.5103373e-08
243	0x31b01fd8	5.1258944e-09
244	0x00000000	0.0
245	0x31050ae7	1.9360245e-09
246	0x33bd96f8	8.8284594e-08
247	0x35a71b41	1.2450402e-06
248	0x33412af6	4.4975387e-08
249	0x31b0138d	5.124497e-09
250	0x00000000	0.0
251	0x31060240	1.9500845e-09
252	0x33c0981c	8.968365e-08
253	0x35a56dab	1.2325376e-06
254	0x333e88d5	4.436227e-08
255	0x31b0d21f	5.146162e-09

exp_avg f4 [128]
0	0xb856c8bd	-5.1208528e-05
1	0xb5410439	-7.190425e-07
2	0xb87da706	-6.0475453e-05
3	0xb99940f9	-0.00029230842
4	0xb89219f1	-6.9666545e-05
5	0xb889e358	-6.575015e-05
6	0xb79efc73	-1.8952624e-05
7	0xb6ef7389	-7.136205e-06
8	0x38aad680	8.1461854e-05
9	0x38e32a26	0.00010832054
10	0x39119d54	0.00013886887
11	0xb80ffc00	-3.432855e-05
12	0xb7e951b2	-2.7813807e-05
13	0xb8f45d38	-0.0001165219
14	0x38264885	3.9645023e-05
15	0xb704212c	-7.8755365e-06
16	0x386fd69b	5.7181907e-05
17	0x3817f334	3.6227706e-05
18	0xb6ea70d9	-6.9868806e-06
19	0x37093fe8	8.180716e-06
20	0x36c56682	5.882991e-06
21	0xb7dd03d4	-2.6347036e-05
22	0x3902b04f	0.00012463446
23	0xb7a88f46	-2.0093878e-05
24	0x38d22091	0.00010019646
25	0x35a83dac	1.2534924e-06
26	0x38eeae81	0.00011381228
27	0xb7930fab	-1.7531062e-05
28	0xb8bcddc6	-9.005847e-05
29	0x387a973e	5.97455e-05
30	0x3889c46d	6.569256e-05
31	0xb81abf5c	-3.689468e-05
32	0x376ec2bb	1.4231245e-05
33	0x374b66b5	1.2123656e-05
34	0x37e458e5	2.7221113e-05
35	0xb6881c86	-4.0564364e-06
36	0xb8a08153	-7.653483e-05
37	0x391bb01c	0.00014847558
38	0xb8752c84	-5.845401e-05
39	0x38160a6c	3.5772493e-05
40	0x38e86550	0.00011081493
41	0xb876b9c6	-5.8823985e-05
42	0x3786d093	1.607117e-05
43	0xb7e0aeb5	-2.6784235e-05
44	0xb9444b71	-0.0001872012
45	0xb851ca53	-5.0017912e-05
46	0xb87cc5c3	-6.0265662e-05
47	0xb8c2e657	-9.293545e-05
48	0xb87a342e	-5.965324e-05
49	0xb76f550f	-1.4265314e-05
50	0x38e5766c	0.00010941629
51	0xb6bacb37	-5.5668893e-06
52	0x3916f5ef	0.00014396732
53	0x37bd0b38	2.253578e-05
54	0x383e45a5	4.536439e-05
55	0xb90c5fb0	-0.00013387087
56	0x38bd304c	9.021218e-05
57	0x330d6ce6	3.2928163e-08
58	0x374dfac5	1.2277339e-05
59	0xb795c1ac	-1.785237e-05
60	0x3747110f	1.1865296e-05
61	0xb803f6b7	-3.1462605e-05
62	0xb8ab1481	-8.1577346e-05
63	0x3707fc56	8.105379e-06
64	0xb766163f	-1.3714248e-05
65	0xb8188317	-3.636171e-05
66	0xb8038bb7	-3.1362953e-05
67	0x39368da6	0.0001740964
68	0x36ab0380	5.0966046e-06
69	0x3837021f	4.3632575e-05
70	0xb8b9df8d	-8.863127e-05
71	0x38059339	3.1846783e-05
72	0x3826738d	3.96851e-05
73	0xb88337c8	-6.256957e-05
74	0xb837f73d	-4.386086e-05
75	0xb7758e60	-1.4636287e-05
76	0x388be5aa	6.670815e-05
77	0xb8ccd029	-9.766251e-05
78	0x3852ae64	5.0230316e-05
79	0xb8249c68	-3.924631e-05
80	0x37af0859	2.0865513e-05
81	0x36821942	3.8772423e-06
82	0x37b5b406	2.1660711e-05
83	0xb85901d0	-5.173852e-05
84	0xb93ba825	-0.00017896348
85	0xb829545a	-4.03713e-05
86	0xb7a0661e	-1.9121038e-05
87	0x382cc0ea	4.118766e-05
88	0x38710ebe	5.7472607e-05
89	0xb86fd5b3	-5.7181063e-05
90	0xb790595b	-1.7207747e-05
91	0x3844c086	4.6909343e-05
92	0xb89bd073	-7.429803e-05
93	0x36119832	2.1695273e-06
94	0xb625be8f	-2.4697836e-06
95	0x38c914ae	9.588279e-05
96	0xb81bd639	-3.715439e-05
97	0x388a6c9b	6.600582e-05
98	0xb875b01f	-5.8576577e-05
99	0xb780704b	-1.531108e-05
100	0x37e0d6ce	2.6802907e-05
101	0xb9219f9f	-0.0001541362
102	0xb8833769	-6.256888e-05
103	0xb65d8912	-3.3011352e-06
104	0x365f852d	3.3307108e-06
105	0xb7702fe4	-1.4316265e-05
106	0xb764a868	-1.3629069e-05
107	0x37acc1a0	2.0594161e-05
108	0x37bc6b21	2.2461232e-05
109	0x3934d7fb	0.00017246597
110	0x36a10fda	4.8000193e-06
111	0x3641ff61	2.8907891e-06
112	0xb79eb208	-1.891797e-05
113	0xb865c68d	-5.478277e-05
114	0x3687727e	4.036642e-06
115	0xb78fc626	-1.7139198e-05
116	0x38110193	3.457216e-05
117	0xb78bd5e4	-1.6669692e-05
118	0x3884f0f0	6.3391286e-05
119	0x37434f1a	1.1641323e-05
120	0x37257a51	9.863245e-06
121	0x36f1545f	7.192182e-06
122	0xb76b6700	-1.4031073e-05
123	0xb7e50281	-2.7300093e-05
124	0xb8e01e1a	-0.00010686759
125	0xb7aabf9d	-2.0354806e-05
126	0xb818cee7	-3.6432317e-05
127	0xb82e1be6	-4.1510815e-05
