results/run1/MazeBrain/MazeBrain-80311.pt (torch, 999685 bytes, 39 tensors)

network_body._body_endoder.seq_layers.0.weight f4 [128, 186]
0	0x3e5101e1	0.20410873
1	0xbb12a06b	-0.0022373449
2	0x3d7a4330	0.06109923
3	0xbb89b27b	-0.0042021847
4	0xbe06751c	-0.13130611
5	0xbd05802a	-0.03259293
6	0x3d239e83	0.03994609
7	0xbb7b4cb6	-0.0038345284
8	0x3ccb8d6e	0.024847712
9	0xbdc6c79f	-0.097060435
10	0xbcc7eca1	-0.024404826
11	0xbd30db73	-0.043178033
12	0x3c68d95a	0.014211977
13	0x3e092492	0.13392857
14	0x3db5a31a	0.08869
15	0xbc988992	-0.018620286
16	0xbdefa127	-0.11700659
17	0x3d85565f	0.065106146
18	0xbd511210	-0.051042616
19	0xbb9c77af	-0.0047750096
20	0x3d606af8	0.054789513
21	0x3d93ffda	0.07226534
22	0x3cb6fb5e	0.022336658
23	0x3defdd59	0.117121406
24	0xbd4148d2	-0.047188587
25	0x3d512996	0.05106505
26	0xbdb60a39	-0.088886686
27	0x3d98bbaf	0.07457673
28	0xbdc8ce0b	-0.098049246
29	0x3d363bb4	0.04449053
30	0xbca8aa6e	-0.02058908
31	0xbe03c8b5	-0.12869532
32	0x3daeb44e	0.08530484
33	0xbda1ae7d	-0.07894609
34	0xbd3f2959	-0.04667029
35	0x3d6dafeb	0.058029097
36	0xbbe26dea	-0.0069100754
37	0x3d56774f	0.052359875
38	0xbe2d3e8e	-0.16918394
39	0xbcb5201a	-0.022110034
40	0x3dc05c1e	0.0939257
41	0xbdc3c0b7	-0.09558242
42	0x3a80e70f	0.0009834486
43	0x3d4bf532	0.049794383
44	0x3c27be1e	0.010238199
45	0xbdc88de7	-0.09792691
46	0xbd4e02f9	-0.050295804
47	0x3d82d226	0.06387739
48	0x3c6da176	0.014503827
49	0x3caaba6d	0.020840848
50	0xbe1ed1ac	-0.15509671
51	0x3d9316ab	0.07182058
52	0xbe15281b	-0.1456608
53	0xbcedd20a	-0.029030818
54	0xbcedac41	-0.029012801
55	0xbbe24d52	-0.00690619
56	0x3c809b04	0.015698917
57	0x3d1401a5	0.03613438
58	0xbbb9e8b3	-0.005673492
59	0x3e2814b1	0.16414143
60	0xbbed7fb7	-0.007247891
61	0x3d19e880	0.037575245
62	0xbb79f704	-0.0038141618
63	0x3db09f49	0.08624131
64	0xbc97b936	-0.018520933
65	0x3e130ee9	0.14361157
66	0x3d99052d	0.0747169
67	0x3dde52f0	0.10855663
68	0xbd5f73a5	-0.054553647
69	0x3cf37147	0.0297171
70	0xbd540d94	-0.05177076
71	0xbe347c42	-0.17625526
72	0x3d516d01	0.051129345
73	0xbc6161ea	-0.013756255
74	0xbde6a126	-0.112612054
75	0xbd09d095	-0.033646185
76	0x3cc2e228	0.02378948
77	0xbd9b38d0	-0.075791955
78	0x3dbcd669	0.09220583
79	0x3d88d63b	0.06681486
80	0xbd9e6899	-0.07734794
81	0x3ba9d0dd	0.005182369
82	0xbca2f178	-0.019890532
83	0x3ce0e3ea	0.027452428
84	0x3d2837d2	0.04106886
85	0x3d7fa551	0.062413517
86	0x3c80fa16	0.01574425
87	0xbdc11ecd	-0.09429703
88	0x3d6f87f4	0.058479264
89	0xbdf43128	-0.11923438
90	0x3d1bd8d4	0.03804858
91	0x3d09eac0	0.03367114
92	0xbdc28d1c	-0.09499571
93	0xbc8d0903	-0.017216211
94	0xbcbd52c8	-0.023110762
95	0x3aec3ac9	0.001802289
96	0xbdaff6de	-0.08592008
97	0xbe49f56c	-0.19722527
98	0xbd2c3144	-0.04203917
99	0xbd81c29c	-0.06335947
100	0xbdc76841	-0.09736682
101	0xbd5837a3	-0.052787434
102	0x3d79f2a4	0.061022416
103	0x3de63e6a	0.11242373
104	0xbc29eaf9	-0.010370963
105	0x3d1f8136	0.038941585
106	0xbe2b3277	-0.1671847
107	0xbde505f1	-0.11182774
108	0x3d03356e	0.032033376
109	0x3d89bdef	0.0672568
110	0x3cf59f56	0.029983204
111	0x3d14d408	0.03633502
112	0xbd4c3481	-0.04985476
113	0x3dc9eff4	0.098602206
114	0x3ae8efca	0.0017771658
115	0xbe321a42	-0.17392829
116	0xbd73240a	-0.05936054
117	0x3c9cf70f	0.019160775
118	0xbd8744ef	-0.06604945
119	0x3e273bd0	0.1633141
120	0x3cc58bea	0.024114568
121	0xbc988f01	-0.018622877
122	0x3d8d2950	0.06892645
123	0xbd58069d	-0.052740682
124	0x3d542e1d	0.05180179
125	0xbc28de39	-0.010306888
126	0xbd3480b9	-0.044068072
127	0xbd8b92cf	-0.06815111
128	0x3dadebf7	0.08492272
129	0x3d8cbdac	0.068721145
130	0x3c6ca0f8	0.014442675
131	0xbd08c7ed	-0.03339379
132	0xbd031af7	-0.032008138
133	0xbd77f50b	-0.060536426
134	0xbdcec911	-0.10096944
135	0x3d88415d	0.06653092
136	0x3d04d757	0.032431927
137	0x3d47f7c7	0.048820283
138	0x3d48b69a	0.049002267
139	0x3c192d79	0.00934922
140	0xbdf9f7b2	-0.12205447
141	0xbda5c3cf	-0.08093988
142	0xbe027dcc	-0.127433
143	0xbd5adc68	-0.053432852
144	0xbdb46b67	-0.08809548
145	0xbb780014	-0.0037841843
146	0x3e13687c	0.14395326
147	0x3e27056b	0.1631066
148	0x3dc66633	0.09687462
149	0x3dfe7dff	0.124263756
150	0xbdab5a29	-0.08366806
151	0x3d9eae4d	0.07748089
152	0x3b9cc76c	0.004784515
153	0x3dcf50c2	0.10122825
154	0x3d8d6771	0.069044955
155	0xbd360704	-0.044440284
156	0x3d5969a9	0.05307928
157	0xbc48d4fd	-0.012257812
158	0x3d71d5e4	0.059041873
159	0xbc9022e9	-0.017594771
160	0xbda20ab2	-0.07912196
161	0x3c81d91b	0.015850594
162	0xbbc08086	-0.005874696
163	0x3d170663	0.036871325
164	0xbc172078	-0.00922405
165	0x3d88ed9a	0.06685944
166	0xbe2ae626	-0.16689357
167	0xbd2d8ed4	-0.04237254
168	0x3d797fa1	0.060912732
169	0xbd43e3f6	-0.047824822
170	0x3cf94f81	0.030433418
171	0xbd23aefe	-0.039961807
172	0x3db6fa12	0.08934416
173	0xbe2a39f5	-0.16623671
174	0x3b377e99	0.0027999042
175	0x3d06c7e1	0.032905463
176	0xbd4b19a9	-0.04958502
177	0x3c4e928f	0.0126081845
178	0x3e2a2467	0.16615449
179	0x3dfdfb86	0.1240149
180	0xbd20ba8f	-0.039240416
181	0x3c89ef47	0.01683773
182	0x3d566eca	0.05235175
183	0xbb85847c	-0.0040746313
184	0xbc653e8e	-0.013991965
185	0x3e04fba0	0.12986612
186	0xbd501f49	-0.050811086
187	0xbae3804c	-0.0017356961
188	0x39afcd43	0.00033531533
189	0xbd657b58	-0.056025833
190	0x3d877043	0.06613209
191	0xbe003d67	-0.12523423
192	0x3c8483b6	0.016176086
193	0x3e052885	0.13003738
194	0x3e213fc3	0.1574698
195	0x3d63713b	0.055527907
196	0x3c08acc4	0.008341972
197	0xbc84e4de	-0.016222414
198	0x3b3dd76f	0.002896752
199	0xbe0a1936	-0.1348618
200	0xbd9b6299	-0.075871654
201	0x3d024895	0.0318075
202	0x3de7a1d5	0.11310164
203	0xbcafda2e	-0.02146634
204	0xbd6e39fb	-0.058160763
205	0x3d481c3a	0.048855044
206	0xbde68718	-0.11256236
207	0xbd88a513	-0.066721104
208	0xbd3f541f	-0.046711084
209	0x3d9509ed	0.07277284
210	0x3e035a71	0.1282747
211	0xbd6fb9b7	-0.05852672
212	0x3dad1287	0.084507994
213	0x3dbc9a0e	0.09209071
214	0x3d26de43	0.04073931
215	0xbd0c10eb	-0.03419582
216	0xbdbc6d91	-0.09200586
217	0x3cf7c596	0.030245584
218	0xbd3193a0	-0.043353677
219	0xbe1e6888	-0.15469563
220	0xbd7e36ec	-0.062064096
221	0xbdb7f486	-0.08982186
222	0x3c362055	0.011116107
223	0x3e038288	0.12842762
224	0x3bb1707b	0.00541502
225	0xbe0af859	-0.135713
226	0x3dd1de49	0.10247476
227	0x3dc75626	0.097332284
228	0xbb674f32	-0.0035295007
229	0x3ce6a683	0.02815557
230	0x3d1b78b6	0.037956916
231	0x3dc9aff6	0.09848015
232	0x3dedfda9	0.116206475
233	0xbd8eb54c	-0.069681734
234	0xbd8f6997	-0.070025615
235	0x3ceef4d9	0.029169487
236	0xbd918541	-0.07105494
237	0x3d72a02a	0.059234776
238	0x3e22f265	0.15912779
239	0xbd5f3013	-0.054489207
240	0x3d658c95	0.056042273
241	0xbcf9f5f0	-0.03051278
242	0xbcb20818	-0.021732375
243	0xbd83c18c	-0.064334005
244	0x3d099983	0.033593666
245	0xbc9bc265	-0.019013593
246	0x3d7b8df4	0.061414674
247	0xbc49fdf2	-0.012328612
248	0x3cd43c5e	0.025907692
249	0x3d8a5f25	0.06756429
250	0x3da73c9b	0.081658565
251	0x3c57f878	0.013181798
252	0xbd00924f	-0.03138953
253	0xbd9a8de4	-0.07546595
254	0xbd973523	-0.07383182
255	0x3e1440ee	0.14477894

network_body._body_endoder.seq_layers.0.bias f4 [128]
0	0xbb08a6b1	-0.002085131
1	0xbbfcdc78	-0.0077167116
2	0x3bbd95c5	0.005785676
3	0x3b2eb116	0.0026655844
4	0xbc03cbc4	-0.008044187
5	0xb9def795	-0.00042527603
6	0x3b802914	0.003911147
7	0x3bcb2d80	0.0062004924
8	0xbbf09698	-0.007342171
9	0xbaae1f34	-0.0013284446
10	0xbbbf36c5	-0.0058353865
11	0x3b4d6564	0.003134095
12	0xbbcc8c78	-0.006242331
13	0xba7ad630	-0.00095686596
14	0xbab1d0ae	-0.001356622
15	0xbb5de660	-0.0033859238
16	0x37a61663	1.9799167e-05
17	0xbba9dc20	-0.0051837116
18	0xbac8e27a	-0.0015326284
19	0x3b5d5660	0.0033773407
20	0xbbde07bd	-0.006775825
21	0xbbdc7d37	-0.006728794
22	0x3b7dd9b7	0.0038734504
23	0xba73f697	-0.0009306459
24	0x3bca3c4e	0.0061717397
25	0x3a5f6a7b	0.0008522642
26	0xbad67145	-0.0016360661
27	0xbb1c90c5	-0.002389
28	0x3b5c147d	0.0033581548
29	0x3c22b797	0.009931467
30	0x3c20472f	0.0097825965
31	0x3bcdadd9	0.006276828
32	0x3b5efa50	0.003402371
33	0xbc08ad64	-0.008342121
34	0xb9ce974c	-0.00039404107
35	0x3ae03e25	0.0017108364
36	0x3bf6bac7	0.00752959
37	0x3c0f5e64	0.008750532
38	0x3b81a094	0.00395591
39	0xbb78b296	-0.0037948242
40	0x3af85589	0.001894639
41	0xbb27bcc6	-0.0025594695
42	0xbbde061d	-0.006775631
43	0xbbdb995d	-0.006701632
44	0xbab6243b	-0.0013896296
45	0x3b7ca69b	0.0038551453
46	0x3abc9cd1	0.0014389997
47	0xb9e5ced5	-0.00043832386
48	0xbaa1c6c6	-0.0012342564
49	0x3a60765d	0.00085625594
50	0xbbb27024	-0.005445497
51	0xbb873836	-0.004126574
52	0x3bc13cab	0.0058971248
53	0xbb4a4f54	-0.0030870037
54	0x3b16ce49	0.002301114
55	0x3c49d5f5	0.012319078
56	0xbb94b1a4	-0.004537778
57	0xba9b8987	-0.0011866548
58	0x3aa029ca	0.0012219485
59	0xba9d2720	-0.001198981
60	0xbbcb0a8b	-0.006196325
61	0xbbfc269a	-0.0076950314
62	0x3b7c5e48	0.0038508344
63	0xb9378df4	-0.00017505122
64	0x3b12bc1e	0.0022389959
65	0xbb92cc80	-0.0044799447
66	0x3ab71f5c	0.0013971138
67	0x3b6cf2a8	0.0036155377
68	0xbba5b518	-0.0050569884
69	0x3aa66e4e	0.0012697668
70	0xbb3d0345	-0.002884106
71	0xbc13137b	-0.0089768125
72	0xbb123d06	-0.0022314205
73	0x3b2a7fe0	0.002601616
74	0xbbaadd11	-0.0052143415
75	0xbc25df7e	-0.0101240855
76	0xbb9d5709	-0.004801635
77	0xbb6a51bc	-0.0035754284
78	0xbb02373a	-0.0019869343
79	0x3b945c4a	0.0045276033
80	0xbbfb7c18	-0.0076747052
81	0x3c2db8a6	0.010603106
82	0x3b59549f	0.003316201
83	0x3b0d79a6	0.00215874
84	0x3c1224ce	0.008919908
85	0xbbb99777	-0.005663808
86	0x3bc522ab	0.0060160956
87	0xbbc9b12c	-0.0061551537
88	0xbbd5678f	-0.0065125893
89	0xbba7e9db	-0.0051243133
90	0x3b9e3096	0.0048275692
91	0xbad7a113	-0.0016451202
92	0xbb134194	-0.0022469508
93	0x3b46947e	0.003030091
94	0xbbaa013d	-0.005188136
95	0xbc135de8	-0.008994557
96	0xbb01673e	-0.0019745375
97	0x3abd7877	0.0014455457
98	0x3b8afe90	0.004241772
99	0xbb075253	-0.0020648434
100	0xbbe5705b	-0.007001919
101	0xbbecb533	-0.007223749
102	0x3b9664a9	0.0045896363
103	0xbbef3506	-0.007300022
104	0xbb1259ec	-0.002233143
105	0xbc05e1a6	-0.008171475
106	0xbadc2189	-0.0016794662
107	0x3bb7b15a	0.0056058588
108	0x3c1dc896	0.009630343
109	0x3b918f03	0.004442097
110	0x3a287930	0.000642675
111	0x3bc855b8	0.006113734
112	0x3b5d7d38	0.003379656
113	0xba9f09da	-0.0012133673
114	0xb7f9cf50	-2.977965e-05
115	0x3af54db3	0.0018715173
116	0xba2a8b4f	-0.0006505744
117	0xbb3cb6bc	-0.0028795442
118	0x3c104f8f	0.008808031
119	0x3b22d86a	0.002484823
120	0xbb1bbe17	-0.0023764425
121	0xbb8789b1	-0.004136287
122	0xba0ba033	-0.0005326301
123	0x3b805916	0.00391687
124	0x3bee70e9	0.0072766435
125	0x3bc219e5	0.005923497
126	0x3bfb1442	0.007662327
127	0x39e00f99	0.0004273623

network_body._body_endoder.seq_layers.2.weight f4 [128, 128]
0	0x3d2f2971	0.04276413
1	0x3daa228e	0.08307372
2	0x3dee652e	0.11640392
3	0xbd7cd0ae	-0.06172245
4	0xbe731368	-0.23737872
5	0x3d3cab5d	0.046061862
6	0xbd08c146	-0.033387445
7	0xbdef4927	-0.116838746
8	0xbb940825	-0.0045175725
9	0xbb5821b7	-0.003297908
10	0xbd80953a	-0.06278463
11	0xbdd1b8e6	-0.10240345
12	0xbd30aa53	-0.043131184
13	0x3dba7c89	0.091057844
14	0xbd8aace2	-0.06771256
15	0xbb0d4cab	-0.002156059
16	0x3e88aa9b	0.26692662
17	0x3e15929e	0.14606711
18	0x3d2afae6	0.04174318
19	0x3c9038cc	0.017605208
20	0x3e20f791	0.15719439
21	0xbe5e6a7b	-0.21720307
22	0xbd599ff6	-0.053131066
23	0xbb016da7	-0.0019749196
24	0xbd3278ad	-0.043572117
25	0x3ca76b07	0.020436777
26	0xbd982f0d	-0.07430849
27	0x3dfb3d0a	0.12267502
28	0x3df552ab	0.11978658
29	0x3dfb9d7e	0.122858986
30	0xbc788f28	-0.01517085
31	0xbc8ed32b	-0.017434677
32	0x3dc4a139	0.09601063
33	0xb9e9add0	-0.00044570724
34	0xbd9e8d3b	-0.07741781
35	0x3d319929	0.043358956
36	0xbd5d9c85	-0.054104347
37	0x3d8e80d7	0.06958168
38	0xbdf1d895	-0.11808888
39	0x3e0c6282	0.13709453
40	0xbcb9b3e0	-0.022668779
41	0x3dea4d97	0.1144058
42	0x3d38159e	0.04494249
43	0xbdbb8169	-0.091555424
44	0x3d5d6c17	0.05405816
45	0xbd926f75	-0.07150165
46	0x3d769d1b	0.06020842
47	0xbc43c7d8	-0.011949502
48	0x3ba4a201	0.005024195
49	0xbb4b169b	-0.0030988816
50	0x3cf6f78c	0.030147336
51	0x3cb5ced1	0.022193344
52	0x3e0ee184	0.13953215
53	0x3d22a14d	0.03970461
54	0xbd31ead6	-0.043436848
55	0xbd020234	-0.031740382
56	0x3cfbb52f	0.030726044
57	0x3d3ae6bf	0.045630213
58	0xbddbeeb0	-0.107388854
59	0xbcc2a5a9	-0.023760634
60	0xbde1f1ba	-0.11032434
61	0x3ce1d0ff	0.027565477
62	0xbcc44358	-0.023957893
63	0x3d5e44d9	0.054264877
64	0xbddcb901	-0.10777474
65	0x3d98dd10	0.07464039
66	0xbd17a92e	-0.037026577
67	0xbdb7e74d	-0.08979664
68	0xbc08fb7b	-0.008360739
69	0xbd82784c	-0.06370601
70	0xbd975887	-0.07389932
71	0x3dc5a0f7	0.09649842
72	0x3ce72a7b	0.028218498
73	0x3d4a9838	0.049461573
74	0x3da91c20	0.082573175
75	0x3df85dac	0.121272415
76	0x3e198f06	0.14995965
77	0xbc84ab78	-0.016195044
78	0x3d64ce0b	0.05586056
79	0x3ccc0540	0.024904847
80	0xbda8c89e	-0.0824139
81	0xbdf770d4	-0.12082067
82	0xbd11a7df	-0.035560485
83	0x3d6fe4be	0.058567755
84	0x3d40b11c	0.047043905
85	0xbe16d9c1	-0.14731504
86	0xbdcc772f	-0.0998367
87	0x3e008c69	0.12553562
88	0xbc8c6872	-0.017139647
89	0xbd54fdaf	-0.051999744
90	0x3da665fd	0.081249215
91	0x3db2d5d8	0.08732194
92	0xbc41d32f	-0.011830135
93	0xbd98cc1c	-0.07460806
94	0xbcea9df8	-0.028639778
95	0x3ce4ab46	0.0279137
96	0x3d964c86	0.073388144
97	0xbdc46f61	-0.09591556
98	0xbbc5ed95	-0.006040285
99	0x3c94616e	0.018112864
100	0xbe0589b1	-0.13040806
101	0x3db512d4	0.08841482
102	0x3dcec917	0.100969486
103	0xbdc2995b	-0.095019065
104	0xbdcf451a	-0.10120602
105	0x3d81a941	0.06331111
106	0xbccdf348	-0.02514042
107	0x3e0ac19d	0.1355042
108	0xbdd4f3a8	-0.10398036
109	0x3e41abad	0.18913145
110	0xbd3dab6a	-0.04630605
111	0xbdfeec20	-0.12447381
112	0xbddb97ed	-0.10722337
113	0xbd0f06ab	-0.03491847
114	0xbdc08001	-0.09399415
115	0xbd8c4d24	-0.06850651
116	0xbdcd9d4b	-0.10039767
117	0x3d32f03c	0.043686137
118	0xbcbb0141	-0.022827746
119	0x3c7533a6	0.014965927
120	0x3c6b9e2f	0.014380976
121	0x3a4d1039	0.0007822547
122	0xbe01f791	-0.12692095
123	0xbd97d63d	-0.074139096
124	0x3b653220	0.0034972504
125	0x3d466c80	0.048443317
126	0x3e132059	0.14367808
127	0xbc9032b2	-0.017602298
128	0xbe431685	-0.1905156
129	0xbc7ff76d	-0.015622956
130	0x3942c3e1	0.00018574252
131	0x3e101fba	0.14074603
132	0x3c161854	0.009161074
133	0xbd044985	-0.032296676
134	0x3dd35290	0.10318482
135	0xbcde6454	-0.02714745
136	0x3d84dcd0	0.06487429
137	0x3dd333dc	0.10312626
138	0xbd15eb4c	-0.03660135
139	0x3e0e15da	0.13875523
140	0x3dd7de4d	0.105404474
141	0x3b4dc724	0.0031399215
142	0x3d73434b	0.059390347
143	0xbe07ac05	-0.13249214
144	0xbd7c5e49	-0.061613355
145	0x3e1e9c35	0.15489276
146	0xbd99bffd	-0.07507322
147	0x3e35a5ed	0.17739077
148	0xbd727183	-0.059190284
149	0x3dce593f	0.10075616
150	0x3d6cfc26	0.057857655
151	0xbcec7abb	-0.028867116
152	0xb9d87ecd	-0.00041293204
153	0x3dc3a494	0.09552875
154	0xbcb20d2c	-0.021734796
155	0xbce11eb6	-0.027480464
156	0x3d1c9759	0.038230274
157	0xbd28b1ac	-0.041185066
158	0x3dd9e9d4	0.10640302
159	0x3d658504	0.056035057
160	0x3d7b188f	0.061302718
161	0xbc03f90a	-0.008054981
162	0xbd94fa95	-0.07274357
163	0xbe52ff3a	-0.20605174
164	0x3dd3bfe8	0.103393376
165	0xbd2e47ca	-0.042548932
166	0x3db456a7	0.0880559
167	0xbe814b8b	-0.25252947
168	0xbe10dd33	-0.14146881
169	0xbd86e1d9	-0.06586046
170	0xbcdf30d0	-0.027244955
171	0xbe1302ce	-0.14356539
172	0xbbb607a6	-0.005555111
173	0xbd91a3a9	-0.07111294
174	0x3c37fae9	0.011229255
175	0xbd8ea759	-0.06965513
176	0xbdca9818	-0.09892291
177	0xbdd31e8e	-0.10308562
178	0x3e0a5f75	0.13512976
179	0x3dc5295b	0.096270286
180	0x3dc64fbd	0.096831776
181	0x3b017743	0.0019754923
182	0xbd9e3968	-0.07725793
183	0x3e5fefaf	0.21868776
184	0x3e4aca8d	0.1980383
185	0xbd48f6ec	-0.049063608
186	0x3daf2cad	0.08553443
187	0x3da9f214	0.08298126
188	0xbb8d83b8	-0.0043186806
189	0xbce12264	-0.027482219
190	0xbbc9dc35	-0.006160284
191	0x3e5baaaf	0.2145183
192	0x3dbe7503	0.09299662
193	0xbdabd23b	-0.08389708
194	0xbc242fac	-0.0100211315
195	0xbd06d08a	-0.032913722
196	0xbcfa71ee	-0.030571904
197	0xbd349557	-0.044087734
198	0xbd846c81	-0.06466008
199	0x3c428762	0.011873098
200	0x3df37c0d	0.11888895
201	0x3a024e68	0.000497079
202	0xbc9893c3	-0.018625146
203	0x3dbb178c	0.091353506
204	0xbda51acf	-0.08061754
205	0x3dfa483f	0.12220811
206	0xbd3ddbcb	-0.04635219
207	0x3c526833	0.012842226
208	0x3d311548	0.043233186
209	0x3d778891	0.060432974
210	0xbdd423dc	-0.10358402
211	0x3d4da1ad	0.050203014
212	0x3d2b5ce7	0.041836645
213	0x3daf44de	0.08558057
214	0x3d90b5f2	0.07065953
215	0x3d987ae9	0.07445318
216	0xbcef237c	-0.029191725
217	0xbd9d4fc6	-0.07681231
218	0xbb93de4a	-0.004512583
219	0x3e1364cc	0.1439392
220	0x3c0f8bc6	0.008761352
221	0x3d0484a2	0.03235305
222	0x3c96b0ba	0.018394817
223	0x3d674a89	0.056467567
224	0x3df743ae	0.12073456
225	0xbe90ecf6	-0.28305787
226	0xbc558f86	-0.013034707
227	0x3dc7247a	0.09723754
228	0xbde4691c	-0.111528605
229	0xb9bb4636	-0.0003571973
230	0xbdfa1be9	-0.12212355
231	0xbddaccdd	-0.10683606
232	0x3e3e3768	0.18575823
233	0xbdd03fcc	-0.10168418
234	0xbd18e0eb	-0.037323873
235	0xbd110c2c	-0.035412
236	0xbdd82917	-0.10554712
237	0x3e3053f8	0.17219532
238	0xbc18c675	-0.00932466
239	0x3dd16451	0.10224212
240	0xbe13da57	-0.14438759
241	0xbd8f8330	-0.07007444
242	0x3ce9293f	0.02846205
243	0x3d9bea0a	0.07612999
244	0xbd132c66	-0.035931014
245	0xbad8f031	-0.0016551075
246	0x3be1bfd4	0.006889323
247	0x3c275455	0.010212977
248	0xbdb5e6be	-0.08881901
249	0xbd3fcc14	-0.046825483
250	0x3dd973c0	0.10617781
251	0x3b837a58	0.0040123872
252	0x3d2023a4	0.03909649
253	0xbdc9a9be	-0.09846829
254	0xbd61c9ba	-0.055124022
255	0xbbd1dddf	-0.006404623

network_body._body_endoder.seq_layers.2.bias f4 [128]
0	0xbbd7dffd	-0.006587981
1	0x3b722361	0.0036947357
2	0xbbebc87b	-0.00719553
3	0x3baf244c	0.005344903
4	0xbbc8ed1c	-0.0061317813
5	0x3a7afbde	0.00095742743
6	0xbbe5d219	-0.007013571
7	0xbbd42989	-0.006474678
8	0xbba33fb7	-0.0049819606
9	0x3bc6cfc6	0.006067249
10	0x3b137f3f	0.0022506265
11	0xbb13e55b	-0.0022567126
12	0xbbbd28fb	-0.0057727075
13	0xbbee3151	-0.0072690626
14	0x3bb428fc	0.00549805
15	0x3acf2222	0.0015803019
16	0xbb099ad9	-0.0020996837
17	0xbbc96245	-0.006145748
18	0xbba69be0	-0.0050844997
19	0xb9d21b11	-0.00040074487
20	0x3bba5d67	0.005687404
21	0x3ac5ca04	0.0015090113
22	0x3a8c34bc	0.0010696868
23	0xbb464b67	-0.0030257346
24	0xb9114f11	-0.00013857732
25	0x3b9c6972	0.0047733122
26	0xbacf3b6e	-0.0015810558
27	0x3b311e1d	0.0027026006
28	0x3b2a7fcb	0.0026016112
29	0xbba44d03	-0.0050140633
30	0xbbaf628e	-0.005352325
31	0x3c066be9	0.008204439
32	0x3b81cb0d	0.003960973
33	0x3b95cd67	0.004571605
34	0xbbc50e7b	-0.006013689
35	0xbb622209	-0.003450515
36	0xbabcf788	-0.0014417032
37	0x3be9fc4d	0.0071406723
38	0x3bea0009	0.0071411175
39	0xbb9307b5	-0.0044870027
40	0x3bf2970c	0.00740326
41	0xbb09cc8e	-0.0021026465
42	0x3b9b0a9b	0.004731489
43	0x3b40eb23	0.0029437027
44	0xbbbaced3	-0.005700925
45	0xbb9af5b4	-0.004728997
46	0x39b4e784	0.00034504768
47	0x3a1a7709	0.00058923714
48	0x3b895db1	0.004192077
49	0xbaf22eee	-0.0018477121
50	0xbb769215	-0.0037623693
51	0xbbbb1ae2	-0.005709992
52	0xbb5d008b	-0.0033722247
53	0x3bf59509	0.007494573
54	0xbb93df6c	-0.004512718
55	0x3bbf5101	0.005838514
56	0xba67d2e2	-0.00088433747
57	0x3bacfe40	0.0052793324
58	0x3903bdb9	0.00012563811
59	0xbbd88df0	-0.006608717
60	0x3bd0a04a	0.006366764
61	0x3bcfff1e	0.006347551
62	0xbbd697f9	-0.0065488783
63	0x3b872e7b	0.004125414
64	0xba639d06	-0.0008682761
65	0x3bedf0eb	0.0072613857
66	0x3b654c35	0.003498805
67	0x3b86560f	0.0040996145
68	0x39126ba2	0.00013963741
69	0xbba36f41	-0.0049876277
70	0xbb791f37	-0.003801299
71	0xbbc212c8	-0.005922649
72	0x3b012275	0.0019704376
73	0x3bbbe370	0.0057339
74	0x3baf7dd3	0.0053555756
75	0x3bcbabde	0.0062155565
76	0xbbaa71eb	-0.0052015684
77	0x3c23e34a	0.01000292
78	0xbbca6641	-0.0061767404
79	0xbba89bbf	-0.0051455195
80	0xbb10f894	-0.002212082
81	0x3be40665	0.00695877
82	0x39880fd2	0.00025951728
83	0x3bbc5588	0.005747501
84	0xbb94133c	-0.0045188945
85	0x3b9af706	0.0047291545
86	0xbbd5d506	-0.0065256385
87	0xbbe9b68d	-0.0071323575
88	0xb865fa10	-5.4830743e-05
89	0xbc0c7539	-0.00857287
90	0xbac6e806	-0.001517535
91	0xbb117a32	-0.0022198078
92	0xbb2f8b6f	-0.002678599
93	0xbb5896e8	-0.0033048932
94	0xba714b83	-0.00092046725
95	0x3bc2ce20	0.005944982
96	0x3b930941	0.004487187
97	0xbb342b3b	-0.0027491588
98	0x39d3a886	0.00040370616
99	0x3b9fd712	0.0048779333
100	0xbb7cb1f1	-0.003855821
101	0x3bb8545d	0.0056252913
102	0xbb5879c7	-0.003303157
103	0xbb31564d	-0.0027059496
104	0xb929bb04	-0.00016186765
105	0xbbfa5abe	-0.007640212
106	0xbbae05d7	-0.0053107548
107	0x3b6002f1	0.003418144
108	0x3bc675d1	0.0060565253
109	0xbb10971d	-0.0022062727
110	0xbb9ace12	-0.0047242725
111	0x3bbf799f	0.005843356
112	0x3b4be9e1	0.0031114744
113	0x3bafcfee	0.0053653633
114	0x3c1ab93b	0.009443576
115	0xbb8f425b	-0.004371924
116	0x3b9e6218	0.004833471
117	0x3ba1cdd6	0.0049378676
118	0x3b85a0f0	0.004078023
119	0xbc0d5ff0	-0.00862883
120	0x3b90de82	0.0044210562
121	0xbb0d8c78	-0.0021598618
122	0x3ae5b933	0.0017526507
123	0xbbd6697d	-0.006543337
124	0x3bad8892	0.0052958215
125	0xbb1c2457	-0.0023825371
126	0x3bbbf830	0.0057363734
127	0x3c129582	0.008946778

action_model._continuous_distribution.log_sigma f4 [1, 2]
0	0xbcd90d37	-0.02649556
1	0x3d182e6f	0.037153658

action_model._continuous_distribution.mu.weight f4 [2, 128]
0	0x3cdeeb22	0.02721173
1	0xbc54b6fd	-0.012983081
2	0x3bc24c5b	0.0059295124
3	0xbd05a4c4	-0.032627836
4	0x3ca234cf	0.019800572
5	0xbbd4feda	-0.0065001072
6	0x3b12b8bf	0.002238795
7	0x3d200141	0.039063696
8	0x3c84daff	0.016217707
9	0xbca0ee2f	-0.019644825
10	0xbc1c1951	-0.00952752
11	0x3c20c5e1	0.009812803
12	0x3d016231	0.031587783
13	0x3d005917	0.031334963
14	0xbc40cb1f	-0.011767178
15	0x3be88760	0.007096216
16	0x3b2afea9	0.002609173
17	0x3d0860f3	0.033295583
18	0x3cb5247c	0.022112124
19	0x3b8c9ed8	0.0042913966
20	0xbc92e692	-0.01793221
21	0xbc074c92	-0.008258002
22	0xbbd70383	-0.006561698
23	0x3c886c20	0.01665312
24	0xbc4c2691	-0.012460367
25	0xbc9b0f98	-0.018928334
26	0xbc4e21dc	-0.012581315
27	0xbc180640	-0.009278834
28	0x3bdb4c90	0.0066924766
29	0x3c2d769f	0.0105873635
30	0x3b72ed10	0.003706757
31	0xbc95c17a	-0.018280733
32	0xbbce74cc	-0.0063005444
33	0xbc7d68b0	-0.015466854
34	0x3c78c695	0.015184064
35	0x3c0827e9	0.008310297
36	0x3c538f40	0.012912571
37	0xbb895f7a	-0.00419229
38	0xbca44d1c	-0.0200563
39	0x3b4cedcd	0.003126967
40	0xbd12eece	-0.035872273
41	0x3c952adf	0.01820892
42	0xbc54a359	-0.012978398
43	0xbc79024d	-0.015198302
44	0x3c91180c	0.017711662
45	0x3d0905c4	0.033452764
46	0x3c8bc09c	0.017059617
47	0x3b667882	0.0035167043
48	0xbc51f3bf	-0.012814461
49	0x3b7567b2	0.003744584
50	0x3b71093c	0.0036779186
51	0x3b2e772f	0.0026621332
52	0x3b90bef5	0.004417295
53	0xbd0265a6	-0.03183522
54	0x3b047f29	0.0020217395
55	0xbd22649a	-0.039646722
56	0xbc8102c5	-0.01574839
57	0xbb1bad56	-0.002375444
58	0xbb82800e	-0.0039825505
59	0x3cbbb905	0.022915373
60	0xbcd1046c	-0.025514804
61	0xbccfdea2	-0.025374714
62	0x3d3ee5d4	0.0466059
63	0xbc200605	-0.00976706
64	0xbbddd6be	-0.006769984
65	0xbbe8f3c5	-0.0071091377
66	0xbc9e8d3b	-0.019354453
67	0xbc7c76d1	-0.015409187
68	0x3c076437	0.008263639
69	0x3c14a4ef	0.009072526
70	0x3bb37e65	0.005477714
71	0x3c9a99a4	0.01887209
72	0xbcc451b9	-0.02396475
73	0xbd12d279	-0.035845254
74	0xbc1551e9	-0.009113767
75	0xbcf4b23f	-0.02987015
76	0xbacddeb0	-0.0015706625
77	0xbd1048dc	-0.035225734
78	0x3cbffb31	0.023435207
79	0x3d0889a2	0.033334382
80	0x3ca6bbea	0.020353276
81	0xbb0f7542	-0.002188996
82	0xbc203e3c	-0.009780463
83	0xbc5bf2f3	-0.013424623
84	0x3c20a0b7	0.009803942
85	0xbd03cd3f	-0.03217816
86	0x3d1893ce	0.037250333
87	0x3cccbe82	0.024993185
88	0x3c858f43	0.016303664
89	0x3c36968d	0.011144293
90	0xbbe81237	-0.0070822495
91	0xbb58ce8f	-0.0033082103
92	0x3cd37d75	0.025816659
93	0x3d279781	0.04091597
94	0x3be75fa9	0.007060964
95	0xbb633ad7	-0.0034672522
96	0xbc47b364	-0.012188766
97	0x3c384282	0.011246325
98	0xbc180c66	-0.0092803
99	0xbc319188	-0.01083792
100	0x3d06f310	0.032946646
101	0xbc298fe8	-0.010349251
102	0x3cce6ae5	0.025197456
103	0x3bc7e880	0.006100714
104	0xba925873	-0.0011165276
105	0x3bf106ed	0.007355562
106	0x3cbf73c2	0.023370627
107	0xbc172b6a	-0.009226659
108	0xbc8266e1	-0.015918197
109	0x3cc4dc58	0.02403085
110	0x3b69e2bf	0.003568813
111	0xbccdb3c4	-0.025110133
112	0xbc198dd0	-0.00937219
113	0xbc7c62b7	-0.015404395
114	0xbd70ced3	-0.058790993
115	0x3c96e15d	0.018418008
116	0x3b782b81	0.0037867727
117	0xbc16e79d	-0.009210494
118	0xbb8c840b	-0.0042882017
119	0x3b424302	0.002964199
120	0xbc413cbf	-0.011794268
121	0xbb35b7be	-0.0027727927
122	0xbba3114b	-0.0049764267
123	0x3bed94a5	0.007250386
124	0xbd14ef6c	-0.036361143
125	0xbc437d5e	-0.011931745
126	0x3bcee5cf	0.0063140164
127	0xbce22f4d	-0.027610445
128	0xbb27fc84	-0.0025632689
129	0xbc485f35	-0.01222973
130	0x3cb81067	0.022468759
131	0xbc2c2b99	-0.010508441
132	0x3cb84027	0.022491528
133	0xbbf58b58	-0.0074934177
134	0xbb71ec2a	-0.0036914446
135	0xbb83e56a	-0.004025151
136	0xbac6a252	-0.0015154576
137	0x3c1a3c18	0.0094137415
138	0xbc973f77	-0.01846288
139	0xbc00b7d4	-0.007856328
140	0x3cbcda68	0.023053363
141	0x3bb8c652	0.005638876
142	0x3a352651	0.00069103116
143	0xbc824a34	-0.015904523
144	0x3a83ea45	0.0010064325
145	0x3c090dcc	0.008365106
146	0x3d012fc3	0.03153969
147	0x3c856498	0.016283318
148	0x3b4f2de0	0.0031613037
149	0xbcbaafb3	-0.022788858
150	0x3c0d4ffb	0.008625026
151	0xbccbf985	-0.024899254
152	0x3c4e8cc4	0.012606803
153	0xbc1853e1	-0.009297342
154	0x3ce44689	0.027865665
155	0xbc9edb6d	-0.01939174
156	0xbc8193c2	-0.015817527
157	0x3b804310	0.0039142445
158	0x3c83d99a	0.016094971
159	0x3c543738	0.012952618
160	0xba89138a	-0.0010458094
161	0x3c0711d5	0.008243998
162	0xbb6f32f3	-0.0036498874
163	0x3c84ff00	0.016234875
164	0x3bd33e7b	0.0064466572
165	0xbcfec9a5	-0.031102011
166	0x3bd47fb8	0.006484952
167	0x391e14f0	0.00015075854
168	0x3a64e83a	0.0008732114
169	0xbcd7c61f	-0.026339589
170	0x3c19ef50	0.009395435
171	0xbce89822	-0.028392855
172	0x3b306fc8	0.0026922096
173	0xbd01fd51	-0.031735722
174	0xbca70eb2	-0.02039275
175	0xbc9c49a5	-0.019078085
176	0x39d8ddbe	0.0004136394
177	0x3b4ec29d	0.0031549104
178	0x3d449f51	0.0480035
179	0x3c8f308c	0.017479204
180	0x3c358ca7	0.011080897
181	0x3c1c0780	0.0095232725
182	0x3c24e096	0.010063311
183	0xbc8f3082	-0.017479185
184	0x3c990cee	0.018682923
185	0xbd165079	-0.03669784
186	0x3bd2b007	0.0064296755
187	0xbcb143fc	-0.021638863
188	0xbaaa55bf	-0.0012995525
189	0x3bbdfbc6	0.005797836
190	0xbc04b17b	-0.008098955
191	0xbce5070a	-0.027957458
192	0x3c8850cb	0.016640088
193	0xbd053a86	-0.032526515
194	0xbd0cddf9	-0.034391377
195	0x3bcadcd5	0.006190876
196	0xbbacca84	-0.005273165
197	0x3cc52b8d	0.024068618
198	0x3c52f35b	0.012875403
199	0x3c4b3d31	0.012404726
200	0x3cfb67f1	0.030689212
201	0xbae6d935	-0.001761234
202	0x3b4891b9	0.0030604436
203	0x3cb0b81f	0.02157217
204	0x3c638921	0.013887675
205	0x3bd7eaf1	0.0065892865
206	0xbb348b31	-0.0027548785
207	0xbca1940a	-0.01972391
208	0xbc87b53f	-0.016565917
209	0x3aa1a689	0.0012332957
210	0x3c6176e3	0.013761255
211	0x3aa5b55f	0.0012642554
212	0x3c2c0014	0.0104980655
213	0x3bd33d95	0.00644655
214	0x3b1c8fe1	0.002388947
215	0x3c6da085	0.014503603
216	0xbcbcf6fa	-0.023066986
217	0x3a98bd14	0.0011653029
218	0x3cf95a6d	0.030438626
219	0xbcc89ee2	-0.024489824
220	0xbcfa4eb4	-0.030555107
221	0xbca0e04b	-0.019638201
222	0x3bcdba9f	0.0062783505
223	0xbbe8dce3	-0.00710641
224	0x3aef7364	0.0018268642
225	0x3a8bb1eb	0.0010657882
226	0x3c51c1c2	0.012802543
227	0xbcb20315	-0.021729985
228	0xbc918807	-0.017765058
229	0x39a8115a	0.00032056385
230	0xbc30b4c6	-0.010785287
231	0xbc0e6089	-0.008690008
232	0x3c0b8292	0.008515017
233	0xbb487682	-0.0030588214
234	0x3ce7633f	0.028245566
235	0x3b717cac	0.0036847992
236	0x3c2e495b	0.0106376065
237	0xbca3cbdd	-0.01999467
238	0x3cd1c141	0.025604846
239	0xbc53c601	-0.012925626
240	0xbbbd3f19	-0.005775344
241	0xbc8acf06	-0.01694442
242	0x3b474879	0.0030408187
243	0xbb638dd3	-0.0034721985
244	0xbc55af4b	-0.013042281
245	0xbb891ae3	-0.0041841133
246	0xbc006245	-0.007835929
247	0x3be35b0b	0.0069383434
248	0xbc51d93f	-0.012808143
249	0xbca6c51a	-0.020357657
250	0xbc65a338	-0.014015965
251	0x3ce6fb16	0.028195899
252	0x3c9025f3	0.01759622
253	0x3ca9eb98	0.020742223
254	0xbcffab91	-0.031209739
255	0x3c860ce0	0.016363561

action_model._continuous_distribution.mu.bias f4 [2]
0	0xbbd6753d	-0.0065447376
1	0xbb60b2ba	-0.0034286217

action_model._discrete_distribution.branches.0.weight f4 [1, 128]
0	0x3c637e73	0.013885128
1	0xbb24d733	-0.0025152683
2	0x3b99e7e3	0.0046968325
3	0xbbdf4edb	-0.00681482
4	0x3b9fe2ba	0.004879323
5	0x3c81abe4	0.015829034
6	0xbbe0f6e2	-0.006865368
7	0xbbf4c9a3	-0.007470326
8	0x3bedfb7b	0.007262645
9	0xbac0aa18	-0.0014699129
10	0xbb2a0128	-0.002594063
11	0x3af22e42	0.0018476921
12	0x3acd927b	0.0015683913
13	0xbc915766	-0.01774187
14	0xbc4cdfaf	-0.012504502
15	0xbc57e8bf	-0.01317805
16	0x3c22af46	0.009929484
17	0x3c165d2b	0.009177486
18	0xbc632cbb	-0.013865645
19	0xbaad9504	-0.0013243263
20	0x3c51ab62	0.0127972085
21	0x39e9cdf3	0.00044594667
22	0x3bdb37bf	0.006689995
23	0x3b754792	0.0037426692
24	0xbcbb89c4	-0.02289284
25	0xbb8e4207	-0.004341367
26	0x3b4374ec	0.002982433
27	0x3c9f4fbf	0.019447206
28	0x3b86e1b7	0.004116263
29	0x3b8b1110	0.0042439774
30	0x3c429f37	0.01187878
31	0xbbf3872b	-0.0074318848
32	0x3b19595f	0.0023399217
33	0xbabf9b85	-0.0014618492
34	0xbc51009b	-0.012756492
35	0xb97143b7	-0.00023008777
36	0x3b68c04a	0.0035515004
37	0xb8b587df	-8.6560605e-05
38	0x3be2fa80	0.0069268346
39	0x3afb002a	0.0019149829
40	0xbc038e98	-0.0080296025
41	0xbb8f69d3	-0.004376629
42	0xbbb39cea	-0.005481352
43	0x3bf677fa	0.0075216265
44	0x3b999133	0.0046864985
45	0xbba5666e	-0.005047611
46	0xbcdcb40f	-0.026941327
47	0xbb4c5f87	-0.0031184868
48	0x3c682f93	0.014171499
49	0x3c1990bb	0.009372885
50	0x3b354ebc	0.0027665338
51	0x3b256226	0.0025235503
52	0xb9d6bccb	-0.00040957922
53	0x3a9a90b3	0.0011792391
54	0x3c647a4a	0.013945172
55	0x3b3f5cad	0.0029199526
56	0xbaa91701	-0.0012900532
57	0x3b13f4a3	0.0022576235
58	0xbb8ca5b1	-0.004292213
59	0x3baa6e7c	0.005201159
60	0xbb0974b0	-0.0020974092
61	0xbb5e6cef	-0.0033939441
62	0xba84bf2c	-0.0010127774
63	0x3c4f8de2	0.012668105
64	0x3bad55fe	0.005289792
65	0x3bbdf783	0.005797328
66	0xbbd5b222	-0.006521479
67	0x3c8338ba	0.01601826
68	0x3b5d77b3	0.003379327
69	0x3c6aacca	0.014323423
70	0x3c30cc76	0.010790935
71	0xba8d8ed3	-0.0010800011
72	0xbb6fc920	-0.0036588386
73	0xbbc884c2	-0.0061193416
74	0x3af8ea7b	0.0018990779
75	0xbc4d6265	-0.012535666
76	0xbb42b395	-0.002970909
77	0x39b715a2	0.00034920598
78	0xbc248eeb	-0.01004384
79	0xba480eda	-0.00076316076
80	0x3b9123b7	0.0044293064
81	0x3cb29be7	0.021802856
82	0x3ab072cc	0.0013461947
83	0x3b5f59a5	0.0034080532
84	0x3c5656cd	0.013082218
85	0xbbcd85b2	-0.0062720412
86	0xbbd5b68d	-0.006522006
87	0xbaa5ef9f	-0.0012659914
88	0xbad36b7d	-0.0016130056
89	0xbc43c023	-0.011947664
90	0xbc12c414	-0.0089578815
91	0xbbeb4055	-0.0071793
92	0x3b73e59f	0.0037215722
93	0x3c494ca3	0.012286338
94	0x3b6dd307	0.0036289112
95	0x3bb6f9ae	0.0055839634
96	0x3c59e2d0	0.013298705
97	0x3c3b2abf	0.011423766
98	0x3c4f98d0	0.012670711
99	0x3b746100	0.0037289262
100	0xbbd2c625	-0.006432312
101	0xbbab7860	-0.0052328557
102	0xba9d591c	-0.0012004706
103	0xbc94601d	-0.018112237
104	0xbb8e498c	-0.0043422636
105	0xb9ab3ccd	-0.00032660962
106	0xbaf6711b	-0.0018802019
107	0x3c35fdc0	0.011107862
108	0x3be47bc0	0.00697276
109	0xbc37adaf	-0.011210843
110	0xbb1441a8	-0.0022622142
111	0xba3dcd47	-0.00072403665
112	0xbb20fa57	-0.0024563277
113	0xbb3a699e	-0.00284443
114	0x388e8a89	6.796892e-05
115	0x3b9f50f1	0.004861944
116	0xbb139b4b	-0.0022522982
117	0xbc085e2f	-0.008323236
118	0xbc2aa8bb	-0.010416205
119	0x3984399e	0.0002521993
120	0x3c87bcca	0.016569514
121	0x3b0f535f	0.0021869761
122	0xbc73cb93	-0.014880079
123	0x3bb3f132	0.005491399
124	0x3bfe9ab2	0.007769906
125	0xbbcf8218	-0.006332647
126	0x3b8af527	0.00424065
127	0x3b38e502	0.0028212671

exp_avg f4 [128, 186]
0	0x3693ae25	4.4012145e-06
1	0x2c24c6bf	2.3416128e-12
2	0xb892a1a3	-6.99193e-05
3	0x3615cbb8	2.232131e-06
4	0x00000000	0.0
5	0x37d6a758	2.5588713e-05
6	0x369020a9	4.2953366e-06
7	0x2c253a43	2.3480252e-12
8	0xb88f77bc	-6.8410736e-05
9	0x360fde7b	2.1438161e-06
10	0x00000000	0.0
11	0x37d22056	2.5049008e-05
12	0x33544b33	4.942849e-08
13	0x2c251eb3	2.3464952e-12
14	0xb88a2840	-6.58785e-05
15	0x3527f9bb	6.2575754e-07
16	0x00000000	0.0
17	0x37cfb085	2.4758521e-05
18	0xb5843cd2	-9.852467e-07
19	0x2c24dd72	2.3428729e-12
20	0xb8876657	-6.456364e-05
21	0x33fe1988	1.1832441e-07
22	0x00000000	0.0
23	0x37cae269	2.4185707e-05
24	0xb5b039ed	-1.312988e-06
25	0x2c24529d	2.3351661e-12
26	0xb888776b	-6.507229e-05
27	0xb4079922	-1.2628564e-07
28	0x00000000	0.0
29	0x37c9220c	2.3976922e-05
30	0xb6095005	-2.0461168e-06
31	0x2c23b483	2.3263897e-12
32	0xb89237c6	-6.972211e-05
33	0xb3ca01aa	-9.406661e-08
34	0x00000000	0.0
35	0x37d7d170	2.5727524e-05
36	0x3600093c	1.9078861e-06
37	0x2c23de0f	2.328696e-12
38	0xb88d14fd	-6.727313e-05
39	0x359249b8	1.0899303e-06
40	0x00000000	0.0
41	0x37cf9b2d	2.4748582e-05
42	0xb54297f0	-7.249173e-07
43	0x2c23b3b5	2.326345e-12
44	0xb889d261	-6.571855e-05
45	0x329590c0	1.7411708e-08
46	0x00000000	0.0
47	0x37cd6460	2.4484645e-05
48	0xb5117b5c	-5.419622e-07
49	0x2c240856	2.331043e-12
50	0xb886d6c7	-6.429623e-05
51	0x33f560a3	1.142628e-07
52	0x00000000	0.0
53	0x37c8313c	2.3864784e-05
54	0xb61fe121	-2.3823889e-06
55	0x2c242aed	2.332963e-12
56	0xb87ba10d	-5.9993054e-05
57	0xb55a27fa	-8.12695e-07
58	0x00000000	0.0
59	0x37bd2d7b	2.2551734e-05
60	0xb5d385c4	-1.5759656e-06
61	0x2c249816	2.3390226e-12
62	0xb8716be4	-5.755936e-05
63	0xb5352d6a	-6.749384e-07
64	0x00000000	0.0
65	0x37b646cc	2.1729058e-05
66	0x35a5d092	1.235416e-06
67	0x2c24585a	2.3354847e-12
68	0xb8651208	-5.4614648e-05
69	0x34b95f53	3.4528293e-07
70	0x00000000	0.0
71	0x37ace2fd	2.0609697e-05
72	0x36e44d8d	6.8039576e-06
73	0x2c24dc40	2.3428065e-12
74	0xb84d8a51	-4.9004626e-05
75	0x35fcfb13	1.8848535e-06
76	0x00000000	0.0
77	0x379884c8	1.8181643e-05
78	0x349f1e89	2.9638275e-07
79	0x2c25428d	2.3484853e-12
80	0xb885daeb	-6.382711e-05
81	0x3504b7f0	4.9441496e-07
82	0x00000000	0.0
83	0x37c681b3	2.3663835e-05
84	0xb647ea35	-2.9789637e-06
85	0x2c25703c	2.3510213e-12
86	0xb89cc49a	-7.4752796e-05
87	0xb342fde8	-4.540007e-08
88	0x00000000	0.0
89	0x37e692bd	2.7486467e-05
90	0x34e968a7	4.3475777e-07
91	0x2c25dfa5	2.3572058e-12
92	0xb8914df8	-6.9286616e-05
93	0x354fe833	7.7451404e-07
94	0x00000000	0.0
95	0x37d4d1c8	2.5370056e-05
96	0xb6c6b28c	-5.9216454e-06
97	0x2c255141	2.3493015e-12
98	0xb8902fd9	-6.8753674e-05
99	0xb5e235bf	-1.6853954e-06
100	0x00000000	0.0
101	0x37d44c49	2.5307892e-05
102	0xb6a71b4d	-4.980166e-06
103	0x2c262b71	2.3614134e-12
104	0xb8922f76	-6.970663e-05
105	0xb5a96203	-1.2620006e-06
106	0x00000000	0.0
107	0x37d73685	2.5655385e-05
108	0x3616e5df	2.2485544e-06
109	0x2c25dd55	2.3570774e-12
110	0xb886e94f	-6.433075e-05
111	0x357ac595	9.341978e-07
112	0x00000000	0.0
113	0x37c78f47	2.3789367e-05
114	0xb70721ed	-8.054526e-06
115	0x2c25e167	2.3573034e-12
116	0xb882ec37	-6.2428815e-05
117	0xb62f3ac7	-2.6111245e-06
118	0x00000000	0.0
119	0x37c689f7	2.3667684e-05
120	0xb6852cef	-3.96894e-06
121	0x2c25ed2a	2.3579563e-12
122	0xb887b6fe	-6.4713866e-05
123	0xb57fe515	-9.532826e-07
124	0x00000000	0.0
125	0x37cbaadc	2.4279048e-05
126	0xb68ab4b5	-4.1337576e-06
127	0x2c2557d3	2.3496663e-12
128	0xb88f2a8c	-6.826696e-05
129	0xb5593037	-8.090896e-07
130	0x00000000	0.0
131	0x37d4e27c	2.5377834e-05
132	0xb6bd4bd6	-5.6414674e-06
133	0x2c2567cb	2.3505527e-12
134	0xb89582bb	-7.129224e-05
135	0xb59b0c22	-1.1551931e-06
136	0x00000000	0.0
137	0x37db9e58	2.6180569e-05
138	0xb72e95a4	-1.0406049e-05
139	0x2c251e61	2.3464774e-12
140	0xb89d5141	-7.501478e-05
141	0xb625227e	-2.4606993e-06
142	0x00000000	0.0
143	0x37ea4305	2.7926182e-05
144	0xb6bfa32b	-5.711239e-06
145	0x2c250444	2.3450278e-12
146	0xb89de0fc	-7.52825e-05
147	0xb551b094	-7.811552e-07
148	0x00000000	0.0
149	0x37e82c89	2.7677293e-05
150	0xb68fca28	-4.285266e-06
151	0x2c2508db	2.3452826e-12
152	0xb8ad798d	-8.2719234e-05
153	0x3313c77e	3.440754e-08
154	0x00000000	0.0
155	0x37fbab4b	3.0001296e-05
156	0xb6b6354e	-5.430228e-06
157	0x2c24b3d2	2.3405622e-12
158	0xb8a7fc66	-8.0101934e-05
159	0xb5349c80	-6.7282963e-07
160	0x00000000	0.0
161	0x37f378b4	2.9024064e-05
162	0xb73d610e	-1.1287875e-05
163	0x2c2478c0	2.3372831e-12
164	0xb89fe5bc	-7.624502e-05
165	0xb63afc3c	-2.786298e-06
166	0x00000000	0.0
167	0x37eacf51	2.7991513e-05
168	0xb771e7ba	-1.4418672e-05
169	0x2c246dec	2.336682e-12
170	0xb89ddc6b	-7.5273994e-05
171	0xb683ba7b	-3.9258134e-06
172	0x00000000	0.0
173	0x37e829ff	2.7676111e-05
174	0xb794db81	-1.774519e-05
175	0x2c248510	2.3379666e-12
176	0xb89ac2f1	-7.379603e-05
177	0xb6ad1dd2	-5.1592733e-06
178	0x00000000	0.0
179	0x37e62f35	2.7440119e-05
180	0xb7aa462d	-2.0298257e-05
181	0x2c24536a	2.3352106e-12
182	0xb89ea81c	-7.56534e-05
183	0xb6c6e438	-5.927428e-06
184	0x00000000	0.0
185	0x37e81fc6	2.767135e-05
186	0x36a4aecc	4.90793e-06
187	0x2c70b9c2	3.4209168e-12
188	0x34fb5b40	4.6818786e-07
189	0x3670d765	3.5888163e-06
190	0x00000000	0.0
191	0xb63132b4	-2.6404568e-06
192	0x36dbc133	6.5492e-06
193	0x2c6ef349	3.3956885e-12
194	0x35e9be03	1.7415153e-06
195	0x368ac59a	4.1357243e-06
196	0x00000000	0.0
197	0xb6556e24	-3.1803584e-06
198	0x3697d19d	4.524553e-06
199	0x2c6f1feb	3.398166e-12
200	0x36caea8f	6.0473753e-06
201	0x364f669e	3.0905135e-06
202	0x00000000	0.0
203	0xb6976910	-4.5123816e-06
204	0x3726b56c	9.936612e-06
205	0x2c6efdc6	3.3962707e-12
206	0x36a40e88	4.8892725e-06
207	0x36aaa3ac	5.0854487e-06
208	0x00000000	0.0
209	0xb69734a5	-4.5062793e-06
210	0x368deae5	4.229473e-06
211	0x2c6f7517	3.402894e-12
212	0xb4306f99	-1.6431876e-07
213	0x36598ece	3.2418643e-06
214	0x00000000	0.0
215	0xb6285cbf	-2.5087936e-06
216	0x37165b8a	8.96201e-06
217	0x2c6f400d	3.3999498e-12
218	0x35c0ffd6	1.4379573e-06
219	0x36a7c06d	4.999389e-06
220	0x00000000	0.0
221	0xb65c9ecb	-3.2874984e-06
222	0x37476a34	1.1886052e-05
223	0x2c6f1eb6	3.398099e-12
224	0xb71f38a2	-9.490324e-06
225	0x36d064c3	6.2106133e-06
226	0x00000000	0.0
227	0x341a7a59	1.4386877e-07
228	0x371f0576	9.47841e-06
229	0x2c6ea818	3.3915145e-12
230	0xb729a005	-1.0110442e-05
231	0x36bd93f5	5.6498634e-06
232	0x00000000	0.0
233	0x34af7d2d	3.2687367e-07
234	0x37b32706	2.1356635e-05
235	0x2c6de89c	3.380885e-12
236	0xb75095e0	-1.2432662e-05
237	0x3721b7da	9.639154e-06
238	0x00000000	0.0
239	0x3533b22a	6.694196e-07
240	0x37589885	1.29101145e-05
241	0x2c6d5c99	3.3731128e-12
242	0xb78ec984	-1.7021557e-05
243	0x36f0fd25	7.1820273e-06
244	0x00000000	0.0
245	0x36370343	2.7271024e-06
246	0x37acd7f2	2.0604555e-05
247	0x2c6e5503	3.3869025e-12
248	0xb7a3cb3a	-1.9525749e-05
249	0x37292fb9	1.0084296e-05
250	0x00000000	0.0
251	0x364f3ddd	3.0881413e-06
252	0x37a1f568	1.9306972e-05
253	0x2c6faf34	3.40612e-12
254	0xb79b8a8d	-1.8541958e-05
255	0x3722dd03	9.707411e-06

exp_avg_sq f4 [128, 186]
0	0x30933132	1.070964e-09
1	0x2deba1bf	2.6788237e-11
2	0x3166fa77	3.3611778e-09
3	0x2eb3a766	8.1697135e-11
4	0x00000000	0.0
5	0x306eb470	8.684031e-10
6	0x309d2aa3	1.1435372e-09
7	0x2e03d721	2.9977024e-11
8	0x316966f7	3.3964491e-09
9	0x2ebebd1e	8.6737936e-11
10	0x00000000	0.0
11	0x306fdc93	8.726115e-10
12	0x309944f4	1.1151813e-09
13	0x2e033c59	2.983955e-11
14	0x3168ae3b	3.3859482e-09
15	0x2eb821ac	8.3733326e-11
16	0x00000000	0.0
17	0x306f990b	8.716518e-10
18	0x309aba2c	1.1257888e-09
19	0x2e072643	3.072943e-11
20	0x31681214	3.377072e-09
21	0x2ebd5a44	8.610759e-11
22	0x00000000	0.0
23	0x306ecd92	8.687603e-10
24	0x309fdf74	1.1632282e-09
25	0x2e1374cb	3.3527663e-11
26	0x3168f927	3.390207e-09
27	0x2ec3fe3f	8.9127365e-11
28	0x00000000	0.0
29	0x306fd03f	8.724363e-10
30	0x309dde40	1.1486421e-09
31	0x2e144926	3.3716273e-11
32	0x31681637	3.377307e-09
33	0x2ebf0db1	8.6881065e-11
34	0x00000000	0.0
35	0x306f68f0	8.709682e-10
36	0x30a0ba81	1.169454e-09
37	0x2e13d282	3.36109e-11
38	0x316af2d3	3.4189511e-09
39	0x2ec4bee8	8.94696e-11
40	0x00000000	0.0
41	0x3070eb40	8.76458e-10
42	0x309fb5dd	1.1620461e-09
43	0x2e14a7e0	3.3800407e-11
44	0x3169d407	3.4026486e-09
45	0x2ec50ece	8.961153e-11
46	0x00000000	0.0
47	0x306ede59	8.689987e-10
48	0x309ecf9e	1.1555021e-09
49	0x2e10e51e	3.2945306e-11
50	0x3167f72f	3.3755432e-09
51	0x2ec49bea	8.940744e-11
52	0x00000000	0.0
53	0x306d0306	8.6224394e-10
54	0x309bdba7	1.1340163e-09
55	0x2e122e95	3.323793e-11
56	0x316af959	3.419322e-09
57	0x2ec90569	9.141383e-11
58	0x00000000	0.0
59	0x306d3527	8.629563e-10
60	0x309bb719	1.1329774e-09
61	0x2e13a029	3.356618e-11
62	0x31758a7c	3.5730912e-09
63	0x2ed04152	9.470348e-11
64	0x00000000	0.0
65	0x307197c5	8.7890967e-10
66	0x309b15c0	1.1283916e-09
67	0x2e1afd14	3.5240325e-11
68	0x318146a4	3.762425e-09
69	0x2ed6a995	9.761717e-11
70	0x00000000	0.0
71	0x30777c1f	9.0034463e-10
72	0x309a79f5	1.1239637e-09
73	0x2e1e7ead	3.603755e-11
74	0x3185edeb	3.8978576e-09
75	0x2edabc8e	9.946986e-11
76	0x00000000	0.0
77	0x307baf81	9.1562674e-10
78	0x30a13f51	1.1732287e-09
79	0x2e29ea8c	3.863447e-11
80	0x31806c33	3.737591e-09
81	0x2ee61f25	1.04647215e-10
82	0x00000000	0.0
83	0x30765be5	8.962487e-10
84	0x30a60f77	1.2082485e-09
85	0x2e2ecb74	3.9743722e-11
86	0x317d79c7	3.6885568e-09
87	0x2ef06dd9	1.0933449e-10
88	0x00000000	0.0
89	0x3073fd31	8.876269e-10
90	0x30aeedfc	1.2727805e-09
91	0x2e3421c1	4.095724e-11
92	0x317fdae5	3.723181e-09
93	0x2f024acb	1.1850003e-10
94	0x00000000	0.0
95	0x3074a411	8.8999835e-10
96	0x30ad7c93	1.2622813e-09
97	0x2e2eed55	3.9773813e-11
98	0x317d0c95	3.6823498e-09
99	0x2efed152	1.15877655e-10
100	0x00000000	0.0
101	0x30733675	8.8480273e-10
102	0x30ac80d3	1.2551261e-09
103	0x2e2b505a	3.8952265e-11
104	0x31824327	3.7911323e-09
105	0x2f0061d4	1.1676288e-10
106	0x00000000	0.0
107	0x30758f99	8.9334545e-10
108	0x30b324eb	1.3034457e-09
109	0x2e2b9320	3.9011572e-11
110	0x3183818f	3.827331e-09
111	0x2f045cb7	1.2038269e-10
112	0x00000000	0.0
113	0x30771aa9	8.9895963e-10
114	0x30af20bc	1.274223e-09
115	0x2e215204	3.6680006e-11
116	0x31834406	3.820335e-09
117	0x2f055f1f	1.2130073e-10
118	0x00000000	0.0
119	0x3076a745	8.9731983e-10
120	0x30afc51b	1.2788947e-09
121	0x2e2136a3	3.665569e-11
122	0x31852de0	3.876025e-09
123	0x2f0588f2	1.2144932e-10
124	0x00000000	0.0
125	0x3078a38c	9.045429e-10
126	0x30aef0b2	1.2728576e-09
127	0x2e20972d	3.651406e-11
128	0x3183dadd	3.8374837e-09
129	0x2f045460	1.2035306e-10
130	0x00000000	0.0
131	0x30778a4d	9.0054614e-10
132	0x30afe075	1.279672e-09
133	0x2e1bf85a	3.54635e-11
134	0x3181e1cf	3.7800656e-09
135	0x2f0371af	1.1954769e-10
136	0x00000000	0.0
137	0x3075c6ee	8.9413177e-10
138	0x30ab3986	1.2458237e-09
139	0x2e193db3	3.4842972e-11
140	0x318227aa	3.7880072e-09
141	0x2f014ecc	1.1760476e-10
142	0x00000000	0.0
143	0x30754a0b	8.92357e-10
144	0x30ad68a8	1.2617152e-09
145	0x2e1c605e	3.5555885e-11
146	0x31847256	3.854704e-09
147	0x2f02ab22	1.188423e-10
148	0x00000000	0.0
149	0x3078fff2	9.0585595e-10
150	0x30b0fc0a	1.2877319e-09
151	0x2e1fce50	3.6335657e-11
152	0x31858ae8	3.8866013e-09
153	0x2f05c522	1.2166315e-10
154	0x00000000	0.0
155	0x3079d118	9.088281e-10
156	0x30adbdad	1.2641316e-09
157	0x2e1e4e59	3.5994627e-11
158	0x3183679e	3.8243817e-09
159	0x2f06121c	1.2193663e-10
160	0x00000000	0.0
161	0x307784dd	9.0046887e-10
162	0x30ad28eb	1.2599036e-09
163	0x2e1def94	3.5910455e-11
164	0x3183624c	3.823777e-09
165	0x2f06034e	1.2188403e-10
166	0x00000000	0.0
167	0x30776193	8.999674e-10
168	0x30acef0a	1.2582586e-09
169	0x2e1fffc1	3.637957e-11
170	0x318597f4	3.8880845e-09
171	0x2f068010	1.2232726e-10
172	0x00000000	0.0
173	0x30796b27	9.0737945e-10
174	0x30ac85be	1.2552659e-09
175	0x2e1fe671	3.6357087e-11
176	0x3182b550	3.804111e-09
177	0x2f05afee	1.2158782e-10
178	0x00000000	0.0
179	0x30771773	8.98914e-10
180	0x30ae6ddf	1.2691393e-09
181	0x2e21a33a	3.6752136e-11
182	0x3183eb1f	3.839332e-09
183	0x2f085886	1.2400578e-10
184	0x00000000	0.0
185	0x3077706d	9.0017843e-10
186	0x31bfae6a	5.57866e-09
187	0x2e8a936e	6.301702e-11
188	0x31ae76c5	5.077569e-09
189	0x2f35de2d	1.6540787e-10
190	0x00000000	0.0
191	0x31ad2f8f	5.0403695e-09
192	0x31bfd745	5.583305e-09
193	0x2e8c5b85	6.38272e-11
194	0x31afeb5e	5.1199285e-09
195	0x2f345eb7	1.6404554e-10
196	0x00000000	0.0
197	0x31ad5b92	5.045373e-09
198	0x31c00a37	5.5890967e-09
199	0x2e8ff4fa	6.546404e-11
200	0x31b0a790	5.141324e-09
201	0x2f38b51b	1.6799044e-10
202	0x00000000	0.0
203	0x31ad7b8a	5.0490074e-09
204	0x31c1115c	5.619013e-09
205	0x2e8cef93	6.40902e-11
206	0x31b09251	5.1389084e-09
207	0x2f3c5cb9	1.7131442e-10
208	0x00000000	0.0
209	0x31ad4ef2	5.0439377e-09
210	0x31c36475	5.6866676e-09
211	0x2e91f4b5	6.637305e-11
212	0x31b50ebe	5.2694693e-09
213	0x2f3e011d	1.7280795e-10
214	0x00000000	0.0
215	0x31add214	5.058846e-09
216	0x31c3a189	5.6936114e-09
217	0x2e93570e	6.70025e-11
218	0x31b4d52e	5.262925e-09
219	0x2f4008f5	1.746548e-10
220	0x00000000	0.0
221	0x31ada6dc	5.0539324e-09
222	0x31c23df0	5.6531846e-09
223	0x2e93dd98	6.724149e-11
224	0x31b8e0ea	5.3806746e-09
225	0x2f3ce6ac	1.7180452e-10
226	0x00000000	0.0
227	0x31adee6d	5.0620685e-09
228	0x31c32729	5.679699e-09
229	0x2e9543fb	6.787811e-11
230	0x31b93ef3	5.391365e-09
231	0x2f422b88	1.7659663e-10
232	0x00000000	0.0
233	0x31ad9e49	5.0529576e-09
234	0x31c23c39	5.6529896e-09
235	0x2e94c94f	6.7660204e-11
236	0x31b87034	5.367861e-09
237	0x2f42be89	1.7711889e-10
238	0x00000000	0.0
239	0x31ad1892	5.037756e-09
240	0x31c4bab9	5.7255787e-09
241	0x2e96615d	6.8385055e-11
242	0x31b991f5	5.400802e-09
243	0x2f46a612	1.8066995e-10
244	0x00000000	0.0
245	0x31ad27fd	5.039509e-09
246	0x31c20309	5.646488e-09
247	0x2e920ae4	6.641246e-11
248	0x31bdfc11	5.5292806e-09
249	0x2f40562c	1.7492913e-10
250	0x00000000	0.0
251	0x31ad7b4e	5.048981e-09
252	0x31c539c6	5.7400227e-09
253	0x2e9bebc1	7.090462e-11
254	0x31c36bae	5.6874887e-09
255	0x2f4a3de6	1.8393784e-10

exp_avg f4 [128]
0	0x38056530	3.180391e-05
1	0x36c85d74	5.971344e-06
2	0xb6bb0e68	-5.5747114e-06
3	0xb835abd7	-4.33138e-05
4	0x37ebbb35	2.8101358e-05
5	0x363ab9d2	2.7824321e-06
6	0xb59a2156	-1.1483596e-06
7	0x366077f6	3.3448428e-06
8	0xb63b1183	-2.7875365e-06
9	0xb782423d	-1.5528052e-05
10	0x36a797cb	4.994659e-06
11	0x3553792f	7.877997e-07
12	0x3811cb5a	3.476008e-05
13	0x37dbc2b7	2.6197506e-05
14	0x37acef9b	2.0615573e-05
15	0xb6453698	-2.9387065e-06
16	0xb79b0666	-1.848042e-05
17	0x36d926d8	6.471626e-06
18	0xb8441ccb	-4.6756857e-05
19	0xb7fedb80	-3.0381372e-05
20	0x376a2a13	1.3957283e-05
21	0xb78cda45	-1.679094e-05
22	0x37de65e2	2.6511905e-05
23	0x374c8ec8	1.2192591e-05
24	0x37292056	1.0080714e-05
25	0x370db589	8.446522e-06
26	0xb7345ae4	-1.0749998e-05
27	0x37069a66	8.022971e-06
28	0x3841c4b0	4.6197965e-05
29	0xb7f4e85e	-2.9195271e-05
30	0xb7f577df	-2.9262095e-05
31	0xb73b20cd	-1.1153706e-05
32	0x3558413b	8.0561193e-07
33	0xb6a1600a	-4.8093543e-06
34	0xb749407b	-1.1995547e-05
35	0xb7271e58	-9.961041e-06
36	0x36b12b7d	5.2800738e-06
37	0x3705bf6a	7.971985e-06
38	0x37192cfb	9.1299835e-06
39	0x360ac319	2.0677164e-06
40	0xb6a6bf20	-4.9694354e-06
41	0x371e24c5	9.426095e-06
42	0x377c5217	1.50394835e-05
43	0x37a0cdfb	1.9169403e-05
44	0xb734ac8c	-1.076901e-05
45	0x378fa152	1.7122049e-05
46	0xb73aafcd	-1.1127396e-05
47	0xb75b69ec	-1.3078079e-05
48	0x38590cd5	5.1748782e-05
49	0x3886712c	6.410698e-05
50	0x3715a1ef	8.918795e-06
51	0xb532a769	-6.655378e-07
52	0xb728cc96	-1.0061214e-05
53	0x3589101f	1.0211987e-06
54	0x36e1c050	6.7279107e-06
55	0x37df9b36	2.6655947e-05
56	0x36848049	3.948841e-06
57	0xb791cb54	-1.7380029e-05
58	0xb6c3d14e	-5.835819e-06
59	0xb78711cd	-1.6101543e-05
60	0xb72ba49c	-1.023072e-05
61	0xb703ae32	-7.8487665e-06
62	0xb7ba68da	-2.2221753e-05
63	0x348fda62	2.679472e-07
64	0xb5f6c54f	-1.8385853e-06
65	0xb65d1944	-3.2946273e-06
66	0xb7843f36	-1.5765061e-05
67	0xb6bf70b3	-5.7053635e-06
68	0x33cbfd0c	9.498953e-08
69	0x36e8e58a	6.9408607e-06
70	0x360d7d82	2.1083692e-06
71	0x3804ccdb	3.166204e-05
72	0xb6bcc1aa	-5.625382e-06
73	0xb76cd491	-1.4116188e-05
74	0xb52383d2	-6.0914056e-07
75	0x377b5cc6	1.4982366e-05
76	0x37bd156c	2.2540531e-05
77	0x36f3021b	7.2422094e-06
78	0xb726e7b8	-9.948322e-06
79	0x3552c923	7.852379e-07
80	0x370e7373	8.49074e-06
81	0x38075857	3.226878e-05
82	0x358194ee	9.654593e-07
83	0xb7223423	-9.6680915e-06
84	0x3791a00d	1.7359876e-05
85	0x38110b5f	3.4581284e-05
86	0x37a04e5d	1.9109977e-05
87	0x355d8519	8.25226e-07
88	0x376720c1	1.3776299e-05
89	0xb7de34b3	-2.6489002e-05
90	0xb6f6b79f	-7.3527476e-06
91	0x3654d372	3.171354e-06
92	0xb73684dc	-1.0878979e-05
93	0xb6b03018	-5.2508076e-06
94	0xb70a4cc5	-8.243315e-06
95	0x3662994b	3.3765853e-06
96	0xb6a7a940	-4.996691e-06
97	0xb7bb6e75	-2.2343573e-05
98	0x37696a7c	1.3912675e-05
99	0xb6d30dd4	-6.2899e-06
100	0xb733e721	-1.0723045e-05
101	0x36c04d45	5.7310413e-06
102	0xb626f26e	-2.487704e-06
103	0x378a3219	1.647421e-05
104	0x3741ff10	1.1563083e-05
105	0x36f4abb7	7.291757e-06
106	0xb71539b1	-8.894524e-06
107	0x36bc6a8e	5.615241e-06
108	0x380c3255	3.3425476e-05
109	0xb6a9080a	-5.0375284e-06
110	0xb7500bee	-1.2400544e-05
111	0xb7932c4a	-1.754439e-05
112	0xb55ff991	-8.343714e-07
113	0xb7eb688b	-2.8062865e-05
114	0x3677f3e1	3.6947824e-06
115	0xb805ad15	-3.1870866e-05
116	0xb74220ee	-1.1570968e-05
117	0x379432db	1.7666656e-05
118	0x373e1d6e	1.1331735e-05
119	0xb6003b4b	-1.9108e-06
120	0x36a0f6cc	4.7971025e-06
121	0x37da7f69	2.6046955e-05
122	0xb517198d	-5.6289065e-07
123	0x37f89105	2.9631434e-05
124	0xb5f4954a	-1.8222865e-06
125	0xb7b93e44	-2.2082713e-05
126	0xb7a9434f	-2.0177713e-05
127	0xb58e12b8	-1.0585272e-06
